…
  top: "rgb_data"
  top: "flow_data"
  top: "label"
  include {
    phase: TRAIN
  }
  transform_param {
    mirror: true
    crop_size: 112
    mean_value: 128
    fix_crop: true
    multi_scale: false
    scale_ratios: 1
    scale_ratios: 0.875
    scale_ratios: 0.75
    scale_ratios: 0.66
    max_distort: 1
    new_height: 128
    new_width: 171
  }
  twostream_data_param {
    flow_source: "ucf101_train_flow_len16_split01.txt"
    batch_size: 8
    new_length: 16
    rgb_source: "ucf101_train_rgb_len16_split01.txt"
    preserve_temporal: true
  }
}
layer {
  name: "reshape_flow"
  type: "Reshape"
  bottom: "flow_data"
  top: "flow_vol_data"
  reshape_param {
    shape {
      dim: 2
      dim: -1
    }
    axis: 1
    num_axes: 1
  }
}
layer {
  name: "flow_conv1a"
  type: "Convolution"
  bottom: "flow_vol_data"
  top: "flow_conv1a"
  param {
    lr_mult: 1
    decay_mult: 1
  }
  param {
    lr_mult: 2
    decay_mult: 0
  }
  convolution_param {
    num_output: 64
    pad: 1
    kernel_size: 3
    weight_filler {
      type: "gaussian"
      std: 0.01
    }
    bias_filler {
      type: "constant"
      value: 0
    }
    engine: CAFFE
    axis: 1
  }
}
layer {
  name: "flow_relu1a"
  type: "ReLU"
  bottom: "flow_conv1a"
  top: "flow_conv1a"
  relu_param {
    engine: CAFFE
  }
}
layer {
  name: "flow_pool1"
  type: "Pooling3D"
  bottom: "flow_conv1a"
  top: "flow_pool1"
  pooling3d_param {
    pool: MAX
    kernel_size: 2
    stride: 2
    kernel_depth: 1
    temporal_stride: 1
  }
}
layer {
  name: "flow_pool1_reduce_dim"
  type: "Convolution"
  bottom: "flow_pool1"
  top: "flow_pool1_reduce_dim"
  param {
    lr_mult: 1
    decay_mult: 1
  }
  param {
    lr_mult: 2
    decay_mult: 0
  }
  propagate_down: false
  convolution_param {
    num_output: 1
    pad: 0
    kernel_size: 1
    stride: 1
    weight_filler {
      type: "constant"
      value: 0.015625
    }
    bias_filler {
      type: "constant"
      value: 0
    }
    engine: CAFFE
  }
}
layer {
  name: "flow_pool1_normalized"
  type: "MVN_ND"
  bottom: "flow_pool1_reduce_dim"
  top: "flow_pool1_reduce_dim"
  mvn_param {
    axis: 2
  }
}
layer {
  name: "flow_pool1_attention"
  type: "Sigmoid"
  bottom: "flow_pool1_reduce_dim"
  top: "flow_pool1_attention"
  sigmoid_param {
    engine: CAFFE
  }
}
layer {
  name: "flow_pool1_attention_tiled"
  type: "Tile"
  bottom: "flow_pool1_attention"
  top: "flow_pool1_attention_tiled"
  tile_param {
    axis: 1
    tiles: 64
  }
}
layer {
  name: "reshape_rgb"
  type: "Reshape"
  bottom: "rgb_data"
  top: "rgb_vol_data"
  reshape_param {
    shape {
      dim: 3
      dim: -1
    }
    axis: 1
    num_axes: 1
  }
}
layer {
  name: "rgb_conv1a"
  type: "Convolution"
  bottom: "rgb_vol_data"
  top: "rgb_conv1a"
  param {
    lr_mult: 1
    decay_mult: 1
  }
  param {
    lr_mult: 2
    decay_mult: 0
  }
  convolution_param {
    num_output: 64
    pad: 1
    kernel_size: 3
    weight_filler {
      type: "gaussian"
      std: 0.01
    }
    bias_filler {
      type: "constant"
      value: 0
    }
    engine: CAFFE
    axis: 1
  }
}
layer {
  name: "rgb_relu1a"
  type: "ReLU"
  bottom: "rgb_conv1a"
  top: "rgb_conv1a"
  relu_param {
    engine: CAFFE
  }
}
layer {
  name: "rgb_pool1"
  type: "Pooling3D"
  bottom: "rgb_conv1a"
  top: "rgb_pool1"
  pooling3d_param {
    pool: MAX
    kernel_size: 2
    stride: 2
    kernel_depth: 1
    temporal_stride: 1
  }
}
layer {
  name: "rgb_pool1_feature_attention"
  type: "Eltwise"
  bottom: "rgb_pool1"
  bottom: "flow_pool1_attention_tiled"
  top: "rgb_pool1_feature_attention"
  eltwise_param {
    operation: PROD
  }
}
layer {
  name: "rgb_conv2a"
  type: "Convolution"
  bottom: "rgb_pool1_feature_attention"
  top: "rgb_conv2a"
  param {
    lr_mult: 1
    decay_mult: 1
  }
  param {
    lr_mult: 2
    decay_mult: 0
  }
  convolution_param {
    num_output: 128
    pad: 1
    kernel_size: 3
    weight_filler {
      type: "gaussian"
      std: 0.01
    }
    bias_filler {
      type: "constant"
      value: 1
    }
    engine: CAFFE
    axis: 1
  }
}
layer {
  name: "rgb_relu2a"
  type: "ReLU"
  bottom: "rgb_conv2a"
  top: "rgb_conv2a"
  relu_param {
    engine: CAFFE
  }
}
layer {
  name: "rgb_pool2"
  type: "Pooling3D"
  bottom: "rgb_conv2a"
  top: "rgb_pool2"
  pooling3d_param {
    pool: MAX
    kernel_size: 2
    stride: 2
    kernel_depth: 2
    temporal_stride: 2
  }
}
layer {
  name: "rgb_conv3a"
  type: "Convolution"
  bottom: "rgb_pool2"
  top: "rgb_conv3a"
  param {
    lr_mult: 1
    decay_mult: 1
  }
  param {
    lr_mult: 2
    decay_mult: 0
  }
  convolution_param {
    num_output: 256
    pad: 1
    kernel_size: 3
    weight_filler {
      type: "gaussian"
      std: 0.01
    }
    bias_filler {
      type: "constant"
      value: 1
    }
    engine: CAFFE
    axis: 1
  }
}
layer {
  name: "rgb_relu3a"
  type: "ReLU"
  bottom: "rgb_conv3a"
  top: "rgb_conv3a"
  relu_param {
    engine: CAFFE
  }
}
layer {
  name: "rgb_conv3b"
  type: "Convolution"
  bottom: "rgb_conv3a"
  top: "rgb_conv3b"
  param {
    lr_mult: 1
    decay_mult: 1
  }
  param {
    lr_mult: 2
    decay_mult: 0
  }
  convolution_param {
    num_output: 256
    pad: 1
    kernel_size: 3
    weight_filler {
      type: "gaussian"
      std: 0.01
    }
    bias_filler {
      type: "constant"
      value: 1
    }
    engine: CAFFE
    axis: 1
  }
}
layer {
  name: "rgb_relu3b"
  type: "ReLU"
  bottom: "rgb_conv3b"
  top: "rgb_conv3b"
  relu_param {
    engine: CAFFE
  }
}
layer {
  name: "rgb_pool3"
  type: "Pooling3D"
  bottom: "rgb_conv3b"
  top: "rgb_pool3"
  pooling3d_param {
    pool: MAX
    kernel_size: 2
    stride: 2
    kernel_depth: 2
    temporal_stride: 2
  }
}
layer {
  name: "rgb_conv4a"
  type: "Convolution"
  bottom: "rgb_pool3"
  top: "rgb_conv4a"
  param {
    lr_mult: 1
    decay_mult: 1
  }
  param {
    lr_mult: 2
    decay_mult: 0
  }
  convolution_param {
    num_output: 512
    pad: 1
    kernel_size: 3
    weight_filler {
      type: "gaussian"
      std: 0.01
    }
    bias_filler {
      type: "constant"
      value: 1
    }
    engine: CAFFE
    axis: 1
  }
}
layer {
  name: "rgb_relu4a"
  type: "ReLU"
  bottom: "rgb_conv4a"
  top: "rgb_conv4a"
  relu_param {
    engine: CAFFE
  }
}
layer {
  name: "rgb_conv4b"
  type: "Convolution"
  bottom: "rgb_conv4a"
  top: "rgb_conv4b"
  param {
    lr_mult: 1
    decay_mult: 1
  }
  param {
    lr_mult: 2
    decay_mult: 0
  }
  convolution_param {
    num_output: 512
    pad: 1
    kernel_size: 3
    weight_filler {
      type: "gaussian"
      std: 0.01
    }
    bias_filler {
      type: "constant"
      value: 1
    }
    engine: CAFFE
    axis: 1
  }
}
layer {
  name: "rgb_relu4b"
  type: "ReLU"
  bottom: "rgb_conv4b"
  top: "rgb_conv4b"
  relu_param {
    engine: CAFFE
  }
}
layer {
  name: "rgb_pool4"
  type: "Pooling3D"
  bottom: "rgb_conv4b"
  top: "rgb_pool4"
  pooling3d_param {
    pool: MAX
    kernel_size: 2
    stride: 2
    kernel_depth: 2
    temporal_stride: 2
  }
}
layer {
  name: "rgb_conv5a"
  type: "Convolution"
  bottom: "rgb_pool4"
  top: "rgb_conv5a"
  param {
    lr_mult: 1
    decay_mult: 1
  }
  param {
    lr_mult: 2
    decay_mult: 0
  }
  convolution_param {
    num_output: 512
    pad: 1
    kernel_size: 3
    weight_filler {
      type: "gaussian"
      std: 0.01
    }
    bias_filler {
      type: "constant"
      value: 1
    }
    engine: CAFFE
    axis: 1
  }
}
layer {
  name: "rgb_relu5a"
  type: "ReLU"
  bottom: "rgb_conv5a"
  top: "rgb_conv5a"
  relu_param {
    engine: CAFFE
  }
}
layer {
  name: "rgb_conv5b"
  type: "Convolution"
  bottom: "rgb_conv5a"
  top: "rgb_conv5b"
  param {
    lr_mult: 1
    decay_mult: 1
  }
  param {
    lr_mult: 2
    decay_mult: 0
  }
  convolution_param {
    num_output: 512
    pad: 1
    kernel_size: 3
    weight_filler {
      type: "gaussian"
      std: 0.01
    }
    bias_filler {
      type: "constant"
      value: 1
    }
    engine: CAFFE
    axis: 1
  }
}
layer {
  name: "rgb_relu5b"
  type: "ReLU"
  bottom: "rgb_conv5b"
  top: "rgb_conv5b"
  relu_param {
    engine: CAFFE
  }
}
layer {
  name: "rgb_pool5"
  type: "Pooling3D"
  bottom: "rgb_conv5b"
  top: "rgb_pool5"
  pooling3d_param {
    pool: MAX
    kernel_size: 2
    stride: 2
    kernel_depth: 2
    temporal_stride: 2
  }
}
layer {
  name: "rgb_fc6"
  type: "InnerProduct"
  bottom: "rgb_pool5"
  top: "rgb_fc6"
  param {
    lr_mult: 1
    decay_mult: 1
  }
  param {
    lr_mult: 2
    decay_mult: 0
  }
  inner_product_param {
    num_output: 4096
    weight_filler {
      type: "gaussian"
      std: 0.005
    }
    bias_filler {
      type: "constant"
      value: 1
    }
  }
}
layer {
  name: "rgb_relu6"
  type: "ReLU"
  bottom: "rgb_fc6"
  top: "rgb_fc6"
  relu_param {
    engine: CAFFE
  }
}
layer {
  name: "rgb_drop6"
  type: "Dropout"
  bottom: "rgb_fc6"
  top: "rgb_fc6"
  dropout_param {
    dropout_ratio: 0.9
  }
}
layer {
  name: "rgb_fc7"
  type: "InnerProduct"
  bottom: "rgb_fc6"
  top: "rgb_fc7"
  param {
    lr_mult: 1
    decay_mult: 1
  }
  param {
    lr_mult: 2
    decay_mult: 0
  }
  inner_product_param {
    num_output: 4096
    weight_filler {
      type: "gaussian"
      std: 0.005
    }
    bias_filler {
      type: "constant"
      value: 1
    }
  }
}
layer {
  name: "rgb_relu7"
  type: "ReLU"
  bottom: "rgb_fc7"
  top: "rgb_fc7"
  relu_param {
    engine: CAFFE
  }
}
layer {
  name: "rgb_drop7"
  type: "Dropout"
  bottom: "rgb_fc7"
  top: "rgb_fc7"
  dropout_param {
    dropout_ratio: 0.8
  }
}
layer {
  name: "rgb_fc8"
  type: "InnerProduct"
  bottom: "rgb_fc7"
  top: "rgb_fc8"
  param {
    lr_mult: 1
    decay_mult: 1
  }
  param {
    lr_mult: 2
    decay_mult: 0
  }
  inner_product_param {
    num_output: 101
    weight_filler {
      type: "gaussian"
      std: 0.01
    }
    bias_filler {
      type: "constant"
      value: 0
    }
  }
}
layer {
  name: "loss"
  type: "SoftmaxWithLoss"
  bottom: "rgb_fc8"
  bottom: "label"
  top: "loss"
}
I0729 23:30:44.075582 13349 layer_factory.hpp:77] Creating layer twostream_data
I0729 23:30:44.075685 13349 net.cpp:91] Creating Layer twostream_data
I0729 23:30:44.075700 13349 net.cpp:399] twostream_data -> rgb_data
I0729 23:30:44.075742 13349 net.cpp:399] twostream_data -> flow_data
I0729 23:30:44.075752 13349 net.cpp:399] twostream_data -> label
I0729 23:30:44.106981 13349 twostream_snippet_data_layer.cpp:52] rgb data size: 8,48,112,112
I0729 23:30:44.107070 13349 twostream_snippet_data_layer.cpp:68] flow data size: 8,32,112,112
I0729 23:30:44.194525 13349 net.cpp:141] Setting up twostream_data
I0729 23:30:44.194567 13349 net.cpp:148] Top shape: 8 48 112 112 (4816896)
I0729 23:30:44.194574 13349 net.cpp:148] Top shape: 8 32 112 112 (3211264)
I0729 23:30:44.194579 13349 net.cpp:148] Top shape: 8 (8)
I0729 23:30:44.194582 13349 net.cpp:156] Memory required for data: 32112672
I0729 23:30:44.194595 13349 layer_factory.hpp:77] Creating layer reshape_flow
I0729 23:30:44.194614 13349 net.cpp:91] Creating Layer reshape_flow
I0729 23:30:44.194622 13349 net.cpp:425] reshape_flow <- flow_data
I0729 23:30:44.194650 13349 net.cpp:399] reshape_flow -> flow_vol_data
I0729 23:30:44.194736 13349 net.cpp:141] Setting up reshape_flow
I0729 23:30:44.194746 13349 net.cpp:148] Top shape: 8 2 16 112 112 (3211264)
I0729 23:30:44.194751 13349 net.cpp:156] Memory required for data: 44957728
I0729 23:30:44.194754 13349 layer_factory.hpp:77] Creating layer flow_conv1a
I0729 23:30:44.194772 13349 net.cpp:91] Creating Layer flow_conv1a
I0729 23:30:44.194777 13349 net.cpp:425] flow_conv1a <- flow_vol_data
I0729 23:30:44.194782 13349 net.cpp:399] flow_conv1a -> flow_conv1a
I0729 23:30:44.196698 13349 net.cpp:141] Setting up flow_conv1a
I0729 23:30:44.196718 13349 net.cpp:148] Top shape: 8 64 16 112 112 (102760448)
I0729 23:30:44.196723 13349 net.cpp:156] Memory required for data: 455999520
I0729 23:30:44.196735 13349 layer_factory.hpp:77] Creating layer flow_relu1a
I0729 23:30:44.196743 13349 net.cpp:91] Creating Layer flow_relu1a
I0729 23:30:44.196748 13349 net.cpp:425] flow_relu1a <- flow_conv1a
I0729 23:30:44.196753 13349 net.cpp:386] flow_relu1a -> flow_conv1a (in-place)
I0729 23:30:44.196764 13349 net.cpp:141] Setting up flow_relu1a
I0729 23:30:44.196770 13349 net.cpp:148] Top shape: 8 64 16 112 112 (102760448)
I0729 23:30:44.196774 13349 net.cpp:156] Memory required for data: 867041312
I0729 23:30:44.196779 13349 layer_factory.hpp:77] Creating layer flow_pool1
I0729 23:30:44.196805 13349 net.cpp:91] Creating Layer flow_pool1
I0729 23:30:44.196811 13349 net.cpp:425] flow_pool1 <- flow_conv1a
I0729 23:30:44.196817 13349 net.cpp:399] flow_pool1 -> flow_pool1
I0729 23:30:44.199280 13349 net.cpp:141] Setting up flow_pool1
I0729 23:30:44.199303 13349 net.cpp:148] Top shape: 8 64 16 56 56 (25690112)
I0729 23:30:44.199308 13349 net.cpp:156] Memory required for data: 969801760
I0729 23:30:44.199312 13349 layer_factory.hpp:77] Creating layer flow_pool1_reduce_dim
I0729 23:30:44.199326 13349 net.cpp:91] Creating Layer flow_pool1_reduce_dim
I0729 23:30:44.199329 13349 net.cpp:425] flow_pool1_reduce_dim <- flow_pool1
I0729 23:30:44.199337 13349 net.cpp:399] flow_pool1_reduce_dim -> flow_pool1_reduce_dim
I0729 23:30:44.200348 13349 net.cpp:141] Setting up flow_pool1_reduce_dim
I0729 23:30:44.200366 13349 net.cpp:148] Top shape: 8 1 16 56 56 (401408)
I0729 23:30:44.200369 13349 net.cpp:156] Memory required for data: 971407392
I0729 23:30:44.200379 13349 layer_factory.hpp:77] Creating layer flow_pool1_normalized
I0729 23:30:44.200392 13349 net.cpp:91] Creating Layer flow_pool1_normalized
I0729 23:30:44.200397 13349 net.cpp:425] flow_pool1_normalized <- flow_pool1_reduce_dim
I0729 23:30:44.200403 13349 net.cpp:386] flow_pool1_normalized -> flow_pool1_reduce_dim (in-place)
I0729 23:30:44.200475 13349 net.cpp:141] Setting up flow_pool1_normalized
I0729 23:30:44.200485 13349 net.cpp:148] Top shape: 8 1 16 56 56 (401408)
I0729 23:30:44.200489 13349 net.cpp:156] Memory required for data: 973013024
I0729 23:30:44.200492 13349 layer_factory.hpp:77] Creating layer flow_pool1_attention
I0729 23:30:44.200500 13349 net.cpp:91] Creating Layer flow_pool1_attention
I0729 23:30:44.200505 13349 net.cpp:425] flow_pool1_attention <- flow_pool1_reduce_dim
I0729 23:30:44.200510 13349 net.cpp:399] flow_pool1_attention -> flow_pool1_attention
I0729 23:30:44.200531 13349 net.cpp:141] Setting up flow_pool1_attention
I0729 23:30:44.200539 13349 net.cpp:148] Top shape: 8 1 16 56 56 (401408)
I0729 23:30:44.200543 13349 net.cpp:156] Memory required for data: 974618656
I0729 23:30:44.200546 13349 layer_factory.hpp:77] Creating layer flow_pool1_attention_tiled
I0729 23:30:44.200558 13349 net.cpp:91] Creating Layer flow_pool1_attention_tiled
I0729 23:30:44.200563 13349 net.cpp:425] flow_pool1_attention_tiled <- flow_pool1_attention
I0729 23:30:44.200568 13349 net.cpp:399] flow_pool1_attention_tiled -> flow_pool1_attention_tiled
I0729 23:30:44.200589 13349 net.cpp:141] Setting up flow_pool1_attention_tiled
I0729 23:30:44.200598 13349 net.cpp:148] Top shape: 8 64 16 56 56 (25690112)
I0729 23:30:44.200601 13349 net.cpp:156] Memory required for data: 1077379104
I0729 23:30:44.200605 13349 layer_factory.hpp:77] Creating layer reshape_rgb
I0729 23:30:44.200621 13349 net.cpp:91] Creating Layer reshape_rgb
I0729 23:30:44.200625 13349 net.cpp:425] reshape_rgb <- rgb_data
I0729 23:30:44.200631 13349 net.cpp:399] reshape_rgb -> rgb_vol_data
I0729 23:30:44.200655 13349 net.cpp:141] Setting up reshape_rgb
I0729 23:30:44.200662 13349 net.cpp:148] Top shape: 8 3 16 112 112 (4816896)
I0729 23:30:44.200665 13349 net.cpp:156] Memory required for data: 1096646688
I0729 23:30:44.200670 13349 layer_factory.hpp:77] Creating layer rgb_conv1a
I0729 23:30:44.200680 13349 net.cpp:91] Creating Layer rgb_conv1a
I0729 23:30:44.200683 13349 net.cpp:425] rgb_conv1a <- rgb_vol_data
I0729 23:30:44.200688 13349 net.cpp:399] rgb_conv1a -> rgb_conv1a
I0729 23:30:44.201709 13349 net.cpp:141] Setting up rgb_conv1a
I0729 23:30:44.201725 13349 net.cpp:148] Top shape: 8 64 16 112 112 (102760448)
I0729 23:30:44.201728 13349 net.cpp:156] Memory required for data: 1507688480
I0729 23:30:44.201737 13349 layer_factory.hpp:77] Creating layer rgb_relu1a
I0729 23:30:44.201746 13349 net.cpp:91] Creating Layer rgb_relu1a
I0729 23:30:44.201750 13349 net.cpp:425] rgb_relu1a <- rgb_conv1a
I0729 23:30:44.201756 13349 net.cpp:386] rgb_relu1a -> rgb_conv1a (in-place)
I0729 23:30:44.201761 13349 net.cpp:141] Setting up rgb_relu1a
I0729 23:30:44.201766 13349 net.cpp:148] Top shape: 8 64 16 112 112 (102760448)
I0729 23:30:44.201771 13349 net.cpp:156] Memory required for data: 1918730272
I0729 23:30:44.201773 13349 layer_factory.hpp:77] Creating layer rgb_pool1
I0729 23:30:44.201779 13349 net.cpp:91] Creating Layer rgb_pool1
I0729 23:30:44.201783 13349 net.cpp:425] rgb_pool1 <- rgb_conv1a
I0729 23:30:44.201789 13349 net.cpp:399] rgb_pool1 -> rgb_pool1
I0729 23:30:44.201809 13349 net.cpp:141] Setting up rgb_pool1
I0729 23:30:44.201819 13349 net.cpp:148] Top shape: 8 64 16 56 56 (25690112)
I0729 23:30:44.201823 13349 net.cpp:156] Memory required for data: 2021490720
I0729 23:30:44.201828 13349 layer_factory.hpp:77] Creating layer rgb_pool1_feature_attention
I0729 23:30:44.201833 13349 net.cpp:91] Creating Layer rgb_pool1_feature_attention
I0729 23:30:44.201838 13349 net.cpp:425] rgb_pool1_feature_attention <- rgb_pool1
I0729 23:30:44.201841 13349 net.cpp:425] rgb_pool1_feature_attention <- flow_pool1_attention_tiled
I0729 23:30:44.201848 13349 net.cpp:399] rgb_pool1_feature_attention -> rgb_pool1_feature_attention
I0729 23:30:44.201869 13349 net.cpp:141] Setting up rgb_pool1_feature_attention
I0729 23:30:44.201876 13349 net.cpp:148] Top shape: 8 64 16 56 56 (25690112)
I0729 23:30:44.201879 13349 net.cpp:156] Memory required for data: 2124251168
I0729 23:30:44.201884 13349 layer_factory.hpp:77] Creating layer rgb_conv2a
I0729 23:30:44.201891 13349 net.cpp:91] Creating Layer rgb_conv2a
I0729 23:30:44.201895 13349 net.cpp:425] rgb_conv2a <- rgb_pool1_feature_attention
I0729 23:30:44.201902 13349 net.cpp:399] rgb_conv2a -> rgb_conv2a
I0729 23:30:44.204749 13349 net.cpp:141] Setting up rgb_conv2a
I0729 23:30:44.204771 13349 net.cpp:148] Top shape: 8 128 16 56 56 (51380224)
I0729 23:30:44.204774 13349 net.cpp:156] Memory required for data: 2329772064
I0729 23:30:44.204782 13349 layer_factory.hpp:77] Creating layer rgb_relu2a
I0729 23:30:44.204788 13349 net.cpp:91] Creating Layer rgb_relu2a
I0729 23:30:44.204793 13349 net.cpp:425] rgb_relu2a <- rgb_conv2a
I0729 23:30:44.204798 13349 net.cpp:386] rgb_relu2a -> rgb_conv2a (in-place)
I0729 23:30:44.204804 13349 net.cpp:141] Setting up rgb_relu2a
I0729 23:30:44.204809 13349 net.cpp:148] Top shape: 8 128 16 56 56 (51380224)
I0729 23:30:44.204813 13349 net.cpp:156] Memory required for data: 2535292960
I0729 23:30:44.204816 13349 layer_factory.hpp:77] Creating layer rgb_pool2
I0729 23:30:44.204824 13349 net.cpp:91] Creating Layer rgb_pool2
I0729 23:30:44.204828 13349 net.cpp:425] rgb_pool2 <- rgb_conv2a
I0729 23:30:44.204833 13349 net.cpp:399] rgb_pool2 -> rgb_pool2
I0729 23:30:44.204854 13349 net.cpp:141] Setting up rgb_pool2
I0729 23:30:44.204862 13349 net.cpp:148] Top shape: 8 128 8 28 28 (6422528)
I0729 23:30:44.204866 13349 net.cpp:156] Memory required for data: 2560983072
I0729 23:30:44.204877 13349 layer_factory.hpp:77] Creating layer rgb_conv3a
I0729 23:30:44.204888 13349 net.cpp:91] Creating Layer rgb_conv3a
I0729 23:30:44.204893 13349 net.cpp:425] rgb_conv3a <- rgb_pool2
I0729 23:30:44.204900 13349 net.cpp:399] rgb_conv3a -> rgb_conv3a
I0729 23:30:44.213821 13349 net.cpp:141] Setting up rgb_conv3a
I0729 23:30:44.213840 13349 net.cpp:148] Top shape: 8 256 8 28 28 (12845056)
I0729 23:30:44.213845 13349 net.cpp:156] Memory required for data: 2612363296
I0729 23:30:44.213855 13349 layer_factory.hpp:77] Creating layer rgb_relu3a
I0729 23:30:44.213861 13349 net.cpp:91] Creating Layer rgb_relu3a
I0729 23:30:44.213866 13349 net.cpp:425] rgb_relu3a <- rgb_conv3a
I0729 23:30:44.213871 13349 net.cpp:386] rgb_relu3a -> rgb_conv3a (in-place)
I0729 23:30:44.213877 13349 net.cpp:141] Setting up rgb_relu3a
I0729 23:30:44.213882 13349 net.cpp:148] Top shape: 8 256 8 28 28 (12845056)
I0729 23:30:44.213886 13349 net.cpp:156] Memory required for data: 2663743520
I0729 23:30:44.213891 13349 layer_factory.hpp:77] Creating layer rgb_conv3b
I0729 23:30:44.213899 13349 net.cpp:91] Creating Layer rgb_conv3b
I0729 23:30:44.213903 13349 net.cpp:425] rgb_conv3b <- rgb_conv3a
I0729 23:30:44.213910 13349 net.cpp:399] rgb_conv3b -> rgb_conv3b
I0729 23:30:44.231350 13349 net.cpp:141] Setting up rgb_conv3b
I0729 23:30:44.231374 13349 net.cpp:148] Top shape: 8 256 8 28 28 (12845056)
I0729 23:30:44.231379 13349 net.cpp:156] Memory required for data: 2715123744
I0729 23:30:44.231386 13349 layer_factory.hpp:77] Creating layer rgb_relu3b
I0729 23:30:44.231395 13349 net.cpp:91] Creating Layer rgb_relu3b
I0729 23:30:44.231400 13349 net.cpp:425] rgb_relu3b <- rgb_conv3b
I0729 23:30:44.231405 13349 net.cpp:386] rgb_relu3b -> rgb_conv3b (in-place)
I0729 23:30:44.231411 13349 net.cpp:141] Setting up rgb_relu3b
I0729 23:30:44.231416 13349 net.cpp:148] Top shape: 8 256 8 28 28 (12845056)
I0729 23:30:44.231420 13349 net.cpp:156] Memory required for data: 2766503968
I0729 23:30:44.231423 13349 layer_factory.hpp:77] Creating layer rgb_pool3
I0729 23:30:44.231431 13349 net.cpp:91] Creating Layer rgb_pool3
I0729 23:30:44.231434 13349 net.cpp:425] rgb_pool3 <- rgb_conv3b
I0729 23:30:44.231439 13349 net.cpp:399] rgb_pool3 -> rgb_pool3
I0729 23:30:44.231462 13349 net.cpp:141] Setting up rgb_pool3
I0729 23:30:44.231469 13349 net.cpp:148] Top shape: 8 256 4 14 14 (1605632)
I0729 23:30:44.231473 13349 net.cpp:156] Memory required for data: 2772926496
I0729 23:30:44.231477 13349 layer_factory.hpp:77] Creating layer rgb_conv4a
I0729 23:30:44.231487 13349 net.cpp:91] Creating Layer rgb_conv4a
I0729 23:30:44.231498 13349 net.cpp:425] rgb_conv4a <- rgb_pool3
I0729 23:30:44.231503 13349 net.cpp:399] rgb_conv4a -> rgb_conv4a
I0729 23:30:44.267174 13349 net.cpp:141] Setting up rgb_conv4a
I0729 23:30:44.267215 13349 net.cpp:148] Top shape: 8 512 4 14 14 (3211264)
I0729 23:30:44.267220 13349 net.cpp:156] Memory required for data: 2785771552
I0729 23:30:44.267227 13349 layer_factory.hpp:77] Creating layer rgb_relu4a
I0729 23:30:44.267240 13349 net.cpp:91] Creating Layer rgb_relu4a
I0729 23:30:44.267244 13349 net.cpp:425] rgb_relu4a <- rgb_conv4a
I0729 23:30:44.267251 13349 net.cpp:386] rgb_relu4a -> rgb_conv4a (in-place)
I0729 23:30:44.267261 13349 net.cpp:141] Setting up rgb_relu4a
I0729 23:30:44.267266 13349 net.cpp:148] Top shape: 8 512 4 14 14 (3211264)
I0729 23:30:44.267269 13349 net.cpp:156] Memory required for data: 2798616608
I0729 23:30:44.267273 13349 layer_factory.hpp:77] Creating layer rgb_conv4b
I0729 23:30:44.267284 13349 net.cpp:91] Creating Layer rgb_conv4b
I0729 23:30:44.267288 13349 net.cpp:425] rgb_conv4b <- rgb_conv4a
I0729 23:30:44.267294 13349 net.cpp:399] rgb_conv4b -> rgb_conv4b
I0729 23:30:44.337462 13349 net.cpp:141] Setting up rgb_conv4b
I0729 23:30:44.337509 13349 net.cpp:148] Top shape: 8 512 4 14 14 (3211264)
I0729 23:30:44.337514 13349 net.cpp:156] Memory required for data: 2811461664
I0729 23:30:44.337524 13349 layer_factory.hpp:77] Creating layer rgb_relu4b
I0729 23:30:44.337545 13349 net.cpp:91] Creating Layer rgb_relu4b
I0729 23:30:44.337559 13349 net.cpp:425] rgb_relu4b <- rgb_conv4b
I0729 23:30:44.337566 13349 net.cpp:386] rgb_relu4b -> rgb_conv4b (in-place)
I0729 23:30:44.337576 13349 net.cpp:141] Setting up rgb_relu4b
I0729 23:30:44.337581 13349 net.cpp:148] Top shape: 8 512 4 14 14 (3211264)
I0729 23:30:44.337585 13349 net.cpp:156] Memory required for data: 2824306720
I0729 23:30:44.337589 13349 layer_factory.hpp:77] Creating layer rgb_pool4
I0729 23:30:44.337595 13349 net.cpp:91] Creating Layer rgb_pool4
I0729 23:30:44.337599 13349 net.cpp:425] rgb_pool4 <- rgb_conv4b
I0729 23:30:44.337605 13349 net.cpp:399] rgb_pool4 -> rgb_pool4
I0729 23:30:44.337630 13349 net.cpp:141] Setting up rgb_pool4
I0729 23:30:44.337637 13349 net.cpp:148] Top shape: 8 512 2 7 7 (401408)
I0729 23:30:44.337641 13349 net.cpp:156] Memory required for data: 2825912352
I0729 23:30:44.337646 13349 layer_factory.hpp:77] Creating layer rgb_conv5a
I0729 23:30:44.337656 13349 net.cpp:91] Creating Layer rgb_conv5a
I0729 23:30:44.337659 13349 net.cpp:425] rgb_conv5a <- rgb_pool4
I0729 23:30:44.337666 13349 net.cpp:399] rgb_conv5a -> rgb_conv5a
I0729 23:30:44.407763 13349 net.cpp:141] Setting up rgb_conv5a
I0729 23:30:44.407807 13349 net.cpp:148] Top shape: 8 512 2 7 7 (401408)
I0729 23:30:44.407812 13349 net.cpp:156] Memory required for data: 2827517984
I0729 23:30:44.407829 13349 layer_factory.hpp:77] Creating layer rgb_relu5a
I0729 23:30:44.407840 13349 net.cpp:91] Creating Layer rgb_relu5a
I0729 23:30:44.407845 13349 net.cpp:425] rgb_relu5a <- rgb_conv5a
I0729 23:30:44.407851 13349 net.cpp:386] rgb_relu5a -> rgb_conv5a (in-place)
I0729 23:30:44.407860 13349 net.cpp:141] Setting up rgb_relu5a
I0729 23:30:44.407866 13349 net.cpp:148] Top shape: 8 512 2 7 7 (401408)
I0729 23:30:44.407868 13349 net.cpp:156] Memory required for data: 2829123616
I0729 23:30:44.407872 13349 layer_factory.hpp:77] Creating layer rgb_conv5b
I0729 23:30:44.407882 13349 net.cpp:91] Creating Layer rgb_conv5b
I0729 23:30:44.407887 13349 net.cpp:425] rgb_conv5b <- rgb_conv5a
I0729 23:30:44.407902 13349 net.cpp:399] rgb_conv5b -> rgb_conv5b
I0729 23:30:44.478291 13349 net.cpp:141] Setting up rgb_conv5b
I0729 23:30:44.478330 13349 net.cpp:148] Top shape: 8 512 2 7 7 (401408)
I0729 23:30:44.478335 13349 net.cpp:156] Memory required for data: 2830729248
I0729 23:30:44.478344 13349 layer_factory.hpp:77] Creating layer rgb_relu5b
I0729 23:30:44.478355 13349 net.cpp:91] Creating Layer rgb_relu5b
I0729 23:30:44.478361 13349 net.cpp:425] rgb_relu5b <- rgb_conv5b
I0729 23:30:44.478368 13349 net.cpp:386] rgb_relu5b -> rgb_conv5b (in-place)
I0729 23:30:44.478377 13349 net.cpp:141] Setting up rgb_relu5b
I0729 23:30:44.478382 13349 net.cpp:148] Top shape: 8 512 2 7 7 (401408)
I0729 23:30:44.478385 13349 net.cpp:156] Memory required for data: 2832334880
I0729 23:30:44.478390 13349 layer_factory.hpp:77] Creating layer rgb_pool5
I0729 23:30:44.478399 13349 net.cpp:91] Creating Layer rgb_pool5
I0729 23:30:44.478401 13349 net.cpp:425] rgb_pool5 <- rgb_conv5b
I0729 23:30:44.478407 13349 net.cpp:399] rgb_pool5 -> rgb_pool5
I0729 23:30:44.478437 13349 net.cpp:141] Setting up rgb_pool5
I0729 23:30:44.478444 13349 net.cpp:148] Top shape: 8 512 1 4 4 (65536)
I0729 23:30:44.478447 13349 net.cpp:156] Memory required for data: 2832597024
I0729 23:30:44.478451 13349 layer_factory.hpp:77] Creating layer rgb_fc6
I0729 23:30:44.478463 13349 net.cpp:91] Creating Layer rgb_fc6
I0729 23:30:44.478468 13349 net.cpp:425] rgb_fc6 <- rgb_pool5
I0729 23:30:44.478474 13349 net.cpp:399] rgb_fc6 -> rgb_fc6
I0729 23:30:44.791420 13349 net.cpp:141] Setting up rgb_fc6
I0729 23:30:44.791461 13349 net.cpp:148] Top shape: 8 4096 (32768)
I0729 23:30:44.791465 13349 net.cpp:156] Memory required for data: 2832728096
I0729 23:30:44.791491 13349 layer_factory.hpp:77] Creating layer rgb_relu6
I0729 23:30:44.791501 13349 net.cpp:91] Creating Layer rgb_relu6
I0729 23:30:44.791507 13349 net.cpp:425] rgb_relu6 <- rgb_fc6
I0729 23:30:44.791513 13349 net.cpp:386] rgb_relu6 -> rgb_fc6 (in-place)
I0729 23:30:44.791530 13349 net.cpp:141] Setting up rgb_relu6
I0729 23:30:44.791543 13349 net.cpp:148] Top shape: 8 4096 (32768)
I0729 23:30:44.791548 13349 net.cpp:156] Memory required for data: 2832859168
I0729 23:30:44.791550 13349 layer_factory.hpp:77] Creating layer rgb_drop6
I0729 23:30:44.791564 13349 net.cpp:91] Creating Layer rgb_drop6
I0729 23:30:44.791568 13349 net.cpp:425] rgb_drop6 <- rgb_fc6
I0729 23:30:44.791575 13349 net.cpp:386] rgb_drop6 -> rgb_fc6 (in-place)
I0729 23:30:44.791601 13349 net.cpp:141] Setting up rgb_drop6
I0729 23:30:44.791609 13349 net.cpp:148] Top shape: 8 4096 (32768)
I0729 23:30:44.791612 13349 net.cpp:156] Memory required for data: 2832990240
I0729 23:30:44.791615 13349 layer_factory.hpp:77] Creating layer rgb_fc7
I0729 23:30:44.791625 13349 net.cpp:91] Creating Layer rgb_fc7
I0729 23:30:44.791628 13349 net.cpp:425] rgb_fc7 <- rgb_fc6
I0729 23:30:44.791638 13349 net.cpp:399] rgb_fc7 -> rgb_fc7
I0729 23:30:44.940116 13349 net.cpp:141] Setting up rgb_fc7
I0729 23:30:44.940156 13349 net.cpp:148] Top shape: 8 4096 (32768)
I0729 23:30:44.940161 13349 net.cpp:156] Memory required for data: 2833121312
I0729 23:30:44.940186 13349 layer_factory.hpp:77] Creating layer rgb_relu7
I0729 23:30:44.940196 13349 net.cpp:91] Creating Layer rgb_relu7
I0729 23:30:44.940201 13349 net.cpp:425] rgb_relu7 <- rgb_fc7
I0729 23:30:44.940207 13349 net.cpp:386] rgb_relu7 -> rgb_fc7 (in-place)
I0729 23:30:44.940215 13349 net.cpp:141] Setting up rgb_relu7
I0729 23:30:44.940220 13349 net.cpp:148] Top shape: 8 4096 (32768)
I0729 23:30:44.940223 13349 net.cpp:156] Memory required for data: 2833252384
I0729 23:30:44.940227 13349 layer_factory.hpp:77] Creating layer rgb_drop7
I0729 23:30:44.940234 13349 net.cpp:91] Creating Layer rgb_drop7
I0729 23:30:44.940238 13349 net.cpp:425] rgb_drop7 <- rgb_fc7
I0729 23:30:44.940243 13349 net.cpp:386] rgb_drop7 -> rgb_fc7 (in-place)
I0729 23:30:44.940264 13349 net.cpp:141] Setting up rgb_drop7
I0729 23:30:44.940270 13349 net.cpp:148] Top shape: 8 4096 (32768)
I0729 23:30:44.940274 13349 net.cpp:156] Memory required for data: 2833383456
I0729 23:30:44.940276 13349 layer_factory.hpp:77] Creating layer rgb_fc8
I0729 23:30:44.940284 13349 net.cpp:91] Creating Layer rgb_fc8
I0729 23:30:44.940287 13349 net.cpp:425] rgb_fc8 <- rgb_fc7
I0729 23:30:44.940294 13349 net.cpp:399] rgb_fc8 -> rgb_fc8
I0729 23:30:44.944411 13349 net.cpp:141] Setting up rgb_fc8
I0729 23:30:44.944424 13349 net.cpp:148] Top shape: 8 101 (808)
I0729 23:30:44.944428 13349 net.cpp:156] Memory required for data: 2833386688
I0729 23:30:44.944433 13349 layer_factory.hpp:77] Creating layer loss
I0729 23:30:44.944444 13349 net.cpp:91] Creating Layer loss
I0729 23:30:44.944448 13349 net.cpp:425] loss <- rgb_fc8
I0729 23:30:44.944453 13349 net.cpp:425] loss <- label
I0729 23:30:44.944458 13349 net.cpp:399] loss -> loss
I0729 23:30:44.944466 13349 layer_factory.hpp:77] Creating layer loss
…
name: "C3D_FCAN_net"
state {
  phase: TEST
}
layer {
  name: "twostream_data"
  type: "TwostreamSnippetData"
  top: "rgb_data"
  top: "flow_data"
  top: "label"
  include {
    phase: TEST
  }
  transform_param {
    mirror: false
    crop_size: 112
    mean_value: 128
    fix_crop: false
    multi_scale: false
    new_height: 128
    new_width: 171
  }
  twostream_data_param {
    flow_source: "ucf101_val_flow_len16_split01.txt"
    batch_size: 1
    new_length: 16
    rgb_source: "ucf101_val_rgb_len16_split01.txt"
    preserve_temporal: true
  }
}
layer {
  name: "reshape_flow"
  type: "Reshape"
  bottom: "flow_data"
  top: "flow_vol_data"
  reshape_param {
    shape {
      dim: 2
      dim: -1
    }
    axis: 1
    num_axes: 1
  }
}
layer {
  name: "flow_conv1a"
  type: "Convolution"
  bottom: "flow_vol_data"
  top: "flow_conv1a"
  param {
    lr_mult: 1
    decay_mult: 1
  }
  param {
    lr_mult: 2
    decay_mult: 0
  }
  convolution_param {
    num_output: 64
    pad: 1
    kernel_size: 3
    weight_filler {
      type: "gaussian"
      std: 0.01
    }
    bias_filler {
      type: "constant"
      value: 0
    }
    engine: CAFFE
    axis: 1
  }
}
layer {
  name: "flow_relu1a"
  type: "ReLU"
  bottom: "flow_conv1a"
  top: "flow_conv1a"
  relu_param {
    engine: CAFFE
  }
}
layer {
  name: "flow_pool1"
  type: "Pooling3D"
  bottom: "flow_conv1a"
  top: "flow_pool1"
  pooling3d_param {
    pool: MAX
    kernel_size: 2
    stride: 2
    kernel_depth: 1
    temporal_stride: 1
  }
}
layer {
  name: "flow_pool1_reduce_dim"
  type: "Convolution"
  bottom: "flow_pool1"
  top: "flow_pool1_reduce_dim"
  param {
    lr_mult: 1
    decay_mult: 1
  }
  param {
    lr_mult: 2
    decay_mult: 0
  }
  propagate_down: false
  convolution_param {
    num_output: 1
    pad: 0
    kernel_size: 1
    stride: 1
    weight_filler {
      type: "constant"
      value: 0.015625
    }
    bias_filler {
      type: "constant"
      value: 0
    }
    engine: CAFFE
  }
}
layer {
  name: "flow_pool1_normalized"
  type: "MVN_ND"
  bottom: "flow_pool1_reduce_dim"
  top: "flow_pool1_reduce_dim"
  mvn_param {
    axis: 2
  }
}
layer {
  name: "flow_pool1_attention"
  type: "Sigmoid"
  bottom: "flow_pool1_reduce_dim"
  top: "flow_pool1_attention"
  sigmoid_param {
    engine: CAFFE
  }
}
layer {
  name: "flow_pool1_attention_tiled"
  type: "Tile"
  bottom: "flow_pool1_attention"
  top: "flow_pool1_attention_tiled"
  tile_param {
    axis: 1
    tiles: 64
  }
}
layer {
  name: "reshape_rgb"
  type: "Reshape"
  bottom: "rgb_data"
  top: "rgb_vol_data"
  reshape_param {
    shape {
      dim: 3
      dim: -1
    }
    axis: 1
    num_axes: 1
  }
}
layer {
  name: "rgb_conv1a"
  type: "Convolution"
  bottom: "rgb_vol_data"
  top: "rgb_conv1a"
  param {
    lr_mult: 1
    decay_mult: 1
  }
  param {
    lr_mult: 2
    decay_mult: 0
  }
  convolution_param {
    num_output: 64
    pad: 1
    kernel_size: 3
    weight_filler {
      type: "gaussian"
      std: 0.01
    }
    bias_filler {
      type: "constant"
      value: 0
    }
    engine: CAFFE
    axis: 1
  }
}
layer {
  name: "rgb_relu1a"
  type: "ReLU"
  bottom: "rgb_conv1a"
  top: "rgb_conv1a"
  relu_param {
    engine: CAFFE
  }
}
layer {
  name: "rgb_pool1"
  type: "Pooling3D"
  bottom: "rgb_conv1a"
  top: "rgb_pool1"
  pooling3d_param {
    pool: MAX
    kernel_size: 2
    stride: 2
    kernel_depth: 1
    temporal_stride: 1
  }
}
layer {
  name: "rgb_pool1_feature_attention"
  type: "Eltwise"
  bottom: "rgb_pool1"
  bottom: "flow_pool1_attention_tiled"
  top: "rgb_pool1_feature_attention"
  eltwise_param {
    operation: PROD
  }
}
layer {
  name: "rgb_conv2a"
  type: "Convolution"
  bottom: "rgb_pool1_feature_attention"
  top: "rgb_conv2a"
  param {
    lr_mult: 1
    decay_mult: 1
  }
  param {
    lr_mult: 2
    decay_mult: 0
  }
  convolution_param {
    num_output: 128
    pad: 1
    kernel_size: 3
    weight_filler {
      type: "gaussian"
      std: 0.01
    }
    bias_filler {
      type: "constant"
      value: 1
    }
    engine: CAFFE
    axis: 1
  }
}
layer {
  name: "rgb_relu2a"
  type: "ReLU"
  bottom: "rgb_conv2a"
  top: "rgb_conv2a"
  relu_param {
    engine: CAFFE
  }
}
layer {
  name: "rgb_pool2"
  type: "Pooling3D"
  bottom: "rgb_conv2a"
  top: "rgb_pool2"
  pooling3d_param {
    pool: MAX
    kernel_size: 2
    stride: 2
    kernel_depth: 2
    temporal_stride: 2
  }
}
layer {
  name: "rgb_conv3a"
  type: "Convolution"
  bottom: "rgb_pool2"
  top: "rgb_conv3a"
  param {
    lr_mult: 1
    decay_mult: 1
  }
  param {
    lr_mult: 2
    decay_mult: 0
  }
  convolution_param {
    num_output: 256
    pad: 1
    kernel_size: 3
    weight_filler {
      type: "gaussian"
      std: 0.01
    }
    bias_filler {
      type: "constant"
      value: 1
    }
    engine: CAFFE
    axis: 1
  }
}
layer {
  name: "rgb_relu3a"
  type: "ReLU"
  bottom: "rgb_conv3a"
  top: "rgb_conv3a"
  relu_param {
    engine: CAFFE
  }
}
layer {
  name: "rgb_conv3b"
  type: "Convolution"
  bottom: "rgb_conv3a"
  top: "rgb_conv3b"
  param {
    lr_mult: 1
    decay_mult: 1
  }
  param {
    lr_mult: 2
    decay_mult: 0
  }
  convolution_param {
    num_output: 256
    pad: 1
    kernel_size: 3
    weight_filler {
      type: "gaussian"
      std: 0.01
    }
    bias_filler {
      type: "constant"
      value: 1
    }
    engine: CAFFE
    axis: 1
  }
}
layer {
  name: "rgb_relu3b"
  type: "ReLU"
  bottom: "rgb_conv3b"
  top: "rgb_conv3b"
  relu_param {
    engine: CAFFE
  }
}
layer {
  name: "rgb_pool3"
  type: "Pooling3D"
  bottom: "rgb_conv3b"
  top: "rgb_pool3"
  pooling3d_param {
    pool: MAX
    kernel_size: 2
    stride: 2
    kernel_depth: 2
    temporal_stride: 2
  }
}
layer {
  name: "rgb_conv4a"
  type: "Convolution"
  bottom: "rgb_pool3"
  top: "rgb_conv4a"
  param {
    lr_mult: 1
    decay_mult: 1
  }
  param {
    lr_mult: 2
    decay_mult: 0
  }
  convolution_param {
    num_output: 512
    pad: 1
    kernel_size: 3
    weight_filler {
      type: "gaussian"
      std: 0.01
    }
    bias_filler {
      type: "constant"
      value: 1
    }
    engine: CAFFE
    axis: 1
  }
}
layer {
  name: "rgb_relu4a"
  type: "ReLU"
  bottom: "rgb_conv4a"
  top: "rgb_conv4a"
  relu_param {
    engine: CAFFE
  }
}
layer {
  name: "rgb_conv4b"
  type: "Convolution"
  bottom: "rgb_conv4a"
  top: "rgb_conv4b"
  param {
    lr_mult: 1
    decay_mult: 1
  }
  param {
    lr_mult: 2
    decay_mult: 0
  }
  convolution_param {
    num_output: 512
    pad: 1
    kernel_size: 3
    weight_filler {
      type: "gaussian"
      std: 0.01
    }
    bias_filler {
      type: "constant"
      value: 1
    }
    engine: CAFFE
    axis: 1
  }
}
layer {
  name: "rgb_relu4b"
  type: "ReLU"
  bottom: "rgb_conv4b"
  top: "rgb_conv4b"
  relu_param {
    engine: CAFFE
  }
}
layer {
  name: "rgb_pool4"
  type: "Pooling3D"
  bottom: "rgb_conv4b"
  top: "rgb_pool4"
  pooling3d_param {
    pool: MAX
    kernel_size: 2
    stride: 2
    kernel_depth: 2
    temporal_stride: 2
  }
}
layer {
  name: "rgb_conv5a"
  type: "Convolution"
  bottom: "rgb_pool4"
  top: "rgb_conv5a"
  param {
    lr_mult: 1
    decay_mult: 1
  }
  param {
    lr_mult: 2
    decay_mult: 0
  }
  convolution_param {
    num_output: 512
    pad: 1
    kernel_size: 3
    weight_filler {
      type: "gaussian"
      std: 0.01
    }
    bias_filler {
      type: "constant"
      value: 1
    }
    engine: CAFFE
    axis: 1
  }
}
layer {
  name: "rgb_relu5a"
  type: "ReLU"
  bottom: "rgb_conv5a"
  top: "rgb_conv5a"
  relu_param {
    engine: CAFFE
  }
}
layer {
  name: "rgb_conv5b"
  type: "Convolution"
  bottom: "rgb_conv5a"
  top: "rgb_conv5b"
  param {
    lr_mult: 1
    decay_mult: 1
  }
  param {
    lr_mult: 2
    decay_mult: 0
  }
  convolution_param {
    num_output: 512
    pad: 1
    kernel_size: 3
    weight_filler {
      type: "gaussian"
      std: 0.01
    }
    bias_filler {
      type: "constant"
      value: 1
    }
    engine: CAFFE
    axis: 1
  }
}
layer {
  name: "rgb_relu5b"
  type: "ReLU"
  bottom: "rgb_conv5b"
  top: "rgb_conv5b"
  relu_param {
    engine: CAFFE
  }
}
layer {
  name: "rgb_pool5"
  type: "Pooling3D"
  bottom: "rgb_conv5b"
  top: "rgb_pool5"
  pooling3d_param {
    pool: MAX
    kernel_size: 2
    stride: 2
    kernel_depth: 2
    temporal_stride: 2
  }
}
layer {
  name: "rgb_fc6"
  type: "InnerProduct"
  bottom: "rgb_pool5"
  top: "rgb_fc6"
  param {
    lr_mult: 1
    decay_mult: 1
  }
  param {
    lr_mult: 2
    decay_mult: 0
  }
  inner_product_param {
    num_output: 4096
    weight_filler {
      type: "gaussian"
      std: 0.005
    }
    bias_filler {
      type: "constant"
      value: 1
    }
  }
}
layer {
  name: "rgb_relu6"
  type: "ReLU"
  bottom: "rgb_fc6"
  top: "rgb_fc6"
  relu_param {
    engine: CAFFE
  }
}
layer {
  name: "rgb_drop6"
  type: "Dropout"
  bottom: "rgb_fc6"
  top: "rgb_fc6"
  dropout_param {
    dropout_ratio: 0.9
  }
}
layer {
  name: "rgb_fc7"
  type: "InnerProduct"
  bottom: "rgb_fc6"
  top: "rgb_fc7"
  param {
    lr_mult: 1
    decay_mult: 1
  }
  param {
    lr_mult: 2
    decay_mult: 0
  }
  inner_product_param {
    num_output: 4096
    weight_filler {
      type: "gaussian"
      std: 0.005
    }
    bias_filler {
      type: "constant"
      value: 1
    }
  }
}
layer {
  name: "rgb_relu7"
  type: "ReLU"
  bottom: "rgb_fc7"
  top: "rgb_fc7"
  relu_param {
    engine: CAFFE
  }
}
layer {
  name: "rgb_drop7"
  type: "Dropout"
  bottom: "rgb_fc7"
  top: "rgb_fc7"
  dropout_param {
    dropout_ratio: 0.8
  }
}
layer {
  name: "rgb_fc8"
  type: "InnerProduct"
  bottom: "rgb_fc7"
  top: "rgb_fc8"
  param {
    lr_mult: 1
    decay_mult: 1
  }
  param {
    lr_mult: 2
    decay_mult: 0
  }
  inner_product_param {
    num_output: 101
    weight_filler {
      type: "gaussian"
      std: 0.01
    }
    bias_filler {
      type: "constant"
      value: 0
    }
  }
}
layer {
  name: "accuracy"
  type: "Accuracy"
  bottom: "rgb_fc8"
  bottom: "label"
  top: "accuracy"
  include {
    phase: TEST
  }
}
layer {
  name: "loss"
  type: "SoftmaxWithLoss"
  bottom: "rgb_fc8"
  bottom: "label"
  top: "loss"
}
I0729 23:30:45.108537 13349 layer_factory.hpp:77] Creating layer twostream_data
I0729 23:30:45.108590 13349 net.cpp:91] Creating Layer twostream_data
I0729 23:30:45.108616 13349 net.cpp:399] twostream_data -> rgb_data
I0729 23:30:45.108625 13349 net.cpp:399] twostream_data -> flow_data
I0729 23:30:45.108631 13349 net.cpp:399] twostream_data -> label
I0729 23:30:45.108639 13349 twostream_snippet_data_layer.cpp:38] Extracting 1-view features in TEST phase.
I0729 23:30:45.133723 13349 twostream_snippet_data_layer.cpp:52] rgb data size: 1,48,112,112
I0729 23:30:45.133826 13349 twostream_snippet_data_layer.cpp:68] flow data size: 1,32,112,112
I0729 23:30:45.151151 13349 net.cpp:141] Setting up twostream_data
I0729 23:30:45.151187 13349 net.cpp:148] Top shape: 1 48 112 112 (602112)
I0729 23:30:45.151195 13349 net.cpp:148] Top shape: 1 32 112 112 (401408)
I0729 23:30:45.151201 13349 net.cpp:148] Top shape: 1 (1)
I0729 23:30:45.151204 13349 net.cpp:156] Memory required for data: 4014084
I0729 23:30:45.151211 13349 layer_factory.hpp:77] Creating layer label_twostream_data_2_split
I0729 23:30:45.151224 13349 net.cpp:91] Creating Layer label_twostream_data_2_split
I0729 23:30:45.151229 13349 net.cpp:425] label_twostream_data_2_split <- label
I0729 23:30:45.151237 13349 net.cpp:399] label_twostream_data_2_split -> label_twostream_data_2_split_0
I0729 23:30:45.151245 13349 net.cpp:399] label_twostream_data_2_split -> label_twostream_data_2_split_1
I0729 23:30:45.151345 13349 net.cpp:141] Setting up label_twostream_data_2_split
I0729 23:30:45.151355 13349 net.cpp:148] Top shape: 1 (1)
I0729 23:30:45.151360 13349 net.cpp:148] Top shape: 1 (1)
I0729 23:30:45.151363 13349 net.cpp:156] Memory required for data: 4014092
I0729 23:30:45.151367 13349 layer_factory.hpp:77] Creating layer reshape_flow
I0729 23:30:45.151376 13349 net.cpp:91] Creating Layer reshape_flow
I0729 23:30:45.151381 13349 net.cpp:425] reshape_flow <- flow_data
I0729 23:30:45.151387 13349 net.cpp:399] reshape_flow -> flow_vol_data
I0729 23:30:45.151463 13349 net.cpp:141] Setting up reshape_flow
I0729 23:30:45.151471 13349 net.cpp:148] Top shape: 1 2 16 112 112 (401408)
I0729 23:30:45.151476 13349 net.cpp:156] Memory required for data: 5619724
I0729 23:30:45.151480 13349 layer_factory.hpp:77] Creating layer flow_conv1a
I0729 23:30:45.151492 13349 net.cpp:91] Creating Layer flow_conv1a
I0729 23:30:45.151496 13349 net.cpp:425] flow_conv1a <- flow_vol_data
I0729 23:30:45.151504 13349 net.cpp:399] flow_conv1a -> flow_conv1a
I0729 23:30:45.151923 13349 net.cpp:141] Setting up flow_conv1a
I0729 23:30:45.151937 13349 net.cpp:148] Top shape: 1 64 16 112 112 (12845056)
I0729 23:30:45.151942 13349 net.cpp:156] Memory required for data: 56999948
I0729 23:30:45.151952 13349 layer_factory.hpp:77] Creating layer flow_relu1a
I0729 23:30:45.151960 13349 net.cpp:91] Creating Layer flow_relu1a
I0729 23:30:45.151965 13349 net.cpp:425] flow_relu1a <- flow_conv1a
I0729 23:30:45.151970 13349 net.cpp:386] flow_relu1a -> flow_conv1a (in-place)
I0729 23:30:45.151978 13349 net.cpp:141] Setting up flow_relu1a
I0729 23:30:45.151983 13349 net.cpp:148] Top shape: 1 64 16 112 112 (12845056)
I0729 23:30:45.151988 13349 net.cpp:156] Memory required for data: 108380172
I0729 23:30:45.151991 13349 layer_factory.hpp:77] Creating layer flow_pool1
I0729 23:30:45.151998 13349 net.cpp:91] Creating Layer flow_pool1
I0729 23:30:45.152010 13349 net.cpp:425] flow_pool1 <- flow_conv1a
I0729 23:30:45.152026 13349 net.cpp:399] flow_pool1 -> flow_pool1
I0729 23:30:45.152052 13349 net.cpp:141] Setting up flow_pool1
I0729 23:30:45.152061 13349 net.cpp:148] Top shape: 1 64 16 56 56 (3211264)
I0729 23:30:45.152065 13349 net.cpp:156] Memory required for data: 121225228
I0729 23:30:45.152070 13349 layer_factory.hpp:77] Creating layer flow_pool1_reduce_dim
I0729 23:30:45.152079 13349 net.cpp:91] Creating Layer flow_pool1_reduce_dim
I0729 23:30:45.152084 13349 net.cpp:425] flow_pool1_reduce_dim <- flow_pool1
I0729 23:30:45.152091 13349 net.cpp:399] flow_pool1_reduce_dim -> flow_pool1_reduce_dim
I0729 23:30:45.152328 13349 net.cpp:141] Setting up flow_pool1_reduce_dim
I0729 23:30:45.152338 13349 net.cpp:148] Top shape: 1 1 16 56 56 (50176)
I0729 23:30:45.152343 13349 net.cpp:156] Memory required for data: 121425932
I0729 23:30:45.152350 13349 layer_factory.hpp:77] Creating layer flow_pool1_normalized
I0729 23:30:45.152361 13349 net.cpp:91] Creating Layer flow_pool1_normalized
I0729 23:30:45.152365 13349 net.cpp:425] flow_pool1_normalized <- flow_pool1_reduce_dim
I0729 23:30:45.152372 13349 net.cpp:386] flow_pool1_normalized -> flow_pool1_reduce_dim (in-place)
I0729 23:30:45.152467 13349 net.cpp:141] Setting up flow_pool1_normalized
I0729 23:30:45.152478 13349 net.cpp:148] Top shape: 1 1 16 56 56 (50176)
I0729 23:30:45.152482 13349 net.cpp:156] Memory required for data: 121626636
I0729 23:30:45.152487 13349 layer_factory.hpp:77] Creating layer flow_pool1_attention
I0729 23:30:45.152494 13349 net.cpp:91] Creating Layer flow_pool1_attention
I0729 23:30:45.152498 13349 net.cpp:425] flow_pool1_attention <- flow_pool1_reduce_dim
I0729 23:30:45.152504 13349 net.cpp:399] flow_pool1_attention -> flow_pool1_attention
I0729 23:30:45.152529 13349 net.cpp:141] Setting up flow_pool1_attention
I0729 23:30:45.152537 13349 net.cpp:148] Top shape: 1 1 16 56 56 (50176)
I0729 23:30:45.152541 13349 net.cpp:156] Memory required for data: 121827340
I0729 23:30:45.152545 13349 layer_factory.hpp:77] Creating layer flow_pool1_attention_tiled
I0729 23:30:45.152554 13349 net.cpp:91] Creating Layer flow_pool1_attention_tiled
I0729 23:30:45.152557 13349 net.cpp:425] flow_pool1_attention_tiled <- flow_pool1_attention
I0729 23:30:45.152562 13349 net.cpp:399] flow_pool1_attention_tiled -> flow_pool1_attention_tiled
I0729 23:30:45.152585 13349 net.cpp:141] Setting up flow_pool1_attention_tiled
I0729 23:30:45.152593 13349 net.cpp:148] Top shape: 1 64 16 56 56 (3211264)
I0729 23:30:45.152597 13349 net.cpp:156] Memory required for data: 134672396
I0729 23:30:45.152602 13349 layer_factory.hpp:77] Creating layer reshape_rgb
I0729 23:30:45.152608 13349 net.cpp:91] Creating Layer reshape_rgb
I0729 23:30:45.152612 13349 net.cpp:425] reshape_rgb <- rgb_data
I0729 23:30:45.152619 13349 net.cpp:399] reshape_rgb -> rgb_vol_data
I0729 23:30:45.152642 13349 net.cpp:141] Setting up reshape_rgb
I0729 23:30:45.152649 13349 net.cpp:148] Top shape: 1 3 16 112 112 (602112)
I0729 23:30:45.152653 13349 net.cpp:156] Memory required for data: 137080844
I0729 23:30:45.152658 13349 layer_factory.hpp:77] Creating layer rgb_conv1a
I0729 23:30:45.152668 13349 net.cpp:91] Creating Layer rgb_conv1a
I0729 23:30:45.152673 13349 net.cpp:425] rgb_conv1a <- rgb_vol_data
I0729 23:30:45.152679 13349 net.cpp:399] rgb_conv1a -> rgb_conv1a
I0729 23:30:45.153861 13349 net.cpp:141] Setting up rgb_conv1a
I0729 23:30:45.153878 13349 net.cpp:148] Top shape: 1 64 16 112 112 (12845056)
I0729 23:30:45.153883 13349 net.cpp:156] Memory required for data: 188461068
I0729 23:30:45.153893 13349 layer_factory.hpp:77] Creating layer rgb_relu1a
I0729 23:30:45.153913 13349 net.cpp:91] Creating Layer rgb_relu1a
I0729 23:30:45.153918 13349 net.cpp:425] rgb_relu1a <- rgb_conv1a
I0729 23:30:45.153924 13349 net.cpp:386] rgb_relu1a -> rgb_conv1a (in-place)
I0729 23:30:45.153933 13349 net.cpp:141] Setting up rgb_relu1a
I0729 23:30:45.153937 13349 net.cpp:148] Top shape: 1 64 16 112 112 (12845056)
I0729 23:30:45.153942 13349 net.cpp:156] Memory required for data: 239841292
I0729 23:30:45.153950 13349 layer_factory.hpp:77] Creating layer rgb_pool1
I0729 23:30:45.153961 13349 net.cpp:91] Creating Layer rgb_pool1
I0729 23:30:45.153966 13349 net.cpp:425] rgb_pool1 <- rgb_conv1a
I0729 23:30:45.153973 13349 net.cpp:399] rgb_pool1 -> rgb_pool1
I0729 23:30:45.154156 13349 net.cpp:141] Setting up rgb_pool1
I0729 23:30:45.154168 13349 net.cpp:148] Top shape: 1 64 16 56 56 (3211264)
I0729 23:30:45.154172 13349 net.cpp:156] Memory required for data: 252686348
I0729 23:30:45.154176 13349 layer_factory.hpp:77] Creating layer rgb_pool1_feature_attention
I0729 23:30:45.154187 13349 net.cpp:91] Creating Layer rgb_pool1_feature_attention
I0729 23:30:45.154192 13349 net.cpp:425] rgb_pool1_feature_attention <- rgb_pool1
I0729 23:30:45.154197 13349 net.cpp:425] rgb_pool1_feature_attention <- flow_pool1_attention_tiled
I0729 23:30:45.154202 13349 net.cpp:399] rgb_pool1_feature_attention -> rgb_pool1_feature_attention
I0729 23:30:45.154317 13349 net.cpp:141] Setting up rgb_pool1_feature_attention
I0729 23:30:45.154327 13349 net.cpp:148] Top shape: 1 64 16 56 56 (3211264)
I0729 23:30:45.154331 13349 net.cpp:156] Memory required for data: 265531404
I0729 23:30:45.154342 13349 layer_factory.hpp:77] Creating layer rgb_conv2a
I0729 23:30:45.154363 13349 net.cpp:91] Creating Layer rgb_conv2a
I0729 23:30:45.154368 13349 net.cpp:425] rgb_conv2a <- rgb_pool1_feature_attention
I0729 23:30:45.154376 13349 net.cpp:399] rgb_conv2a -> rgb_conv2a
I0729 23:30:45.156852 13349 net.cpp:141] Setting up rgb_conv2a
I0729 23:30:45.156865 13349 net.cpp:148] Top shape: 1 128 16 56 56 (6422528)
I0729 23:30:45.156869 13349 net.cpp:156] Memory required for data: 291221516
I0729 23:30:45.156877 13349 layer_factory.hpp:77] Creating layer rgb_relu2a
I0729 23:30:45.156884 13349 net.cpp:91] Creating Layer rgb_relu2a
I0729 23:30:45.156888 13349 net.cpp:425] rgb_relu2a <- rgb_conv2a
I0729 23:30:45.156895 13349 net.cpp:386] rgb_relu2a -> rgb_conv2a (in-place)
I0729 23:30:45.156901 13349 net.cpp:141] Setting up rgb_relu2a
I0729 23:30:45.156906 13349 net.cpp:148] Top shape: 1 128 16 56 56 (6422528)
I0729 23:30:45.156910 13349 net.cpp:156] Memory required for data: 316911628
I0729 23:30:45.156914 13349 layer_factory.hpp:77] Creating layer rgb_pool2
I0729 23:30:45.156919 13349 net.cpp:91] Creating Layer rgb_pool2
I0729 23:30:45.156924 13349 net.cpp:425] rgb_pool2 <- rgb_conv2a
I0729 23:30:45.156932 13349 net.cpp:399] rgb_pool2 -> rgb_pool2
I0729 23:30:45.156960 13349 net.cpp:141] Setting up rgb_pool2
I0729 23:30:45.156970 13349 net.cpp:148] Top shape: 1 128 8 28 28 (802816)
I0729 23:30:45.156973 13349 net.cpp:156] Memory required for data: 320122892
I0729 23:30:45.156977 13349 layer_factory.hpp:77] Creating layer rgb_conv3a
I0729 23:30:45.156988 13349 net.cpp:91] Creating Layer rgb_conv3a
I0729 23:30:45.156993 13349 net.cpp:425] rgb_conv3a <- rgb_pool2
I0729 23:30:45.156998 13349 net.cpp:399] rgb_conv3a -> rgb_conv3a
I0729 23:30:45.166997 13349 net.cpp:141] Setting up rgb_conv3a
I0729 23:30:45.167021 13349 net.cpp:148] Top shape: 1 256 8 28 28 (1605632)
I0729 23:30:45.167026 13349 net.cpp:156] Memory required for data: 326545420
I0729 23:30:45.167037 13349 layer_factory.hpp:77] Creating layer rgb_relu3a
I0729 23:30:45.167043 13349 net.cpp:91] Creating Layer rgb_relu3a
I0729 23:30:45.167048 13349 net.cpp:425] rgb_relu3a <- rgb_conv3a
I0729 23:30:45.167055 13349 net.cpp:386] rgb_relu3a -> rgb_conv3a (in-place)
I0729 23:30:45.167063 13349 net.cpp:141] Setting up rgb_relu3a
I0729 23:30:45.167068 13349 net.cpp:148] Top shape: 1 256 8 28 28 (1605632)
I0729 23:30:45.167071 13349 net.cpp:156] Memory required for data: 332967948
I0729 23:30:45.167075 13349 layer_factory.hpp:77] Creating layer rgb_conv3b
I0729 23:30:45.167085 13349 net.cpp:91] Creating Layer rgb_conv3b
I0729 23:30:45.167089 13349 net.cpp:425] rgb_conv3b <- rgb_conv3a
I0729 23:30:45.167095 13349 net.cpp:399] rgb_conv3b -> rgb_conv3b
I0729 23:30:45.186173 13349 net.cpp:141] Setting up rgb_conv3b
I0729 23:30:45.186205 13349 net.cpp:148] Top shape: 1 256 8 28 28 (1605632)
I0729 23:30:45.186218 13349 net.cpp:156] Memory required for data: 339390476
I0729 23:30:45.186233 13349 layer_factory.hpp:77] Creating layer rgb_relu3b
I0729 23:30:45.186244 13349 net.cpp:91] Creating Layer rgb_relu3b
I0729 23:30:45.186249 13349 net.cpp:425] rgb_relu3b <- rgb_conv3b
I0729 23:30:45.186259 13349 net.cpp:386] rgb_relu3b -> rgb_conv3b (in-place)
I0729 23:30:45.186269 13349 net.cpp:141] Setting up rgb_relu3b
I0729 23:30:45.186273 13349 net.cpp:148] Top shape: 1 256 8 28 28 (1605632)
I0729 23:30:45.186277 13349 net.cpp:156] Memory required for data: 345813004
I0729 23:30:45.186281 13349 layer_factory.hpp:77] Creating layer rgb_pool3
I0729 23:30:45.186287 13349 net.cpp:91] Creating Layer rgb_pool3
I0729 23:30:45.186291 13349 net.cpp:425] rgb_pool3 <- rgb_conv3b
I0729 23:30:45.186297 13349 net.cpp:399] rgb_pool3 -> rgb_pool3
I0729 23:30:45.186326 13349 net.cpp:141] Setting up rgb_pool3
I0729 23:30:45.186334 13349 net.cpp:148] Top shape: 1 256 4 14 14 (200704)
I0729 23:30:45.186338 13349 net.cpp:156] Memory required for data: 346615820
I0729 23:30:45.186342 13349 layer_factory.hpp:77] Creating layer rgb_conv4a
I0729 23:30:45.186353 13349 net.cpp:91] Creating Layer rgb_conv4a
I0729 23:30:45.186357 13349 net.cpp:425] rgb_conv4a <- rgb_pool3
I0729 23:30:45.186365 13349 net.cpp:399] rgb_conv4a -> rgb_conv4a
I0729 23:30:45.222179 13349 net.cpp:141] Setting up rgb_conv4a
I0729 23:30:45.222214 13349 net.cpp:148] Top shape: 1 512 4 14 14 (401408)
I0729 23:30:45.222219 13349 net.cpp:156] Memory required for data: 348221452
I0729 23:30:45.222228 13349 layer_factory.hpp:77] Creating layer rgb_relu4a
I0729 23:30:45.222239 13349 net.cpp:91] Creating Layer rgb_relu4a
I0729 23:30:45.222244 13349 net.cpp:425] rgb_relu4a <- rgb_conv4a
I0729 23:30:45.222250 13349 net.cpp:386] rgb_relu4a -> rgb_conv4a (in-place)
I0729 23:30:45.222259 13349 net.cpp:141] Setting up rgb_relu4a
I0729 23:30:45.222263 13349 net.cpp:148] Top shape: 1 512 4 14 14 (401408)
I0729 23:30:45.222268 13349 net.cpp:156] Memory required for data: 349827084
I0729 23:30:45.222271 13349 layer_factory.hpp:77] Creating layer rgb_conv4b
I0729 23:30:45.222283 13349 net.cpp:91] Creating Layer rgb_conv4b
I0729 23:30:45.222287 13349 net.cpp:425] rgb_conv4b <- rgb_conv4a
I0729 23:30:45.222295 13349 net.cpp:399] rgb_conv4b -> rgb_conv4b
I0729 23:30:45.291385 13349 net.cpp:141] Setting up rgb_conv4b
I0729 23:30:45.291420 13349 net.cpp:148] Top shape: 1 512 4 14 14 (401408)
I0729 23:30:45.291425 13349 net.cpp:156] Memory required for data: 351432716
I0729 23:30:45.291447 13349 layer_factory.hpp:77] Creating layer rgb_relu4b
I0729 23:30:45.291457 13349 net.cpp:91] Creating Layer rgb_relu4b
I0729 23:30:45.291463 13349 net.cpp:425] rgb_relu4b <- rgb_conv4b
I0729 23:30:45.291471 13349 net.cpp:386] rgb_relu4b -> rgb_conv4b (in-place)
I0729 23:30:45.291479 13349 net.cpp:141] Setting up rgb_relu4b
I0729 23:30:45.291484 13349 net.cpp:148] Top shape: 1 512 4 14 14 (401408)
I0729 23:30:45.291487 13349 net.cpp:156] Memory required for data: 353038348
I0729 23:30:45.291491 13349 layer_factory.hpp:77] Creating layer rgb_pool4
I0729 23:30:45.291498 13349 net.cpp:91] Creating Layer rgb_pool4
I0729 23:30:45.291502 13349 net.cpp:425] rgb_pool4 <- rgb_conv4b
I0729 23:30:45.291507 13349 net.cpp:399] rgb_pool4 -> rgb_pool4
I0729 23:30:45.291532 13349 net.cpp:141] Setting up rgb_pool4
I0729 23:30:45.291540 13349 net.cpp:148] Top shape: 1 512 2 7 7 (50176)
I0729 23:30:45.291544 13349 net.cpp:156] Memory required for data: 353239052
I0729 23:30:45.291548 13349 layer_factory.hpp:77] Creating layer rgb_conv5a
I0729 23:30:45.291558 13349 net.cpp:91] Creating Layer rgb_conv5a
I0729 23:30:45.291561 13349 net.cpp:425] rgb_conv5a <- rgb_pool4
I0729 23:30:45.291568 13349 net.cpp:399] rgb_conv5a -> rgb_conv5a
I0729 23:30:45.356329 13349 net.cpp:141] Setting up rgb_conv5a
I0729 23:30:45.356366 13349 net.cpp:148] Top shape: 1 512 2 7 7 (50176)
I0729 23:30:45.356371 13349 net.cpp:156] Memory required for data: 353439756
I0729 23:30:45.356384 13349 layer_factory.hpp:77] Creating layer rgb_relu5a
I0729 23:30:45.356401 13349 net.cpp:91] Creating Layer rgb_relu5a
I0729 23:30:45.356415 13349 net.cpp:425] rgb_relu5a <- rgb_conv5a
I0729 23:30:45.356422 13349 net.cpp:386] rgb_relu5a -> rgb_conv5a (in-place)
I0729 23:30:45.356431 13349 net.cpp:141] Setting up rgb_relu5a
I0729 23:30:45.356436 13349 net.cpp:148] Top shape: 1 512 2 7 7 (50176)
I0729 23:30:45.356439 13349 net.cpp:156] Memory required for data: 353640460
I0729 23:30:45.356443 13349 layer_factory.hpp:77] Creating layer rgb_conv5b
I0729 23:30:45.356452 13349 net.cpp:91] Creating Layer rgb_conv5b
I0729 23:30:45.356456 13349 net.cpp:425] rgb_conv5b <- rgb_conv5a
I0729 23:30:45.356462 13349 net.cpp:399] rgb_conv5b -> rgb_conv5b
I0729 23:30:45.425258 13349 net.cpp:141] Setting up rgb_conv5b
I0729 23:30:45.425303 13349 net.cpp:148] Top shape: 1 512 2 7 7 (50176)
I0729 23:30:45.425308 13349 net.cpp:156] Memory required for data: 353841164
I0729 23:30:45.425319 13349 layer_factory.hpp:77] Creating layer rgb_relu5b
I0729 23:30:45.425333 13349 net.cpp:91] Creating Layer rgb_relu5b
I0729 23:30:45.425339 13349 net.cpp:425] rgb_relu5b <- rgb_conv5b
I0729 23:30:45.425346 13349 net.cpp:386] rgb_relu5b -> rgb_conv5b (in-place)
I0729 23:30:45.425356 13349 net.cpp:141] Setting up rgb_relu5b
I0729 23:30:45.425360 13349 net.cpp:148] Top shape: 1 512 2 7 7 (50176)
I0729 23:30:45.425374 13349 net.cpp:156] Memory required for data: 354041868
I0729 23:30:45.425377 13349 layer_factory.hpp:77] Creating layer rgb_pool5
I0729 23:30:45.425390 13349 net.cpp:91] Creating Layer rgb_pool5
I0729 23:30:45.425395 13349 net.cpp:425] rgb_pool5 <- rgb_conv5b
I0729 23:30:45.425400 13349 net.cpp:399] rgb_pool5 -> rgb_pool5
I0729 23:30:45.425429 13349 net.cpp:141] Setting up rgb_pool5
I0729 23:30:45.425437 13349 net.cpp:148] Top shape: 1 512 1 4 4 (8192)
I0729 23:30:45.425441 13349 net.cpp:156] Memory required for data: 354074636
I0729 23:30:45.425444 13349 layer_factory.hpp:77] Creating layer rgb_fc6
I0729 23:30:45.425451 13349 net.cpp:91] Creating Layer rgb_fc6
I0729 23:30:45.425458 13349 net.cpp:425] rgb_fc6 <- rgb_pool5
I0729 23:30:45.425463 13349 net.cpp:399] rgb_fc6 -> rgb_fc6
I0729 23:30:45.743553 13349 net.cpp:141] Setting up rgb_fc6
I0729 23:30:45.743597 13349 net.cpp:148] Top shape: 1 4096 (4096)
I0729 23:30:45.743602 13349 net.cpp:156] Memory required for data: 354091020
I0729 23:30:45.743610 13349 layer_factory.hpp:77] Creating layer rgb_relu6
I0729 23:30:45.743621 13349 net.cpp:91] Creating Layer rgb_relu6
I0729 23:30:45.743626 13349 net.cpp:425] rgb_relu6 <- rgb_fc6
I0729 23:30:45.743638 13349 net.cpp:386] rgb_relu6 -> rgb_fc6 (in-place)
I0729 23:30:45.743647 13349 net.cpp:141] Setting up rgb_relu6
I0729 23:30:45.743652 13349 net.cpp:148] Top shape: 1 4096 (4096)
I0729 23:30:45.743655 13349 net.cpp:156] Memory required for data: 354107404
I0729 23:30:45.743659 13349 layer_factory.hpp:77] Creating layer rgb_drop6
I0729 23:30:45.743666 13349 net.cpp:91] Creating Layer rgb_drop6
I0729 23:30:45.743669 13349 net.cpp:425] rgb_drop6 <- rgb_fc6
I0729 23:30:45.743674 13349 net.cpp:386] rgb_drop6 -> rgb_fc6 (in-place)
I0729 23:30:45.743698 13349 net.cpp:141] Setting up rgb_drop6
I0729 23:30:45.743705 13349 net.cpp:148] Top shape: 1 4096 (4096)
I0729 23:30:45.743708 13349 net.cpp:156] Memory required for data: 354123788
I0729 23:30:45.743712 13349 layer_factory.hpp:77] Creating layer rgb_fc7
I0729 23:30:45.743719 13349 net.cpp:91] Creating Layer rgb_fc7
I0729 23:30:45.743723 13349 net.cpp:425] rgb_fc7 <- rgb_fc6
I0729 23:30:45.743727 13349 net.cpp:399] rgb_fc7 -> rgb_fc7
I0729 23:30:45.902613 13349 net.cpp:141] Setting up rgb_fc7
I0729 23:30:45.902657 13349 net.cpp:148] Top shape: 1 4096 (4096)
I0729 23:30:45.902660 13349 net.cpp:156] Memory required for data: 354140172
I0729 23:30:45.902670 13349 layer_factory.hpp:77] Creating layer rgb_relu7
I0729 23:30:45.902680 13349 net.cpp:91] Creating Layer rgb_relu7
I0729 23:30:45.902685 13349 net.cpp:425] rgb_relu7 <- rgb_fc7
I0729 23:30:45.902693 13349 net.cpp:386] rgb_relu7 -> rgb_fc7 (in-place)
I0729 23:30:45.902701 13349 net.cpp:141] Setting up rgb_relu7
I0729 23:30:45.902712 13349 net.cpp:148] Top shape: 1 4096 (4096)
I0729 23:30:45.902724 13349 net.cpp:156] Memory required for data: 354156556
I0729 23:30:45.902726 13349 layer_factory.hpp:77] Creating layer rgb_drop7
I0729 23:30:45.902734 13349 net.cpp:91] Creating Layer rgb_drop7
I0729 23:30:45.902739 13349 net.cpp:425] rgb_drop7 <- rgb_fc7
I0729 23:30:45.902742 13349 net.cpp:386] rgb_drop7 -> rgb_fc7 (in-place)
I0729 23:30:45.902765 13349 net.cpp:141] Setting up rgb_drop7
I0729 23:30:45.902770 13349 net.cpp:148] Top shape: 1 4096 (4096)
I0729 23:30:45.902773 13349 net.cpp:156] Memory required for data: 354172940
I0729 23:30:45.902777 13349 layer_factory.hpp:77] Creating layer rgb_fc8
I0729 23:30:45.902786 13349 net.cpp:91] Creating Layer rgb_fc8
I0729 23:30:45.902789 13349 net.cpp:425] rgb_fc8 <- rgb_fc7
I0729 23:30:45.902794 13349 net.cpp:399] rgb_fc8 -> rgb_fc8
I0729 23:30:45.907223 13349 net.cpp:141] Setting up rgb_fc8
I0729 23:30:45.907238 13349 net.cpp:148] Top shape: 1 101 (101)
I0729 23:30:45.907243 13349 net.cpp:156] Memory required for data: 354173344
I0729 23:30:45.907248 13349 layer_factory.hpp:77] Creating layer rgb_fc8_rgb_fc8_0_split
I0729 23:30:45.907254 13349 net.cpp:91] Creating Layer rgb_fc8_rgb_fc8_0_split
I0729 23:30:45.907258 13349 net.cpp:425] rgb_fc8_rgb_fc8_0_split <- rgb_fc8
I0729 23:30:45.907264 13349 net.cpp:399] rgb_fc8_rgb_fc8_0_split -> rgb_fc8_rgb_fc8_0_split_0
I0729 23:30:45.907270 13349 net.cpp:399] rgb_fc8_rgb_fc8_0_split -> rgb_fc8_rgb_fc8_0_split_1
I0729 23:30:45.907304 13349 net.cpp:141] Setting up rgb_fc8_rgb_fc8_0_split
I0729 23:30:45.907310 13349 net.cpp:148] Top shape: 1 101 (101)
I0729 23:30:45.907315 13349 net.cpp:148] Top shape: 1 101 (101)
I0729 23:30:45.907317 13349 net.cpp:156] Memory required for data: 354174152
I0729 23:30:45.907320 13349 layer_factory.hpp:77] Creating layer accuracy
I0729 23:30:45.907326 13349 net.cpp:91] Creating Layer accuracy
I0729 23:30:45.907330 13349 net.cpp:425] accuracy <- rgb_fc8_rgb_fc8_0_split_0
I0729 23:30:45.907335 13349 net.cpp:425] accuracy <- label_twostream_data_2_split_0
I0729 23:30:45.907340 13349 net.cpp:399] accuracy -> accuracy
…
