…
  name: "data"
  type: "VideoSnippetData"
  top: "data"
  top: "label"
  include {
    phase: TRAIN
  }
  transform_param {
    mirror: true
    crop_size: 112
    mean_value: 128
    fix_crop: true
    multi_scale: true
    scale_ratios: 1
    scale_ratios: 0.875
    scale_ratios: 0.75
    scale_ratios: 0.66
    max_distort: 1
    is_flow: false
    new_height: 128
    new_width: 171
  }
  video_snippet_data_param {
    source: "hollywood2_train_rgb_split01.txt"
    batch_size: 16
    new_length: 16
    modality: RGB
    preserve_temporal: true
  }
}
layer {
  name: "reshape"
  type: "Reshape"
  bottom: "data"
  top: "vol_data"
  reshape_param {
    shape {
      dim: 3
      dim: -1
    }
    axis: 1
    num_axes: 1
  }
}
layer {
  name: "rgb_conv1a"
  type: "Convolution"
  bottom: "vol_data"
  top: "rgb_conv1a"
  param {
    lr_mult: 1
    decay_mult: 1
  }
  param {
    lr_mult: 2
    decay_mult: 0
  }
  convolution_param {
    num_output: 64
    pad: 1
    kernel_size: 3
    weight_filler {
      type: "gaussian"
      std: 0.01
    }
    bias_filler {
      type: "constant"
      value: 0
    }
    engine: CAFFE
    axis: 1
  }
}
layer {
  name: "rgb_relu1a"
  type: "ReLU"
  bottom: "rgb_conv1a"
  top: "rgb_conv1a"
  relu_param {
    engine: CAFFE
  }
}
layer {
  name: "rgb_pool1"
  type: "Pooling3D"
  bottom: "rgb_conv1a"
  top: "rgb_pool1"
  pooling3d_param {
    pool: MAX
    kernel_size: 2
    stride: 2
    kernel_depth: 1
    temporal_stride: 1
  }
}
layer {
  name: "rgb_conv2a"
  type: "Convolution"
  bottom: "rgb_pool1"
  top: "rgb_conv2a"
  param {
    lr_mult: 1
    decay_mult: 1
  }
  param {
    lr_mult: 2
    decay_mult: 0
  }
  convolution_param {
    num_output: 128
    pad: 1
    kernel_size: 3
    weight_filler {
      type: "gaussian"
      std: 0.01
    }
    bias_filler {
      type: "constant"
      value: 1
    }
    engine: CAFFE
    axis: 1
  }
}
layer {
  name: "rgb_relu2a"
  type: "ReLU"
  bottom: "rgb_conv2a"
  top: "rgb_conv2a"
  relu_param {
    engine: CAFFE
  }
}
layer {
  name: "rgb_pool2"
  type: "Pooling3D"
  bottom: "rgb_conv2a"
  top: "rgb_pool2"
  pooling3d_param {
    pool: MAX
    kernel_size: 2
    stride: 2
    kernel_depth: 2
    temporal_stride: 2
  }
}
layer {
  name: "rgb_conv3a"
  type: "Convolution"
  bottom: "rgb_pool2"
  top: "rgb_conv3a"
  param {
    lr_mult: 1
    decay_mult: 1
  }
  param {
    lr_mult: 2
    decay_mult: 0
  }
  convolution_param {
    num_output: 256
    pad: 1
    kernel_size: 3
    weight_filler {
      type: "gaussian"
      std: 0.01
    }
    bias_filler {
      type: "constant"
      value: 1
    }
    engine: CAFFE
    axis: 1
  }
}
layer {
  name: "rgb_relu3a"
  type: "ReLU"
  bottom: "rgb_conv3a"
  top: "rgb_conv3a"
  relu_param {
    engine: CAFFE
  }
}
layer {
  name: "rgb_conv3b"
  type: "Convolution"
  bottom: "rgb_conv3a"
  top: "rgb_conv3b"
  param {
    lr_mult: 1
    decay_mult: 1
  }
  param {
    lr_mult: 2
    decay_mult: 0
  }
  convolution_param {
    num_output: 256
    pad: 1
    kernel_size: 3
    weight_filler {
      type: "gaussian"
      std: 0.01
    }
    bias_filler {
      type: "constant"
      value: 1
    }
    engine: CAFFE
    axis: 1
  }
}
layer {
  name: "rgb_relu3b"
  type: "ReLU"
  bottom: "rgb_conv3b"
  top: "rgb_conv3b"
  relu_param {
    engine: CAFFE
  }
}
layer {
  name: "rgb_pool3"
  type: "Pooling3D"
  bottom: "rgb_conv3b"
  top: "rgb_pool3"
  pooling3d_param {
    pool: MAX
    kernel_size: 2
    stride: 2
    kernel_depth: 2
    temporal_stride: 2
  }
}
layer {
  name: "rgb_conv4a"
  type: "Convolution"
  bottom: "rgb_pool3"
  top: "rgb_conv4a"
  param {
    lr_mult: 1
    decay_mult: 1
  }
  param {
    lr_mult: 2
    decay_mult: 0
  }
  convolution_param {
    num_output: 512
    pad: 1
    kernel_size: 3
    weight_filler {
      type: "gaussian"
      std: 0.01
    }
    bias_filler {
      type: "constant"
      value: 1
    }
    engine: CAFFE
    axis: 1
  }
}
layer {
  name: "rgb_relu4a"
  type: "ReLU"
  bottom: "rgb_conv4a"
  top: "rgb_conv4a"
  relu_param {
    engine: CAFFE
  }
}
layer {
  name: "rgb_conv4b"
  type: "Convolution"
  bottom: "rgb_conv4a"
  top: "rgb_conv4b"
  param {
    lr_mult: 1
    decay_mult: 1
  }
  param {
    lr_mult: 2
    decay_mult: 0
  }
  convolution_param {
    num_output: 512
    pad: 1
    kernel_size: 3
    weight_filler {
      type: "gaussian"
      std: 0.01
    }
    bias_filler {
      type: "constant"
      value: 1
    }
    engine: CAFFE
    axis: 1
  }
}
layer {
  name: "rgb_relu4b"
  type: "ReLU"
  bottom: "rgb_conv4b"
  top: "rgb_conv4b"
  relu_param {
    engine: CAFFE
  }
}
layer {
  name: "rgb_pool4"
  type: "Pooling3D"
  bottom: "rgb_conv4b"
  top: "rgb_pool4"
  pooling3d_param {
    pool: MAX
    kernel_size: 2
    stride: 2
    kernel_depth: 2
    temporal_stride: 2
  }
}
layer {
  name: "rgb_conv5a"
  type: "Convolution"
  bottom: "rgb_pool4"
  top: "rgb_conv5a"
  param {
    lr_mult: 1
    decay_mult: 1
  }
  param {
    lr_mult: 2
    decay_mult: 0
  }
  convolution_param {
    num_output: 512
    pad: 1
    kernel_size: 3
    weight_filler {
      type: "gaussian"
      std: 0.01
    }
    bias_filler {
      type: "constant"
      value: 1
    }
    engine: CAFFE
    axis: 1
  }
}
layer {
  name: "rgb_relu5a"
  type: "ReLU"
  bottom: "rgb_conv5a"
  top: "rgb_conv5a"
  relu_param {
    engine: CAFFE
  }
}
layer {
  name: "rgb_conv5b"
  type: "Convolution"
  bottom: "rgb_conv5a"
  top: "rgb_conv5b"
  param {
    lr_mult: 1
    decay_mult: 1
  }
  param {
    lr_mult: 2
    decay_mult: 0
  }
  convolution_param {
    num_output: 512
    pad: 1
    kernel_size: 3
    weight_filler {
      type: "gaussian"
      std: 0.01
    }
    bias_filler {
      type: "constant"
      value: 1
    }
    engine: CAFFE
    axis: 1
  }
}
layer {
  name: "rgb_relu5b"
  type: "ReLU"
  bottom: "rgb_conv5b"
  top: "rgb_conv5b"
  relu_param {
    engine: CAFFE
  }
}
layer {
  name: "rgb_pool5"
  type: "Pooling3D"
  bottom: "rgb_conv5b"
  top: "rgb_pool5"
  pooling3d_param {
    pool: MAX
    kernel_size: 2
    stride: 2
    kernel_depth: 2
    temporal_stride: 2
  }
}
layer {
  name: "rgb_fc6"
  type: "InnerProduct"
  bottom: "rgb_pool5"
  top: "rgb_fc6"
  param {
    lr_mult: 1
    decay_mult: 1
  }
  param {
    lr_mult: 2
    decay_mult: 0
  }
  inner_product_param {
    num_output: 4096
    weight_filler {
      type: "gaussian"
      std: 0.005
    }
    bias_filler {
      type: "constant"
      value: 1
    }
  }
}
layer {
  name: "rgb_relu6"
  type: "ReLU"
  bottom: "rgb_fc6"
  top: "rgb_fc6"
  relu_param {
    engine: CAFFE
  }
}
layer {
  name: "rgb_drop6"
  type: "Dropout"
  bottom: "rgb_fc6"
  top: "rgb_fc6"
  dropout_param {
    dropout_ratio: 0.9
  }
}
layer {
  name: "rgb_fc7"
  type: "InnerProduct"
  bottom: "rgb_fc6"
  top: "rgb_fc7"
  param {
    lr_mult: 1
    decay_mult: 1
  }
  param {
    lr_mult: 2
    decay_mult: 0
  }
  inner_product_param {
    num_output: 4096
    weight_filler {
      type: "gaussian"
      std: 0.005
    }
    bias_filler {
      type: "constant"
      value: 1
    }
  }
}
layer {
  name: "rgb_relu7"
  type: "ReLU"
  bottom: "rgb_fc7"
  top: "rgb_fc7"
  relu_param {
    engine: CAFFE
  }
}
layer {
  name: "rgb_drop7"
  type: "Dropout"
  bottom: "rgb_fc7"
  top: "rgb_fc7"
  dropout_param {
    dropout_ratio: 0.8
  }
}
layer {
  name: "rgb_fc8"
  type: "InnerProduct"
  bottom: "rgb_fc7"
  top: "rgb_fc8"
  param {
    lr_mult: 1
    decay_mult: 1
  }
  param {
    lr_mult: 2
    decay_mult: 0
  }
  inner_product_param {
    num_output: 12
    weight_filler {
      type: "gaussian"
      std: 0.01
    }
    bias_filler {
      type: "constant"
      value: 0
    }
  }
}
layer {
  name: "loss"
  type: "SoftmaxWithLoss"
  bottom: "rgb_fc8"
  bottom: "label"
  top: "loss"
}
I0802 22:11:37.527138   474 layer_factory.hpp:77] Creating layer data
I0802 22:11:37.557559   474 net.cpp:99] Creating Layer data
I0802 22:11:37.557606   474 net.cpp:407] data -> data
I0802 22:11:37.558435   474 net.cpp:407] data -> label
I0802 22:11:37.659008   474 video_snippet_data_layer.cpp:52] output data size: 16,48,112,112
I0802 22:11:37.817873   474 net.cpp:149] Setting up data
I0802 22:11:37.817919   474 net.cpp:156] Top shape: 16 48 112 112 (9633792)
I0802 22:11:37.817940   474 net.cpp:156] Top shape: 16 (16)
I0802 22:11:37.817945   474 net.cpp:164] Memory required for data: 38535232
I0802 22:11:37.817961   474 layer_factory.hpp:77] Creating layer reshape
I0802 22:11:37.817981   474 net.cpp:99] Creating Layer reshape
I0802 22:11:37.817989   474 net.cpp:433] reshape <- data
I0802 22:11:37.818008   474 net.cpp:407] reshape -> vol_data
I0802 22:11:37.818063   474 net.cpp:149] Setting up reshape
I0802 22:11:37.818074   474 net.cpp:156] Top shape: 16 3 16 112 112 (9633792)
I0802 22:11:37.818079   474 net.cpp:164] Memory required for data: 77070400
I0802 22:11:37.818085   474 layer_factory.hpp:77] Creating layer rgb_conv1a
I0802 22:11:37.818104   474 net.cpp:99] Creating Layer rgb_conv1a
I0802 22:11:37.818111   474 net.cpp:433] rgb_conv1a <- vol_data
I0802 22:11:37.818120   474 net.cpp:407] rgb_conv1a -> rgb_conv1a
I0802 22:11:37.820909   474 net.cpp:149] Setting up rgb_conv1a
I0802 22:11:37.820932   474 net.cpp:156] Top shape: 16 64 16 112 112 (205520896)
I0802 22:11:37.820951   474 net.cpp:164] Memory required for data: 899153984
I0802 22:11:37.820968   474 layer_factory.hpp:77] Creating layer rgb_relu1a
I0802 22:11:37.820982   474 net.cpp:99] Creating Layer rgb_relu1a
I0802 22:11:37.820989   474 net.cpp:433] rgb_relu1a <- rgb_conv1a
I0802 22:11:37.820996   474 net.cpp:394] rgb_relu1a -> rgb_conv1a (in-place)
I0802 22:11:37.821009   474 net.cpp:149] Setting up rgb_relu1a
I0802 22:11:37.821017   474 net.cpp:156] Top shape: 16 64 16 112 112 (205520896)
I0802 22:11:37.821022   474 net.cpp:164] Memory required for data: 1721237568
I0802 22:11:37.821029   474 layer_factory.hpp:77] Creating layer rgb_pool1
I0802 22:11:37.821501   474 net.cpp:99] Creating Layer rgb_pool1
I0802 22:11:37.821516   474 net.cpp:433] rgb_pool1 <- rgb_conv1a
I0802 22:11:37.821524   474 net.cpp:407] rgb_pool1 -> rgb_pool1
I0802 22:11:37.823983   474 net.cpp:149] Setting up rgb_pool1
I0802 22:11:37.824009   474 net.cpp:156] Top shape: 16 64 16 56 56 (51380224)
I0802 22:11:37.824015   474 net.cpp:164] Memory required for data: 1926758464
I0802 22:11:37.824021   474 layer_factory.hpp:77] Creating layer rgb_conv2a
I0802 22:11:37.824035   474 net.cpp:99] Creating Layer rgb_conv2a
I0802 22:11:37.824043   474 net.cpp:433] rgb_conv2a <- rgb_pool1
I0802 22:11:37.824049   474 net.cpp:407] rgb_conv2a -> rgb_conv2a
I0802 22:11:37.827716   474 net.cpp:149] Setting up rgb_conv2a
I0802 22:11:37.827738   474 net.cpp:156] Top shape: 16 128 16 56 56 (102760448)
I0802 22:11:37.827744   474 net.cpp:164] Memory required for data: 2337800256
I0802 22:11:37.827755   474 layer_factory.hpp:77] Creating layer rgb_relu2a
I0802 22:11:37.827764   474 net.cpp:99] Creating Layer rgb_relu2a
I0802 22:11:37.827770   474 net.cpp:433] rgb_relu2a <- rgb_conv2a
I0802 22:11:37.827778   474 net.cpp:394] rgb_relu2a -> rgb_conv2a (in-place)
I0802 22:11:37.827793   474 net.cpp:149] Setting up rgb_relu2a
I0802 22:11:37.827811   474 net.cpp:156] Top shape: 16 128 16 56 56 (102760448)
I0802 22:11:37.827816   474 net.cpp:164] Memory required for data: 2748842048
I0802 22:11:37.827821   474 layer_factory.hpp:77] Creating layer rgb_pool2
I0802 22:11:37.827827   474 net.cpp:99] Creating Layer rgb_pool2
I0802 22:11:37.827832   474 net.cpp:433] rgb_pool2 <- rgb_conv2a
I0802 22:11:37.827841   474 net.cpp:407] rgb_pool2 -> rgb_pool2
I0802 22:11:37.827867   474 net.cpp:149] Setting up rgb_pool2
I0802 22:11:37.827875   474 net.cpp:156] Top shape: 16 128 8 28 28 (12845056)
I0802 22:11:37.827880   474 net.cpp:164] Memory required for data: 2800222272
I0802 22:11:37.827885   474 layer_factory.hpp:77] Creating layer rgb_conv3a
I0802 22:11:37.827900   474 net.cpp:99] Creating Layer rgb_conv3a
I0802 22:11:37.827908   474 net.cpp:433] rgb_conv3a <- rgb_pool2
I0802 22:11:37.827914   474 net.cpp:407] rgb_conv3a -> rgb_conv3a
I0802 22:11:37.839279   474 net.cpp:149] Setting up rgb_conv3a
I0802 22:11:37.839301   474 net.cpp:156] Top shape: 16 256 8 28 28 (25690112)
I0802 22:11:37.839308   474 net.cpp:164] Memory required for data: 2902982720
I0802 22:11:37.839318   474 layer_factory.hpp:77] Creating layer rgb_relu3a
I0802 22:11:37.839328   474 net.cpp:99] Creating Layer rgb_relu3a
I0802 22:11:37.839334   474 net.cpp:433] rgb_relu3a <- rgb_conv3a
I0802 22:11:37.839340   474 net.cpp:394] rgb_relu3a -> rgb_conv3a (in-place)
I0802 22:11:37.839349   474 net.cpp:149] Setting up rgb_relu3a
I0802 22:11:37.839356   474 net.cpp:156] Top shape: 16 256 8 28 28 (25690112)
I0802 22:11:37.839361   474 net.cpp:164] Memory required for data: 3005743168
I0802 22:11:37.839366   474 layer_factory.hpp:77] Creating layer rgb_conv3b
I0802 22:11:37.839377   474 net.cpp:99] Creating Layer rgb_conv3b
I0802 22:11:37.839383   474 net.cpp:433] rgb_conv3b <- rgb_conv3a
I0802 22:11:37.839390   474 net.cpp:407] rgb_conv3b -> rgb_conv3b
I0802 22:11:37.860610   474 net.cpp:149] Setting up rgb_conv3b
I0802 22:11:37.860635   474 net.cpp:156] Top shape: 16 256 8 28 28 (25690112)
I0802 22:11:37.860641   474 net.cpp:164] Memory required for data: 3108503616
I0802 22:11:37.860648   474 layer_factory.hpp:77] Creating layer rgb_relu3b
I0802 22:11:37.860657   474 net.cpp:99] Creating Layer rgb_relu3b
I0802 22:11:37.860662   474 net.cpp:433] rgb_relu3b <- rgb_conv3b
I0802 22:11:37.860671   474 net.cpp:394] rgb_relu3b -> rgb_conv3b (in-place)
I0802 22:11:37.860679   474 net.cpp:149] Setting up rgb_relu3b
I0802 22:11:37.860685   474 net.cpp:156] Top shape: 16 256 8 28 28 (25690112)
I0802 22:11:37.860689   474 net.cpp:164] Memory required for data: 3211264064
I0802 22:11:37.860694   474 layer_factory.hpp:77] Creating layer rgb_pool3
I0802 22:11:37.860700   474 net.cpp:99] Creating Layer rgb_pool3
I0802 22:11:37.860705   474 net.cpp:433] rgb_pool3 <- rgb_conv3b
I0802 22:11:37.860713   474 net.cpp:407] rgb_pool3 -> rgb_pool3
I0802 22:11:37.860736   474 net.cpp:149] Setting up rgb_pool3
I0802 22:11:37.860744   474 net.cpp:156] Top shape: 16 256 4 14 14 (3211264)
I0802 22:11:37.860749   474 net.cpp:164] Memory required for data: 3224109120
I0802 22:11:37.860752   474 layer_factory.hpp:77] Creating layer rgb_conv4a
I0802 22:11:37.860764   474 net.cpp:99] Creating Layer rgb_conv4a
I0802 22:11:37.860770   474 net.cpp:433] rgb_conv4a <- rgb_pool3
I0802 22:11:37.860777   474 net.cpp:407] rgb_conv4a -> rgb_conv4a
I0802 22:11:37.901005   474 net.cpp:149] Setting up rgb_conv4a
I0802 22:11:37.901048   474 net.cpp:156] Top shape: 16 512 4 14 14 (6422528)
I0802 22:11:37.901054   474 net.cpp:164] Memory required for data: 3249799232
I0802 22:11:37.901068   474 layer_factory.hpp:77] Creating layer rgb_relu4a
I0802 22:11:37.901080   474 net.cpp:99] Creating Layer rgb_relu4a
I0802 22:11:37.901087   474 net.cpp:433] rgb_relu4a <- rgb_conv4a
I0802 22:11:37.901095   474 net.cpp:394] rgb_relu4a -> rgb_conv4a (in-place)
I0802 22:11:37.901105   474 net.cpp:149] Setting up rgb_relu4a
I0802 22:11:37.901110   474 net.cpp:156] Top shape: 16 512 4 14 14 (6422528)
I0802 22:11:37.901121   474 net.cpp:164] Memory required for data: 3275489344
I0802 22:11:37.901134   474 layer_factory.hpp:77] Creating layer rgb_conv4b
I0802 22:11:37.901147   474 net.cpp:99] Creating Layer rgb_conv4b
I0802 22:11:37.901152   474 net.cpp:433] rgb_conv4b <- rgb_conv4a
I0802 22:11:37.901159   474 net.cpp:407] rgb_conv4b -> rgb_conv4b
I0802 22:11:37.972348   474 net.cpp:149] Setting up rgb_conv4b
I0802 22:11:37.972394   474 net.cpp:156] Top shape: 16 512 4 14 14 (6422528)
I0802 22:11:37.972399   474 net.cpp:164] Memory required for data: 3301179456
I0802 22:11:37.972409   474 layer_factory.hpp:77] Creating layer rgb_relu4b
I0802 22:11:37.972425   474 net.cpp:99] Creating Layer rgb_relu4b
I0802 22:11:37.972432   474 net.cpp:433] rgb_relu4b <- rgb_conv4b
I0802 22:11:37.972440   474 net.cpp:394] rgb_relu4b -> rgb_conv4b (in-place)
I0802 22:11:37.972450   474 net.cpp:149] Setting up rgb_relu4b
I0802 22:11:37.972455   474 net.cpp:156] Top shape: 16 512 4 14 14 (6422528)
I0802 22:11:37.972458   474 net.cpp:164] Memory required for data: 3326869568
I0802 22:11:37.972462   474 layer_factory.hpp:77] Creating layer rgb_pool4
I0802 22:11:37.972470   474 net.cpp:99] Creating Layer rgb_pool4
I0802 22:11:37.972473   474 net.cpp:433] rgb_pool4 <- rgb_conv4b
I0802 22:11:37.972479   474 net.cpp:407] rgb_pool4 -> rgb_pool4
I0802 22:11:37.972501   474 net.cpp:149] Setting up rgb_pool4
I0802 22:11:37.972512   474 net.cpp:156] Top shape: 16 512 2 7 7 (802816)
I0802 22:11:37.972517   474 net.cpp:164] Memory required for data: 3330080832
I0802 22:11:37.972520   474 layer_factory.hpp:77] Creating layer rgb_conv5a
I0802 22:11:37.972530   474 net.cpp:99] Creating Layer rgb_conv5a
I0802 22:11:37.972534   474 net.cpp:433] rgb_conv5a <- rgb_pool4
I0802 22:11:37.972543   474 net.cpp:407] rgb_conv5a -> rgb_conv5a
I0802 22:11:38.042474   474 net.cpp:149] Setting up rgb_conv5a
I0802 22:11:38.042517   474 net.cpp:156] Top shape: 16 512 2 7 7 (802816)
I0802 22:11:38.042523   474 net.cpp:164] Memory required for data: 3333292096
I0802 22:11:38.042532   474 layer_factory.hpp:77] Creating layer rgb_relu5a
I0802 22:11:38.042546   474 net.cpp:99] Creating Layer rgb_relu5a
I0802 22:11:38.042552   474 net.cpp:433] rgb_relu5a <- rgb_conv5a
I0802 22:11:38.042558   474 net.cpp:394] rgb_relu5a -> rgb_conv5a (in-place)
I0802 22:11:38.042568   474 net.cpp:149] Setting up rgb_relu5a
I0802 22:11:38.042574   474 net.cpp:156] Top shape: 16 512 2 7 7 (802816)
I0802 22:11:38.042577   474 net.cpp:164] Memory required for data: 3336503360
I0802 22:11:38.042582   474 layer_factory.hpp:77] Creating layer rgb_conv5b
I0802 22:11:38.042593   474 net.cpp:99] Creating Layer rgb_conv5b
I0802 22:11:38.042598   474 net.cpp:433] rgb_conv5b <- rgb_conv5a
I0802 22:11:38.042606   474 net.cpp:407] rgb_conv5b -> rgb_conv5b
I0802 22:11:38.112491   474 net.cpp:149] Setting up rgb_conv5b
I0802 22:11:38.112537   474 net.cpp:156] Top shape: 16 512 2 7 7 (802816)
I0802 22:11:38.112543   474 net.cpp:164] Memory required for data: 3339714624
I0802 22:11:38.112552   474 layer_factory.hpp:77] Creating layer rgb_relu5b
I0802 22:11:38.112566   474 net.cpp:99] Creating Layer rgb_relu5b
I0802 22:11:38.112572   474 net.cpp:433] rgb_relu5b <- rgb_conv5b
I0802 22:11:38.112579   474 net.cpp:394] rgb_relu5b -> rgb_conv5b (in-place)
I0802 22:11:38.112589   474 net.cpp:149] Setting up rgb_relu5b
I0802 22:11:38.112594   474 net.cpp:156] Top shape: 16 512 2 7 7 (802816)
I0802 22:11:38.112598   474 net.cpp:164] Memory required for data: 3342925888
I0802 22:11:38.112601   474 layer_factory.hpp:77] Creating layer rgb_pool5
I0802 22:11:38.112608   474 net.cpp:99] Creating Layer rgb_pool5
I0802 22:11:38.112612   474 net.cpp:433] rgb_pool5 <- rgb_conv5b
I0802 22:11:38.112622   474 net.cpp:407] rgb_pool5 -> rgb_pool5
I0802 22:11:38.112648   474 net.cpp:149] Setting up rgb_pool5
I0802 22:11:38.112655   474 net.cpp:156] Top shape: 16 512 1 4 4 (131072)
I0802 22:11:38.112659   474 net.cpp:164] Memory required for data: 3343450176
I0802 22:11:38.112663   474 layer_factory.hpp:77] Creating layer rgb_fc6
I0802 22:11:38.112678   474 net.cpp:99] Creating Layer rgb_fc6
I0802 22:11:38.112690   474 net.cpp:433] rgb_fc6 <- rgb_pool5
I0802 22:11:38.112697   474 net.cpp:407] rgb_fc6 -> rgb_fc6
I0802 22:11:38.444061   474 net.cpp:149] Setting up rgb_fc6
I0802 22:11:38.444103   474 net.cpp:156] Top shape: 16 4096 (65536)
I0802 22:11:38.444108   474 net.cpp:164] Memory required for data: 3343712320
I0802 22:11:38.444123   474 layer_factory.hpp:77] Creating layer rgb_relu6
I0802 22:11:38.444138   474 net.cpp:99] Creating Layer rgb_relu6
I0802 22:11:38.444144   474 net.cpp:433] rgb_relu6 <- rgb_fc6
I0802 22:11:38.444151   474 net.cpp:394] rgb_relu6 -> rgb_fc6 (in-place)
I0802 22:11:38.444161   474 net.cpp:149] Setting up rgb_relu6
I0802 22:11:38.444166   474 net.cpp:156] Top shape: 16 4096 (65536)
I0802 22:11:38.444170   474 net.cpp:164] Memory required for data: 3343974464
I0802 22:11:38.444173   474 layer_factory.hpp:77] Creating layer rgb_drop6
I0802 22:11:38.444186   474 net.cpp:99] Creating Layer rgb_drop6
I0802 22:11:38.444191   474 net.cpp:433] rgb_drop6 <- rgb_fc6
I0802 22:11:38.444197   474 net.cpp:394] rgb_drop6 -> rgb_fc6 (in-place)
I0802 22:11:38.444223   474 net.cpp:149] Setting up rgb_drop6
I0802 22:11:38.444229   474 net.cpp:156] Top shape: 16 4096 (65536)
I0802 22:11:38.444233   474 net.cpp:164] Memory required for data: 3344236608
I0802 22:11:38.444236   474 layer_factory.hpp:77] Creating layer rgb_fc7
I0802 22:11:38.444245   474 net.cpp:99] Creating Layer rgb_fc7
I0802 22:11:38.444249   474 net.cpp:433] rgb_fc7 <- rgb_fc6
I0802 22:11:38.444257   474 net.cpp:407] rgb_fc7 -> rgb_fc7
I0802 22:11:38.609709   474 net.cpp:149] Setting up rgb_fc7
I0802 22:11:38.609755   474 net.cpp:156] Top shape: 16 4096 (65536)
I0802 22:11:38.609760   474 net.cpp:164] Memory required for data: 3344498752
I0802 22:11:38.609769   474 layer_factory.hpp:77] Creating layer rgb_relu7
I0802 22:11:38.609781   474 net.cpp:99] Creating Layer rgb_relu7
I0802 22:11:38.609789   474 net.cpp:433] rgb_relu7 <- rgb_fc7
I0802 22:11:38.609797   474 net.cpp:394] rgb_relu7 -> rgb_fc7 (in-place)
I0802 22:11:38.609807   474 net.cpp:149] Setting up rgb_relu7
I0802 22:11:38.609812   474 net.cpp:156] Top shape: 16 4096 (65536)
I0802 22:11:38.609815   474 net.cpp:164] Memory required for data: 3344760896
I0802 22:11:38.609819   474 layer_factory.hpp:77] Creating layer rgb_drop7
I0802 22:11:38.609827   474 net.cpp:99] Creating Layer rgb_drop7
I0802 22:11:38.609830   474 net.cpp:433] rgb_drop7 <- rgb_fc7
I0802 22:11:38.609836   474 net.cpp:394] rgb_drop7 -> rgb_fc7 (in-place)
I0802 22:11:38.609859   474 net.cpp:149] Setting up rgb_drop7
I0802 22:11:38.609866   474 net.cpp:156] Top shape: 16 4096 (65536)
I0802 22:11:38.609870   474 net.cpp:164] Memory required for data: 3345023040
I0802 22:11:38.609874   474 layer_factory.hpp:77] Creating layer rgb_fc8
I0802 22:11:38.609882   474 net.cpp:99] Creating Layer rgb_fc8
I0802 22:11:38.609887   474 net.cpp:433] rgb_fc8 <- rgb_fc7
I0802 22:11:38.609892   474 net.cpp:407] rgb_fc8 -> rgb_fc8
I0802 22:11:38.610416   474 net.cpp:149] Setting up rgb_fc8
I0802 22:11:38.610426   474 net.cpp:156] Top shape: 16 12 (192)
I0802 22:11:38.610430   474 net.cpp:164] Memory required for data: 3345023808
I0802 22:11:38.610436   474 layer_factory.hpp:77] Creating layer loss
I0802 22:11:38.610689   474 net.cpp:99] Creating Layer loss
I0802 22:11:38.610699   474 net.cpp:433] loss <- rgb_fc8
I0802 22:11:38.610707   474 net.cpp:433] loss <- label
I0802 22:11:38.610713   474 net.cpp:407] loss -> loss
I0802 22:11:38.610728   474 layer_factory.hpp:77] Creating layer loss
…
I0802 22:11:38.794200   474 net.cpp:321] The NetState phase (1) differed from the phase (0) specified by a rule in layer data
I0802 22:11:38.794378   474 net.cpp:56] Initializing net from parameters: 
name: "C3D_net"
state {
  phase: TEST
}
layer {
  name: "data"
  type: "VideoSnippetData"
  top: "data"
  top: "label"
  include {
    phase: TEST
  }
  transform_param {
    mirror: false
    crop_size: 112
    mean_value: 128
    is_flow: false
    new_height: 128
    new_width: 171
  }
  video_snippet_data_param {
    source: "hollywood2_val_rgb_split01.txt"
    batch_size: 1
    new_length: 16
    modality: RGB
    backend: LMDB
    preserve_temporal: true
  }
}
layer {
  name: "reshape"
  type: "Reshape"
  bottom: "data"
  top: "vol_data"
  reshape_param {
    shape {
      dim: 3
      dim: -1
    }
    axis: 1
    num_axes: 1
  }
}
layer {
  name: "rgb_conv1a"
  type: "Convolution"
  bottom: "vol_data"
  top: "rgb_conv1a"
  param {
    lr_mult: 1
    decay_mult: 1
  }
  param {
    lr_mult: 2
    decay_mult: 0
  }
  convolution_param {
    num_output: 64
    pad: 1
    kernel_size: 3
    weight_filler {
      type: "gaussian"
      std: 0.01
    }
    bias_filler {
      type: "constant"
      value: 0
    }
    engine: CAFFE
    axis: 1
  }
}
layer {
  name: "rgb_relu1a"
  type: "ReLU"
  bottom: "rgb_conv1a"
  top: "rgb_conv1a"
  relu_param {
    engine: CAFFE
  }
}
layer {
  name: "rgb_pool1"
  type: "Pooling3D"
  bottom: "rgb_conv1a"
  top: "rgb_pool1"
  pooling3d_param {
    pool: MAX
    kernel_size: 2
    stride: 2
    kernel_depth: 1
    temporal_stride: 1
  }
}
layer {
  name: "rgb_conv2a"
  type: "Convolution"
  bottom: "rgb_pool1"
  top: "rgb_conv2a"
  param {
    lr_mult: 1
    decay_mult: 1
  }
  param {
    lr_mult: 2
    decay_mult: 0
  }
  convolution_param {
    num_output: 128
    pad: 1
    kernel_size: 3
    weight_filler {
      type: "gaussian"
      std: 0.01
    }
    bias_filler {
      type: "constant"
      value: 1
    }
    engine: CAFFE
    axis: 1
  }
}
layer {
  name: "rgb_relu2a"
  type: "ReLU"
  bottom: "rgb_conv2a"
  top: "rgb_conv2a"
  relu_param {
    engine: CAFFE
  }
}
layer {
  name: "rgb_pool2"
  type: "Pooling3D"
  bottom: "rgb_conv2a"
  top: "rgb_pool2"
  pooling3d_param {
    pool: MAX
    kernel_size: 2
    stride: 2
    kernel_depth: 2
    temporal_stride: 2
  }
}
layer {
  name: "rgb_conv3a"
  type: "Convolution"
  bottom: "rgb_pool2"
  top: "rgb_conv3a"
  param {
    lr_mult: 1
    decay_mult: 1
  }
  param {
    lr_mult: 2
    decay_mult: 0
  }
  convolution_param {
    num_output: 256
    pad: 1
    kernel_size: 3
    weight_filler {
      type: "gaussian"
      std: 0.01
    }
    bias_filler {
      type: "constant"
      value: 1
    }
    engine: CAFFE
    axis: 1
  }
}
layer {
  name: "rgb_relu3a"
  type: "ReLU"
  bottom: "rgb_conv3a"
  top: "rgb_conv3a"
  relu_param {
    engine: CAFFE
  }
}
layer {
  name: "rgb_conv3b"
  type: "Convolution"
  bottom: "rgb_conv3a"
  top: "rgb_conv3b"
  param {
    lr_mult: 1
    decay_mult: 1
  }
  param {
    lr_mult: 2
    decay_mult: 0
  }
  convolution_param {
    num_output: 256
    pad: 1
    kernel_size: 3
    weight_filler {
      type: "gaussian"
      std: 0.01
    }
    bias_filler {
      type: "constant"
      value: 1
    }
    engine: CAFFE
    axis: 1
  }
}
layer {
  name: "rgb_relu3b"
  type: "ReLU"
  bottom: "rgb_conv3b"
  top: "rgb_conv3b"
  relu_param {
    engine: CAFFE
  }
}
layer {
  name: "rgb_pool3"
  type: "Pooling3D"
  bottom: "rgb_conv3b"
  top: "rgb_pool3"
  pooling3d_param {
    pool: MAX
    kernel_size: 2
    stride: 2
    kernel_depth: 2
    temporal_stride: 2
  }
}
layer {
  name: "rgb_conv4a"
  type: "Convolution"
  bottom: "rgb_pool3"
  top: "rgb_conv4a"
  param {
    lr_mult: 1
    decay_mult: 1
  }
  param {
    lr_mult: 2
    decay_mult: 0
  }
  convolution_param {
    num_output: 512
    pad: 1
    kernel_size: 3
    weight_filler {
      type: "gaussian"
      std: 0.01
    }
    bias_filler {
      type: "constant"
      value: 1
    }
    engine: CAFFE
    axis: 1
  }
}
layer {
  name: "rgb_relu4a"
  type: "ReLU"
  bottom: "rgb_conv4a"
  top: "rgb_conv4a"
  relu_param {
    engine: CAFFE
  }
}
layer {
  name: "rgb_conv4b"
  type: "Convolution"
  bottom: "rgb_conv4a"
  top: "rgb_conv4b"
  param {
    lr_mult: 1
    decay_mult: 1
  }
  param {
    lr_mult: 2
    decay_mult: 0
  }
  convolution_param {
    num_output: 512
    pad: 1
    kernel_size: 3
    weight_filler {
      type: "gaussian"
      std: 0.01
    }
    bias_filler {
      type: "constant"
      value: 1
    }
    engine: CAFFE
    axis: 1
  }
}
layer {
  name: "rgb_relu4b"
  type: "ReLU"
  bottom: "rgb_conv4b"
  top: "rgb_conv4b"
  relu_param {
    engine: CAFFE
  }
}
layer {
  name: "rgb_pool4"
  type: "Pooling3D"
  bottom: "rgb_conv4b"
  top: "rgb_pool4"
  pooling3d_param {
    pool: MAX
    kernel_size: 2
    stride: 2
    kernel_depth: 2
    temporal_stride: 2
  }
}
layer {
  name: "rgb_conv5a"
  type: "Convolution"
  bottom: "rgb_pool4"
  top: "rgb_conv5a"
  param {
    lr_mult: 1
    decay_mult: 1
  }
  param {
    lr_mult: 2
    decay_mult: 0
  }
  convolution_param {
    num_output: 512
    pad: 1
    kernel_size: 3
    weight_filler {
      type: "gaussian"
      std: 0.01
    }
    bias_filler {
      type: "constant"
      value: 1
    }
    engine: CAFFE
    axis: 1
  }
}
layer {
  name: "rgb_relu5a"
  type: "ReLU"
  bottom: "rgb_conv5a"
  top: "rgb_conv5a"
  relu_param {
    engine: CAFFE
  }
}
layer {
  name: "rgb_conv5b"
  type: "Convolution"
  bottom: "rgb_conv5a"
  top: "rgb_conv5b"
  param {
    lr_mult: 1
    decay_mult: 1
  }
  param {
    lr_mult: 2
    decay_mult: 0
  }
  convolution_param {
    num_output: 512
    pad: 1
    kernel_size: 3
    weight_filler {
      type: "gaussian"
      std: 0.01
    }
    bias_filler {
      type: "constant"
      value: 1
    }
    engine: CAFFE
    axis: 1
  }
}
layer {
  name: "rgb_relu5b"
  type: "ReLU"
  bottom: "rgb_conv5b"
  top: "rgb_conv5b"
  relu_param {
    engine: CAFFE
  }
}
layer {
  name: "rgb_pool5"
  type: "Pooling3D"
  bottom: "rgb_conv5b"
  top: "rgb_pool5"
  pooling3d_param {
    pool: MAX
    kernel_size: 2
    stride: 2
    kernel_depth: 2
    temporal_stride: 2
  }
}
layer {
  name: "rgb_fc6"
  type: "InnerProduct"
  bottom: "rgb_pool5"
  top: "rgb_fc6"
  param {
    lr_mult: 1
    decay_mult: 1
  }
  param {
    lr_mult: 2
    decay_mult: 0
  }
  inner_product_param {
    num_output: 4096
    weight_filler {
      type: "gaussian"
      std: 0.005
    }
    bias_filler {
      type: "constant"
      value: 1
    }
  }
}
layer {
  name: "rgb_relu6"
  type: "ReLU"
  bottom: "rgb_fc6"
  top: "rgb_fc6"
  relu_param {
    engine: CAFFE
  }
}
layer {
  name: "rgb_drop6"
  type: "Dropout"
  bottom: "rgb_fc6"
  top: "rgb_fc6"
  dropout_param {
    dropout_ratio: 0.9
  }
}
layer {
  name: "rgb_fc7"
  type: "InnerProduct"
  bottom: "rgb_fc6"
  top: "rgb_fc7"
  param {
    lr_mult: 1
    decay_mult: 1
  }
  param {
    lr_mult: 2
    decay_mult: 0
  }
  inner_product_param {
    num_output: 4096
    weight_filler {
      type: "gaussian"
      std: 0.005
    }
    bias_filler {
      type: "constant"
      value: 1
    }
  }
}
layer {
  name: "rgb_relu7"
  type: "ReLU"
  bottom: "rgb_fc7"
  top: "rgb_fc7"
  relu_param {
    engine: CAFFE
  }
}
layer {
  name: "rgb_drop7"
  type: "Dropout"
  bottom: "rgb_fc7"
  top: "rgb_fc7"
  dropout_param {
    dropout_ratio: 0.8
  }
}
layer {
  name: "rgb_fc8"
  type: "InnerProduct"
  bottom: "rgb_fc7"
  top: "rgb_fc8"
  param {
    lr_mult: 1
    decay_mult: 1
  }
  param {
    lr_mult: 2
    decay_mult: 0
  }
  inner_product_param {
    num_output: 12
    weight_filler {
      type: "gaussian"
      std: 0.01
    }
    bias_filler {
      type: "constant"
      value: 0
    }
  }
}
layer {
  name: "accuracy"
  type: "Accuracy"
  bottom: "rgb_fc8"
  bottom: "label"
  top: "accuracy"
  include {
    phase: TEST
  }
}
layer {
  name: "loss"
  type: "SoftmaxWithLoss"
  bottom: "rgb_fc8"
  bottom: "label"
  top: "loss"
}
I0802 22:11:38.794482   474 layer_factory.hpp:77] Creating layer data
I0802 22:11:38.794538   474 net.cpp:99] Creating Layer data
I0802 22:11:38.794564   474 net.cpp:407] data -> data
I0802 22:11:38.794574   474 net.cpp:407] data -> label
I0802 22:11:38.845145   474 video_snippet_data_layer.cpp:40] Extracting 1-view features in TEST phase.
I0802 22:11:38.845422   474 video_snippet_data_layer.cpp:52] output data size: 1,48,112,112
I0802 22:11:38.866190   474 net.cpp:149] Setting up data
I0802 22:11:38.866245   474 net.cpp:156] Top shape: 1 48 112 112 (602112)
I0802 22:11:38.866262   474 net.cpp:156] Top shape: 1 (1)
I0802 22:11:38.866272   474 net.cpp:164] Memory required for data: 2408452
I0802 22:11:38.866286   474 layer_factory.hpp:77] Creating layer label_data_1_split
I0802 22:11:38.866312   474 net.cpp:99] Creating Layer label_data_1_split
I0802 22:11:38.866330   474 net.cpp:433] label_data_1_split <- label
I0802 22:11:38.866348   474 net.cpp:407] label_data_1_split -> label_data_1_split_0
I0802 22:11:38.866369   474 net.cpp:407] label_data_1_split -> label_data_1_split_1
I0802 22:11:38.866497   474 net.cpp:149] Setting up label_data_1_split
I0802 22:11:38.866521   474 net.cpp:156] Top shape: 1 (1)
I0802 22:11:38.866533   474 net.cpp:156] Top shape: 1 (1)
I0802 22:11:38.866542   474 net.cpp:164] Memory required for data: 2408460
I0802 22:11:38.866552   474 layer_factory.hpp:77] Creating layer reshape
I0802 22:11:38.866574   474 net.cpp:99] Creating Layer reshape
I0802 22:11:38.866587   474 net.cpp:433] reshape <- data
I0802 22:11:38.866601   474 net.cpp:407] reshape -> vol_data
I0802 22:11:38.866667   474 net.cpp:149] Setting up reshape
I0802 22:11:38.866688   474 net.cpp:156] Top shape: 1 3 16 112 112 (602112)
I0802 22:11:38.866725   474 net.cpp:164] Memory required for data: 4816908
I0802 22:11:38.866736   474 layer_factory.hpp:77] Creating layer rgb_conv1a
I0802 22:11:38.866762   474 net.cpp:99] Creating Layer rgb_conv1a
I0802 22:11:38.866776   474 net.cpp:433] rgb_conv1a <- vol_data
I0802 22:11:38.866792   474 net.cpp:407] rgb_conv1a -> rgb_conv1a
I0802 22:11:38.869191   474 net.cpp:149] Setting up rgb_conv1a
I0802 22:11:38.869230   474 net.cpp:156] Top shape: 1 64 16 112 112 (12845056)
I0802 22:11:38.869244   474 net.cpp:164] Memory required for data: 56197132
I0802 22:11:38.869274   474 layer_factory.hpp:77] Creating layer rgb_relu1a
I0802 22:11:38.869297   474 net.cpp:99] Creating Layer rgb_relu1a
I0802 22:11:38.869308   474 net.cpp:433] rgb_relu1a <- rgb_conv1a
I0802 22:11:38.869325   474 net.cpp:394] rgb_relu1a -> rgb_conv1a (in-place)
I0802 22:11:38.869344   474 net.cpp:149] Setting up rgb_relu1a
I0802 22:11:38.869359   474 net.cpp:156] Top shape: 1 64 16 112 112 (12845056)
I0802 22:11:38.869369   474 net.cpp:164] Memory required for data: 107577356
I0802 22:11:38.869379   474 layer_factory.hpp:77] Creating layer rgb_pool1
I0802 22:11:38.869395   474 net.cpp:99] Creating Layer rgb_pool1
I0802 22:11:38.869405   474 net.cpp:433] rgb_pool1 <- rgb_conv1a
I0802 22:11:38.869417   474 net.cpp:407] rgb_pool1 -> rgb_pool1
I0802 22:11:38.869490   474 net.cpp:149] Setting up rgb_pool1
I0802 22:11:38.869510   474 net.cpp:156] Top shape: 1 64 16 56 56 (3211264)
I0802 22:11:38.869520   474 net.cpp:164] Memory required for data: 120422412
I0802 22:11:38.869530   474 layer_factory.hpp:77] Creating layer rgb_conv2a
I0802 22:11:38.869552   474 net.cpp:99] Creating Layer rgb_conv2a
I0802 22:11:38.869566   474 net.cpp:433] rgb_conv2a <- rgb_pool1
I0802 22:11:38.869585   474 net.cpp:407] rgb_conv2a -> rgb_conv2a
I0802 22:11:38.875164   474 net.cpp:149] Setting up rgb_conv2a
I0802 22:11:38.875190   474 net.cpp:156] Top shape: 1 128 16 56 56 (6422528)
I0802 22:11:38.875200   474 net.cpp:164] Memory required for data: 146112524
I0802 22:11:38.875217   474 layer_factory.hpp:77] Creating layer rgb_relu2a
I0802 22:11:38.875231   474 net.cpp:99] Creating Layer rgb_relu2a
I0802 22:11:38.875241   474 net.cpp:433] rgb_relu2a <- rgb_conv2a
I0802 22:11:38.875253   474 net.cpp:394] rgb_relu2a -> rgb_conv2a (in-place)
I0802 22:11:38.875268   474 net.cpp:149] Setting up rgb_relu2a
I0802 22:11:38.875280   474 net.cpp:156] Top shape: 1 128 16 56 56 (6422528)
I0802 22:11:38.875289   474 net.cpp:164] Memory required for data: 171802636
I0802 22:11:38.875298   474 layer_factory.hpp:77] Creating layer rgb_pool2
I0802 22:11:38.875313   474 net.cpp:99] Creating Layer rgb_pool2
I0802 22:11:38.875322   474 net.cpp:433] rgb_pool2 <- rgb_conv2a
I0802 22:11:38.875337   474 net.cpp:407] rgb_pool2 -> rgb_pool2
I0802 22:11:38.875388   474 net.cpp:149] Setting up rgb_pool2
I0802 22:11:38.875411   474 net.cpp:156] Top shape: 1 128 8 28 28 (802816)
I0802 22:11:38.875421   474 net.cpp:164] Memory required for data: 175013900
I0802 22:11:38.875429   474 layer_factory.hpp:77] Creating layer rgb_conv3a
I0802 22:11:38.875448   474 net.cpp:99] Creating Layer rgb_conv3a
I0802 22:11:38.875461   474 net.cpp:433] rgb_conv3a <- rgb_pool2
I0802 22:11:38.875475   474 net.cpp:407] rgb_conv3a -> rgb_conv3a
I0802 22:11:38.896360   474 net.cpp:149] Setting up rgb_conv3a
I0802 22:11:38.896396   474 net.cpp:156] Top shape: 1 256 8 28 28 (1605632)
I0802 22:11:38.896406   474 net.cpp:164] Memory required for data: 181436428
I0802 22:11:38.896426   474 layer_factory.hpp:77] Creating layer rgb_relu3a
I0802 22:11:38.896440   474 net.cpp:99] Creating Layer rgb_relu3a
I0802 22:11:38.896450   474 net.cpp:433] rgb_relu3a <- rgb_conv3a
I0802 22:11:38.896466   474 net.cpp:394] rgb_relu3a -> rgb_conv3a (in-place)
I0802 22:11:38.896481   474 net.cpp:149] Setting up rgb_relu3a
I0802 22:11:38.896492   474 net.cpp:156] Top shape: 1 256 8 28 28 (1605632)
I0802 22:11:38.896500   474 net.cpp:164] Memory required for data: 187858956
I0802 22:11:38.896508   474 layer_factory.hpp:77] Creating layer rgb_conv3b
I0802 22:11:38.896548   474 net.cpp:99] Creating Layer rgb_conv3b
I0802 22:11:38.896559   474 net.cpp:433] rgb_conv3b <- rgb_conv3a
I0802 22:11:38.896570   474 net.cpp:407] rgb_conv3b -> rgb_conv3b
I0802 22:11:38.932004   474 net.cpp:149] Setting up rgb_conv3b
I0802 22:11:38.932044   474 net.cpp:156] Top shape: 1 256 8 28 28 (1605632)
I0802 22:11:38.932052   474 net.cpp:164] Memory required for data: 194281484
I0802 22:11:38.932065   474 layer_factory.hpp:77] Creating layer rgb_relu3b
I0802 22:11:38.932080   474 net.cpp:99] Creating Layer rgb_relu3b
I0802 22:11:38.932090   474 net.cpp:433] rgb_relu3b <- rgb_conv3b
I0802 22:11:38.932102   474 net.cpp:394] rgb_relu3b -> rgb_conv3b (in-place)
I0802 22:11:38.932117   474 net.cpp:149] Setting up rgb_relu3b
I0802 22:11:38.932127   474 net.cpp:156] Top shape: 1 256 8 28 28 (1605632)
I0802 22:11:38.932133   474 net.cpp:164] Memory required for data: 200704012
I0802 22:11:38.932140   474 layer_factory.hpp:77] Creating layer rgb_pool3
I0802 22:11:38.932152   474 net.cpp:99] Creating Layer rgb_pool3
I0802 22:11:38.932159   474 net.cpp:433] rgb_pool3 <- rgb_conv3b
I0802 22:11:38.932168   474 net.cpp:407] rgb_pool3 -> rgb_pool3
I0802 22:11:38.932217   474 net.cpp:149] Setting up rgb_pool3
I0802 22:11:38.932234   474 net.cpp:156] Top shape: 1 256 4 14 14 (200704)
I0802 22:11:38.932240   474 net.cpp:164] Memory required for data: 201506828
I0802 22:11:38.932248   474 layer_factory.hpp:77] Creating layer rgb_conv4a
I0802 22:11:38.932265   474 net.cpp:99] Creating Layer rgb_conv4a
I0802 22:11:38.932274   474 net.cpp:433] rgb_conv4a <- rgb_pool3
I0802 22:11:38.932287   474 net.cpp:407] rgb_conv4a -> rgb_conv4a
I0802 22:11:38.990875   474 net.cpp:149] Setting up rgb_conv4a
I0802 22:11:38.990921   474 net.cpp:156] Top shape: 1 512 4 14 14 (401408)
I0802 22:11:38.990928   474 net.cpp:164] Memory required for data: 203112460
I0802 22:11:38.990947   474 layer_factory.hpp:77] Creating layer rgb_relu4a
I0802 22:11:38.990964   474 net.cpp:99] Creating Layer rgb_relu4a
I0802 22:11:38.990973   474 net.cpp:433] rgb_relu4a <- rgb_conv4a
I0802 22:11:38.990983   474 net.cpp:394] rgb_relu4a -> rgb_conv4a (in-place)
I0802 22:11:38.990995   474 net.cpp:149] Setting up rgb_relu4a
I0802 22:11:38.991003   474 net.cpp:156] Top shape: 1 512 4 14 14 (401408)
I0802 22:11:38.991008   474 net.cpp:164] Memory required for data: 204718092
I0802 22:11:38.991014   474 layer_factory.hpp:77] Creating layer rgb_conv4b
I0802 22:11:38.991034   474 net.cpp:99] Creating Layer rgb_conv4b
I0802 22:11:38.991044   474 net.cpp:433] rgb_conv4b <- rgb_conv4a
I0802 22:11:38.991055   474 net.cpp:407] rgb_conv4b -> rgb_conv4b
I0802 22:11:39.082248   474 net.cpp:149] Setting up rgb_conv4b
I0802 22:11:39.082286   474 net.cpp:156] Top shape: 1 512 4 14 14 (401408)
I0802 22:11:39.082293   474 net.cpp:164] Memory required for data: 206323724
I0802 22:11:39.082303   474 layer_factory.hpp:77] Creating layer rgb_relu4b
I0802 22:11:39.082314   474 net.cpp:99] Creating Layer rgb_relu4b
I0802 22:11:39.082321   474 net.cpp:433] rgb_relu4b <- rgb_conv4b
I0802 22:11:39.082330   474 net.cpp:394] rgb_relu4b -> rgb_conv4b (in-place)
I0802 22:11:39.082340   474 net.cpp:149] Setting up rgb_relu4b
I0802 22:11:39.082346   474 net.cpp:156] Top shape: 1 512 4 14 14 (401408)
I0802 22:11:39.082350   474 net.cpp:164] Memory required for data: 207929356
I0802 22:11:39.082355   474 layer_factory.hpp:77] Creating layer rgb_pool4
I0802 22:11:39.082362   474 net.cpp:99] Creating Layer rgb_pool4
I0802 22:11:39.082366   474 net.cpp:433] rgb_pool4 <- rgb_conv4b
I0802 22:11:39.082372   474 net.cpp:407] rgb_pool4 -> rgb_pool4
I0802 22:11:39.082406   474 net.cpp:149] Setting up rgb_pool4
I0802 22:11:39.082414   474 net.cpp:156] Top shape: 1 512 2 7 7 (50176)
I0802 22:11:39.082418   474 net.cpp:164] Memory required for data: 208130060
I0802 22:11:39.082422   474 layer_factory.hpp:77] Creating layer rgb_conv5a
I0802 22:11:39.082435   474 net.cpp:99] Creating Layer rgb_conv5a
I0802 22:11:39.082442   474 net.cpp:433] rgb_conv5a <- rgb_pool4
I0802 22:11:39.082454   474 net.cpp:407] rgb_conv5a -> rgb_conv5a
I0802 22:11:39.156190   474 net.cpp:149] Setting up rgb_conv5a
I0802 22:11:39.156229   474 net.cpp:156] Top shape: 1 512 2 7 7 (50176)
I0802 22:11:39.156235   474 net.cpp:164] Memory required for data: 208330764
I0802 22:11:39.156244   474 layer_factory.hpp:77] Creating layer rgb_relu5a
I0802 22:11:39.156255   474 net.cpp:99] Creating Layer rgb_relu5a
I0802 22:11:39.156262   474 net.cpp:433] rgb_relu5a <- rgb_conv5a
I0802 22:11:39.156273   474 net.cpp:394] rgb_relu5a -> rgb_conv5a (in-place)
I0802 22:11:39.156282   474 net.cpp:149] Setting up rgb_relu5a
I0802 22:11:39.156288   474 net.cpp:156] Top shape: 1 512 2 7 7 (50176)
I0802 22:11:39.156291   474 net.cpp:164] Memory required for data: 208531468
I0802 22:11:39.156296   474 layer_factory.hpp:77] Creating layer rgb_conv5b
I0802 22:11:39.156306   474 net.cpp:99] Creating Layer rgb_conv5b
I0802 22:11:39.156311   474 net.cpp:433] rgb_conv5b <- rgb_conv5a
I0802 22:11:39.156316   474 net.cpp:407] rgb_conv5b -> rgb_conv5b
I0802 22:11:39.226485   474 net.cpp:149] Setting up rgb_conv5b
I0802 22:11:39.226518   474 net.cpp:156] Top shape: 1 512 2 7 7 (50176)
I0802 22:11:39.226523   474 net.cpp:164] Memory required for data: 208732172
I0802 22:11:39.226531   474 layer_factory.hpp:77] Creating layer rgb_relu5b
I0802 22:11:39.226546   474 net.cpp:99] Creating Layer rgb_relu5b
I0802 22:11:39.226550   474 net.cpp:433] rgb_relu5b <- rgb_conv5b
I0802 22:11:39.226558   474 net.cpp:394] rgb_relu5b -> rgb_conv5b (in-place)
I0802 22:11:39.226567   474 net.cpp:149] Setting up rgb_relu5b
I0802 22:11:39.226572   474 net.cpp:156] Top shape: 1 512 2 7 7 (50176)
I0802 22:11:39.226577   474 net.cpp:164] Memory required for data: 208932876
I0802 22:11:39.226580   474 layer_factory.hpp:77] Creating layer rgb_pool5
I0802 22:11:39.226586   474 net.cpp:99] Creating Layer rgb_pool5
I0802 22:11:39.226590   474 net.cpp:433] rgb_pool5 <- rgb_conv5b
I0802 22:11:39.226596   474 net.cpp:407] rgb_pool5 -> rgb_pool5
I0802 22:11:39.226625   474 net.cpp:149] Setting up rgb_pool5
I0802 22:11:39.226636   474 net.cpp:156] Top shape: 1 512 1 4 4 (8192)
I0802 22:11:39.226640   474 net.cpp:164] Memory required for data: 208965644
I0802 22:11:39.226644   474 layer_factory.hpp:77] Creating layer rgb_fc6
I0802 22:11:39.226652   474 net.cpp:99] Creating Layer rgb_fc6
I0802 22:11:39.226656   474 net.cpp:433] rgb_fc6 <- rgb_pool5
I0802 22:11:39.226662   474 net.cpp:407] rgb_fc6 -> rgb_fc6
I0802 22:11:39.556751   474 net.cpp:149] Setting up rgb_fc6
I0802 22:11:39.556792   474 net.cpp:156] Top shape: 1 4096 (4096)
I0802 22:11:39.556797   474 net.cpp:164] Memory required for data: 208982028
I0802 22:11:39.556814   474 layer_factory.hpp:77] Creating layer rgb_relu6
I0802 22:11:39.556828   474 net.cpp:99] Creating Layer rgb_relu6
I0802 22:11:39.556833   474 net.cpp:433] rgb_relu6 <- rgb_fc6
I0802 22:11:39.556840   474 net.cpp:394] rgb_relu6 -> rgb_fc6 (in-place)
I0802 22:11:39.556849   474 net.cpp:149] Setting up rgb_relu6
I0802 22:11:39.556861   474 net.cpp:156] Top shape: 1 4096 (4096)
I0802 22:11:39.556864   474 net.cpp:164] Memory required for data: 208998412
I0802 22:11:39.556869   474 layer_factory.hpp:77] Creating layer rgb_drop6
I0802 22:11:39.556877   474 net.cpp:99] Creating Layer rgb_drop6
I0802 22:11:39.556881   474 net.cpp:433] rgb_drop6 <- rgb_fc6
I0802 22:11:39.556886   474 net.cpp:394] rgb_drop6 -> rgb_fc6 (in-place)
I0802 22:11:39.556911   474 net.cpp:149] Setting up rgb_drop6
I0802 22:11:39.556917   474 net.cpp:156] Top shape: 1 4096 (4096)
I0802 22:11:39.556921   474 net.cpp:164] Memory required for data: 209014796
I0802 22:11:39.556926   474 layer_factory.hpp:77] Creating layer rgb_fc7
I0802 22:11:39.556934   474 net.cpp:99] Creating Layer rgb_fc7
I0802 22:11:39.556938   474 net.cpp:433] rgb_fc7 <- rgb_fc6
I0802 22:11:39.556951   474 net.cpp:407] rgb_fc7 -> rgb_fc7
I0802 22:11:39.722225   474 net.cpp:149] Setting up rgb_fc7
I0802 22:11:39.722268   474 net.cpp:156] Top shape: 1 4096 (4096)
I0802 22:11:39.722275   474 net.cpp:164] Memory required for data: 209031180
I0802 22:11:39.722291   474 layer_factory.hpp:77] Creating layer rgb_relu7
I0802 22:11:39.722311   474 net.cpp:99] Creating Layer rgb_relu7
I0802 22:11:39.722318   474 net.cpp:433] rgb_relu7 <- rgb_fc7
I0802 22:11:39.722326   474 net.cpp:394] rgb_relu7 -> rgb_fc7 (in-place)
I0802 22:11:39.722335   474 net.cpp:149] Setting up rgb_relu7
I0802 22:11:39.722340   474 net.cpp:156] Top shape: 1 4096 (4096)
I0802 22:11:39.722343   474 net.cpp:164] Memory required for data: 209047564
I0802 22:11:39.722347   474 layer_factory.hpp:77] Creating layer rgb_drop7
I0802 22:11:39.722354   474 net.cpp:99] Creating Layer rgb_drop7
I0802 22:11:39.722358   474 net.cpp:433] rgb_drop7 <- rgb_fc7
I0802 22:11:39.722364   474 net.cpp:394] rgb_drop7 -> rgb_fc7 (in-place)
I0802 22:11:39.722390   474 net.cpp:149] Setting up rgb_drop7
I0802 22:11:39.722398   474 net.cpp:156] Top shape: 1 4096 (4096)
I0802 22:11:39.722401   474 net.cpp:164] Memory required for data: 209063948
I0802 22:11:39.722405   474 layer_factory.hpp:77] Creating layer rgb_fc8
I0802 22:11:39.722414   474 net.cpp:99] Creating Layer rgb_fc8
I0802 22:11:39.722417   474 net.cpp:433] rgb_fc8 <- rgb_fc7
I0802 22:11:39.722424   474 net.cpp:407] rgb_fc8 -> rgb_fc8
I0802 22:11:39.722960   474 net.cpp:149] Setting up rgb_fc8
I0802 22:11:39.722971   474 net.cpp:156] Top shape: 1 12 (12)
I0802 22:11:39.722975   474 net.cpp:164] Memory required for data: 209063996
I0802 22:11:39.722980   474 layer_factory.hpp:77] Creating layer rgb_fc8_rgb_fc8_0_split
I0802 22:11:39.722991   474 net.cpp:99] Creating Layer rgb_fc8_rgb_fc8_0_split
I0802 22:11:39.722995   474 net.cpp:433] rgb_fc8_rgb_fc8_0_split <- rgb_fc8
I0802 22:11:39.723001   474 net.cpp:407] rgb_fc8_rgb_fc8_0_split -> rgb_fc8_rgb_fc8_0_split_0
I0802 22:11:39.723009   474 net.cpp:407] rgb_fc8_rgb_fc8_0_split -> rgb_fc8_rgb_fc8_0_split_1
I0802 22:11:39.723042   474 net.cpp:149] Setting up rgb_fc8_rgb_fc8_0_split
I0802 22:11:39.723048   474 net.cpp:156] Top shape: 1 12 (12)
I0802 22:11:39.723052   474 net.cpp:156] Top shape: 1 12 (12)
I0802 22:11:39.723057   474 net.cpp:164] Memory required for data: 209064092
I0802 22:11:39.723060   474 layer_factory.hpp:77] Creating layer accuracy
I0802 22:11:39.723071   474 net.cpp:99] Creating Layer accuracy
I0802 22:11:39.723075   474 net.cpp:433] accuracy <- rgb_fc8_rgb_fc8_0_split_0
I0802 22:11:39.723081   474 net.cpp:433] accuracy <- label_data_1_split_0
I0802 22:11:39.723086   474 net.cpp:407] accuracy -> accuracy
…
