…
  top: "data"
  top: "label"
  include {
    phase: TRAIN
  }
  transform_param {
    mirror: true
    crop_size: 112
    mean_value: 128
    fix_crop: true
    multi_scale: true
    scale_ratios: 1
    scale_ratios: 0.875
    scale_ratios: 0.75
    scale_ratios: 0.66
    max_distort: 1
    is_flow: false
    new_height: 128
    new_width: 171
  }
  flow_data_param {
    source: "/media/tranlaman/data/new-caffe-database/hmdb51_rgb_overlapping_len16_train_test_split1/train_rgb_lmdb/"
    batch_size: 20
    new_length: 16
    modality: RGB
    backend: LMDB
  }
}
layer {
  name: "reshape"
  type: "Reshape"
  bottom: "data"
  top: "vol_data"
  reshape_param {
    shape {
      dim: 3
      dim: -1
    }
    axis: 1
    num_axes: 1
  }
}
layer {
  name: "rgb_conv1a"
  type: "Convolution"
  bottom: "vol_data"
  top: "rgb_conv1a"
  param {
    lr_mult: 1
    decay_mult: 1
  }
  param {
    lr_mult: 2
    decay_mult: 0
  }
  convolution_param {
    num_output: 64
    pad: 1
    kernel_size: 3
    weight_filler {
      type: "gaussian"
      std: 0.01
    }
    bias_filler {
      type: "constant"
      value: 0
    }
    engine: CAFFE
    axis: 1
  }
}
layer {
  name: "rgb_relu1a"
  type: "ReLU"
  bottom: "rgb_conv1a"
  top: "rgb_conv1a"
  relu_param {
    engine: CAFFE
  }
}
layer {
  name: "rgb_pool1"
  type: "Pooling3D"
  bottom: "rgb_conv1a"
  top: "rgb_pool1"
  pooling3d_param {
    pool: MAX
    kernel_size: 2
    stride: 2
    kernel_depth: 1
    temporal_stride: 1
  }
}
layer {
  name: "rgb_conv2a"
  type: "Convolution"
  bottom: "rgb_pool1"
  top: "rgb_conv2a"
  param {
    lr_mult: 1
    decay_mult: 1
  }
  param {
    lr_mult: 2
    decay_mult: 0
  }
  convolution_param {
    num_output: 128
    pad: 1
    kernel_size: 3
    weight_filler {
      type: "gaussian"
      std: 0.01
    }
    bias_filler {
      type: "constant"
      value: 1
    }
    engine: CAFFE
    axis: 1
  }
}
layer {
  name: "rgb_relu2a"
  type: "ReLU"
  bottom: "rgb_conv2a"
  top: "rgb_conv2a"
  relu_param {
    engine: CAFFE
  }
}
layer {
  name: "rgb_pool2"
  type: "Pooling3D"
  bottom: "rgb_conv2a"
  top: "rgb_pool2"
  pooling3d_param {
    pool: MAX
    kernel_size: 2
    stride: 2
    kernel_depth: 2
    temporal_stride: 2
  }
}
layer {
  name: "rgb_conv3a"
  type: "Convolution"
  bottom: "rgb_pool2"
  top: "rgb_conv3a"
  param {
    lr_mult: 1
    decay_mult: 1
  }
  param {
    lr_mult: 2
    decay_mult: 0
  }
  convolution_param {
    num_output: 256
    pad: 1
    kernel_size: 3
    weight_filler {
      type: "gaussian"
      std: 0.01
    }
    bias_filler {
      type: "constant"
      value: 1
    }
    engine: CAFFE
    axis: 1
  }
}
layer {
  name: "rgb_relu3a"
  type: "ReLU"
  bottom: "rgb_conv3a"
  top: "rgb_conv3a"
  relu_param {
    engine: CAFFE
  }
}
layer {
  name: "rgb_conv3b"
  type: "Convolution"
  bottom: "rgb_conv3a"
  top: "rgb_conv3b"
  param {
    lr_mult: 1
    decay_mult: 1
  }
  param {
    lr_mult: 2
    decay_mult: 0
  }
  convolution_param {
    num_output: 256
    pad: 1
    kernel_size: 3
    weight_filler {
      type: "gaussian"
      std: 0.01
    }
    bias_filler {
      type: "constant"
      value: 1
    }
    engine: CAFFE
    axis: 1
  }
}
layer {
  name: "rgb_relu3b"
  type: "ReLU"
  bottom: "rgb_conv3b"
  top: "rgb_conv3b"
  relu_param {
    engine: CAFFE
  }
}
layer {
  name: "rgb_pool3"
  type: "Pooling3D"
  bottom: "rgb_conv3b"
  top: "rgb_pool3"
  pooling3d_param {
    pool: MAX
    kernel_size: 2
    stride: 2
    kernel_depth: 2
    temporal_stride: 2
  }
}
layer {
  name: "rgb_conv4a"
  type: "Convolution"
  bottom: "rgb_pool3"
  top: "rgb_conv4a"
  param {
    lr_mult: 1
    decay_mult: 1
  }
  param {
    lr_mult: 2
    decay_mult: 0
  }
  convolution_param {
    num_output: 512
    pad: 1
    kernel_size: 3
    weight_filler {
      type: "gaussian"
      std: 0.01
    }
    bias_filler {
      type: "constant"
      value: 1
    }
    engine: CAFFE
    axis: 1
  }
}
layer {
  name: "rgb_relu4a"
  type: "ReLU"
  bottom: "rgb_conv4a"
  top: "rgb_conv4a"
  relu_param {
    engine: CAFFE
  }
}
layer {
  name: "rgb_conv4b"
  type: "Convolution"
  bottom: "rgb_conv4a"
  top: "rgb_conv4b"
  param {
    lr_mult: 1
    decay_mult: 1
  }
  param {
    lr_mult: 2
    decay_mult: 0
  }
  convolution_param {
    num_output: 512
    pad: 1
    kernel_size: 3
    weight_filler {
      type: "gaussian"
      std: 0.01
    }
    bias_filler {
      type: "constant"
      value: 1
    }
    engine: CAFFE
    axis: 1
  }
}
layer {
  name: "rgb_relu4b"
  type: "ReLU"
  bottom: "rgb_conv4b"
  top: "rgb_conv4b"
  relu_param {
    engine: CAFFE
  }
}
layer {
  name: "rgb_pool4"
  type: "Pooling3D"
  bottom: "rgb_conv4b"
  top: "rgb_pool4"
  pooling3d_param {
    pool: MAX
    kernel_size: 2
    stride: 2
    kernel_depth: 2
    temporal_stride: 2
  }
}
layer {
  name: "rgb_conv5a"
  type: "Convolution"
  bottom: "rgb_pool4"
  top: "rgb_conv5a"
  param {
    lr_mult: 1
    decay_mult: 1
  }
  param {
    lr_mult: 2
    decay_mult: 0
  }
  convolution_param {
    num_output: 512
    pad: 1
    kernel_size: 3
    weight_filler {
      type: "gaussian"
      std: 0.01
    }
    bias_filler {
      type: "constant"
      value: 1
    }
    engine: CAFFE
    axis: 1
  }
}
layer {
  name: "rgb_relu5a"
  type: "ReLU"
  bottom: "rgb_conv5a"
  top: "rgb_conv5a"
  relu_param {
    engine: CAFFE
  }
}
layer {
  name: "rgb_conv5b"
  type: "Convolution"
  bottom: "rgb_conv5a"
  top: "rgb_conv5b"
  param {
    lr_mult: 1
    decay_mult: 1
  }
  param {
    lr_mult: 2
    decay_mult: 0
  }
  convolution_param {
    num_output: 512
    pad: 1
    kernel_size: 3
    weight_filler {
      type: "gaussian"
      std: 0.01
    }
    bias_filler {
      type: "constant"
      value: 1
    }
    engine: CAFFE
    axis: 1
  }
}
layer {
  name: "rgb_relu5b"
  type: "ReLU"
  bottom: "rgb_conv5b"
  top: "rgb_conv5b"
  relu_param {
    engine: CAFFE
  }
}
layer {
  name: "rgb_pool5"
  type: "Pooling3D"
  bottom: "rgb_conv5b"
  top: "rgb_pool5"
  pooling3d_param {
    pool: MAX
    kernel_size: 2
    stride: 2
    kernel_depth: 2
    temporal_stride: 2
  }
}
layer {
  name: "rgb_fc6"
  type: "InnerProduct"
  bottom: "rgb_pool5"
  top: "rgb_fc6"
  param {
    lr_mult: 1
    decay_mult: 1
  }
  param {
    lr_mult: 2
    decay_mult: 0
  }
  inner_product_param {
    num_output: 4096
    weight_filler {
      type: "gaussian"
      std: 0.005
    }
    bias_filler {
      type: "constant"
      value: 1
    }
  }
}
layer {
  name: "rgb_relu6"
  type: "ReLU"
  bottom: "rgb_fc6"
  top: "rgb_fc6"
  relu_param {
    engine: CAFFE
  }
}
layer {
  name: "rgb_drop6"
  type: "Dropout"
  bottom: "rgb_fc6"
  top: "rgb_fc6"
  dropout_param {
    dropout_ratio: 0.9
  }
}
layer {
  name: "rgb_fc7"
  type: "InnerProduct"
  bottom: "rgb_fc6"
  top: "rgb_fc7"
  param {
    lr_mult: 1
    decay_mult: 1
  }
  param {
    lr_mult: 2
    decay_mult: 0
  }
  inner_product_param {
    num_output: 4096
    weight_filler {
      type: "gaussian"
      std: 0.005
    }
    bias_filler {
      type: "constant"
      value: 1
    }
  }
}
layer {
  name: "rgb_relu7"
  type: "ReLU"
  bottom: "rgb_fc7"
  top: "rgb_fc7"
  relu_param {
    engine: CAFFE
  }
}
layer {
  name: "rgb_drop7"
  type: "Dropout"
  bottom: "rgb_fc7"
  top: "rgb_fc7"
  dropout_param {
    dropout_ratio: 0.8
  }
}
layer {
  name: "rgb_fc8"
  type: "InnerProduct"
  bottom: "rgb_fc7"
  top: "rgb_fc8"
  param {
    lr_mult: 1
    decay_mult: 1
  }
  param {
    lr_mult: 2
    decay_mult: 0
  }
  inner_product_param {
    num_output: 51
    weight_filler {
      type: "gaussian"
      std: 0.01
    }
    bias_filler {
      type: "constant"
      value: 0
    }
  }
}
layer {
  name: "loss"
  type: "SoftmaxWithLoss"
  bottom: "rgb_fc8"
  bottom: "label"
  top: "loss"
}
I0205 20:29:58.801941 31255 layer_factory.hpp:77] Creating layer data
I0205 20:29:58.802327 31255 net.cpp:91] Creating Layer data
I0205 20:29:58.802342 31255 net.cpp:399] data -> data
I0205 20:29:58.802367 31255 net.cpp:399] data -> label
I0205 20:29:58.803805 31265 db_lmdb.cpp:38] Opened lmdb /media/tranlaman/data/new-caffe-database/hmdb51_rgb_overlapping_len16_train_test_split1/train_rgb_lmdb/
I0205 20:29:58.812731 31255 flow_data_layer.cpp:52] output data size: 20,48,112,112
I0205 20:29:58.931793 31255 net.cpp:141] Setting up data
I0205 20:29:58.931830 31255 net.cpp:148] Top shape: 20 48 112 112 (12042240)
I0205 20:29:58.931838 31255 net.cpp:148] Top shape: 20 (20)
I0205 20:29:58.931839 31255 net.cpp:156] Memory required for data: 48169040
I0205 20:29:58.931850 31255 layer_factory.hpp:77] Creating layer reshape
I0205 20:29:58.931864 31255 net.cpp:91] Creating Layer reshape
I0205 20:29:58.931871 31255 net.cpp:425] reshape <- data
I0205 20:29:58.931885 31255 net.cpp:399] reshape -> vol_data
I0205 20:29:58.931954 31255 net.cpp:141] Setting up reshape
I0205 20:29:58.931964 31255 net.cpp:148] Top shape: 20 3 16 112 112 (12042240)
I0205 20:29:58.931967 31255 net.cpp:156] Memory required for data: 96338000
I0205 20:29:58.931972 31255 layer_factory.hpp:77] Creating layer rgb_conv1a
I0205 20:29:58.931988 31255 net.cpp:91] Creating Layer rgb_conv1a
I0205 20:29:58.931991 31255 net.cpp:425] rgb_conv1a <- vol_data
I0205 20:29:58.931998 31255 net.cpp:399] rgb_conv1a -> rgb_conv1a
I0205 20:29:58.933786 31255 net.cpp:141] Setting up rgb_conv1a
I0205 20:29:58.933801 31255 net.cpp:148] Top shape: 20 64 16 112 112 (256901120)
I0205 20:29:58.933805 31255 net.cpp:156] Memory required for data: 1123942480
I0205 20:29:58.933820 31255 layer_factory.hpp:77] Creating layer rgb_relu1a
I0205 20:29:58.933828 31255 net.cpp:91] Creating Layer rgb_relu1a
I0205 20:29:58.933831 31255 net.cpp:425] rgb_relu1a <- rgb_conv1a
I0205 20:29:58.933836 31255 net.cpp:386] rgb_relu1a -> rgb_conv1a (in-place)
I0205 20:29:58.933845 31255 net.cpp:141] Setting up rgb_relu1a
I0205 20:29:58.933850 31255 net.cpp:148] Top shape: 20 64 16 112 112 (256901120)
I0205 20:29:58.933852 31255 net.cpp:156] Memory required for data: 2151546960
I0205 20:29:58.933856 31255 layer_factory.hpp:77] Creating layer rgb_pool1
I0205 20:29:58.933866 31255 net.cpp:91] Creating Layer rgb_pool1
I0205 20:29:58.933868 31255 net.cpp:425] rgb_pool1 <- rgb_conv1a
I0205 20:29:58.933872 31255 net.cpp:399] rgb_pool1 -> rgb_pool1
I0205 20:29:58.933902 31255 net.cpp:141] Setting up rgb_pool1
I0205 20:29:58.933910 31255 net.cpp:148] Top shape: 20 64 16 56 56 (64225280)
I0205 20:29:58.933913 31255 net.cpp:156] Memory required for data: 2408448080
I0205 20:29:58.933917 31255 layer_factory.hpp:77] Creating layer rgb_conv2a
I0205 20:29:58.933925 31255 net.cpp:91] Creating Layer rgb_conv2a
I0205 20:29:58.933929 31255 net.cpp:425] rgb_conv2a <- rgb_pool1
I0205 20:29:58.933938 31255 net.cpp:399] rgb_conv2a -> rgb_conv2a
I0205 20:29:58.938719 31255 net.cpp:141] Setting up rgb_conv2a
I0205 20:29:58.938736 31255 net.cpp:148] Top shape: 20 128 16 56 56 (128450560)
I0205 20:29:58.938741 31255 net.cpp:156] Memory required for data: 2922250320
I0205 20:29:58.938750 31255 layer_factory.hpp:77] Creating layer rgb_relu2a
I0205 20:29:58.938771 31255 net.cpp:91] Creating Layer rgb_relu2a
I0205 20:29:58.938782 31255 net.cpp:425] rgb_relu2a <- rgb_conv2a
I0205 20:29:58.938788 31255 net.cpp:386] rgb_relu2a -> rgb_conv2a (in-place)
I0205 20:29:58.938794 31255 net.cpp:141] Setting up rgb_relu2a
I0205 20:29:58.938798 31255 net.cpp:148] Top shape: 20 128 16 56 56 (128450560)
I0205 20:29:58.938802 31255 net.cpp:156] Memory required for data: 3436052560
I0205 20:29:58.938805 31255 layer_factory.hpp:77] Creating layer rgb_pool2
I0205 20:29:58.938810 31255 net.cpp:91] Creating Layer rgb_pool2
I0205 20:29:58.938813 31255 net.cpp:425] rgb_pool2 <- rgb_conv2a
I0205 20:29:58.938818 31255 net.cpp:399] rgb_pool2 -> rgb_pool2
I0205 20:29:58.938839 31255 net.cpp:141] Setting up rgb_pool2
I0205 20:29:58.938845 31255 net.cpp:148] Top shape: 20 128 8 28 28 (16056320)
I0205 20:29:58.938848 31255 net.cpp:156] Memory required for data: 3500277840
I0205 20:29:58.938850 31255 layer_factory.hpp:77] Creating layer rgb_conv3a
I0205 20:29:58.938863 31255 net.cpp:91] Creating Layer rgb_conv3a
I0205 20:29:58.938865 31255 net.cpp:425] rgb_conv3a <- rgb_pool2
I0205 20:29:58.938870 31255 net.cpp:399] rgb_conv3a -> rgb_conv3a
I0205 20:29:58.946188 31255 net.cpp:141] Setting up rgb_conv3a
I0205 20:29:58.946209 31255 net.cpp:148] Top shape: 20 256 8 28 28 (32112640)
I0205 20:29:58.946213 31255 net.cpp:156] Memory required for data: 3628728400
I0205 20:29:58.946221 31255 layer_factory.hpp:77] Creating layer rgb_relu3a
I0205 20:29:58.946230 31255 net.cpp:91] Creating Layer rgb_relu3a
I0205 20:29:58.946235 31255 net.cpp:425] rgb_relu3a <- rgb_conv3a
I0205 20:29:58.946239 31255 net.cpp:386] rgb_relu3a -> rgb_conv3a (in-place)
I0205 20:29:58.946245 31255 net.cpp:141] Setting up rgb_relu3a
I0205 20:29:58.946250 31255 net.cpp:148] Top shape: 20 256 8 28 28 (32112640)
I0205 20:29:58.946254 31255 net.cpp:156] Memory required for data: 3757178960
I0205 20:29:58.946256 31255 layer_factory.hpp:77] Creating layer rgb_conv3b
I0205 20:29:58.946265 31255 net.cpp:91] Creating Layer rgb_conv3b
I0205 20:29:58.946269 31255 net.cpp:425] rgb_conv3b <- rgb_conv3a
I0205 20:29:58.946276 31255 net.cpp:399] rgb_conv3b -> rgb_conv3b
I0205 20:29:58.959990 31255 net.cpp:141] Setting up rgb_conv3b
I0205 20:29:58.960011 31255 net.cpp:148] Top shape: 20 256 8 28 28 (32112640)
I0205 20:29:58.960014 31255 net.cpp:156] Memory required for data: 3885629520
I0205 20:29:58.960021 31255 layer_factory.hpp:77] Creating layer rgb_relu3b
I0205 20:29:58.960028 31255 net.cpp:91] Creating Layer rgb_relu3b
I0205 20:29:58.960032 31255 net.cpp:425] rgb_relu3b <- rgb_conv3b
I0205 20:29:58.960037 31255 net.cpp:386] rgb_relu3b -> rgb_conv3b (in-place)
I0205 20:29:58.960044 31255 net.cpp:141] Setting up rgb_relu3b
I0205 20:29:58.960048 31255 net.cpp:148] Top shape: 20 256 8 28 28 (32112640)
I0205 20:29:58.960050 31255 net.cpp:156] Memory required for data: 4014080080
I0205 20:29:58.960054 31255 layer_factory.hpp:77] Creating layer rgb_pool3
I0205 20:29:58.960062 31255 net.cpp:91] Creating Layer rgb_pool3
I0205 20:29:58.960064 31255 net.cpp:425] rgb_pool3 <- rgb_conv3b
I0205 20:29:58.960068 31255 net.cpp:399] rgb_pool3 -> rgb_pool3
I0205 20:29:58.960088 31255 net.cpp:141] Setting up rgb_pool3
I0205 20:29:58.960096 31255 net.cpp:148] Top shape: 20 256 4 14 14 (4014080)
I0205 20:29:58.960099 31255 net.cpp:156] Memory required for data: 4030136400
I0205 20:29:58.960103 31255 layer_factory.hpp:77] Creating layer rgb_conv4a
I0205 20:29:58.960111 31255 net.cpp:91] Creating Layer rgb_conv4a
I0205 20:29:58.960115 31255 net.cpp:425] rgb_conv4a <- rgb_pool3
I0205 20:29:58.960120 31255 net.cpp:399] rgb_conv4a -> rgb_conv4a
I0205 20:29:58.988080 31255 net.cpp:141] Setting up rgb_conv4a
I0205 20:29:58.988116 31255 net.cpp:148] Top shape: 20 512 4 14 14 (8028160)
I0205 20:29:58.988121 31255 net.cpp:156] Memory required for data: 4062249040
I0205 20:29:58.988134 31255 layer_factory.hpp:77] Creating layer rgb_relu4a
I0205 20:29:58.988147 31255 net.cpp:91] Creating Layer rgb_relu4a
I0205 20:29:58.988150 31255 net.cpp:425] rgb_relu4a <- rgb_conv4a
I0205 20:29:58.988163 31255 net.cpp:386] rgb_relu4a -> rgb_conv4a (in-place)
I0205 20:29:58.988180 31255 net.cpp:141] Setting up rgb_relu4a
I0205 20:29:58.988184 31255 net.cpp:148] Top shape: 20 512 4 14 14 (8028160)
I0205 20:29:58.988188 31255 net.cpp:156] Memory required for data: 4094361680
I0205 20:29:58.988190 31255 layer_factory.hpp:77] Creating layer rgb_conv4b
I0205 20:29:58.988200 31255 net.cpp:91] Creating Layer rgb_conv4b
I0205 20:29:58.988204 31255 net.cpp:425] rgb_conv4b <- rgb_conv4a
I0205 20:29:58.988210 31255 net.cpp:399] rgb_conv4b -> rgb_conv4b
I0205 20:29:59.042929 31255 net.cpp:141] Setting up rgb_conv4b
I0205 20:29:59.042968 31255 net.cpp:148] Top shape: 20 512 4 14 14 (8028160)
I0205 20:29:59.042973 31255 net.cpp:156] Memory required for data: 4126474320
I0205 20:29:59.042981 31255 layer_factory.hpp:77] Creating layer rgb_relu4b
I0205 20:29:59.042995 31255 net.cpp:91] Creating Layer rgb_relu4b
I0205 20:29:59.043000 31255 net.cpp:425] rgb_relu4b <- rgb_conv4b
I0205 20:29:59.043009 31255 net.cpp:386] rgb_relu4b -> rgb_conv4b (in-place)
I0205 20:29:59.043017 31255 net.cpp:141] Setting up rgb_relu4b
I0205 20:29:59.043022 31255 net.cpp:148] Top shape: 20 512 4 14 14 (8028160)
I0205 20:29:59.043025 31255 net.cpp:156] Memory required for data: 4158586960
I0205 20:29:59.043028 31255 layer_factory.hpp:77] Creating layer rgb_pool4
I0205 20:29:59.043035 31255 net.cpp:91] Creating Layer rgb_pool4
I0205 20:29:59.043038 31255 net.cpp:425] rgb_pool4 <- rgb_conv4b
I0205 20:29:59.043042 31255 net.cpp:399] rgb_pool4 -> rgb_pool4
I0205 20:29:59.043066 31255 net.cpp:141] Setting up rgb_pool4
I0205 20:29:59.043073 31255 net.cpp:148] Top shape: 20 512 2 7 7 (1003520)
I0205 20:29:59.043077 31255 net.cpp:156] Memory required for data: 4162601040
I0205 20:29:59.043081 31255 layer_factory.hpp:77] Creating layer rgb_conv5a
I0205 20:29:59.043090 31255 net.cpp:91] Creating Layer rgb_conv5a
I0205 20:29:59.043094 31255 net.cpp:425] rgb_conv5a <- rgb_pool4
I0205 20:29:59.043100 31255 net.cpp:399] rgb_conv5a -> rgb_conv5a
I0205 20:29:59.098006 31255 net.cpp:141] Setting up rgb_conv5a
I0205 20:29:59.098047 31255 net.cpp:148] Top shape: 20 512 2 7 7 (1003520)
I0205 20:29:59.098052 31255 net.cpp:156] Memory required for data: 4166615120
I0205 20:29:59.098060 31255 layer_factory.hpp:77] Creating layer rgb_relu5a
I0205 20:29:59.098070 31255 net.cpp:91] Creating Layer rgb_relu5a
I0205 20:29:59.098075 31255 net.cpp:425] rgb_relu5a <- rgb_conv5a
I0205 20:29:59.098083 31255 net.cpp:386] rgb_relu5a -> rgb_conv5a (in-place)
I0205 20:29:59.098093 31255 net.cpp:141] Setting up rgb_relu5a
I0205 20:29:59.098098 31255 net.cpp:148] Top shape: 20 512 2 7 7 (1003520)
I0205 20:29:59.098100 31255 net.cpp:156] Memory required for data: 4170629200
I0205 20:29:59.098104 31255 layer_factory.hpp:77] Creating layer rgb_conv5b
I0205 20:29:59.098114 31255 net.cpp:91] Creating Layer rgb_conv5b
I0205 20:29:59.098116 31255 net.cpp:425] rgb_conv5b <- rgb_conv5a
I0205 20:29:59.098121 31255 net.cpp:399] rgb_conv5b -> rgb_conv5b
I0205 20:29:59.153075 31255 net.cpp:141] Setting up rgb_conv5b
I0205 20:29:59.153112 31255 net.cpp:148] Top shape: 20 512 2 7 7 (1003520)
I0205 20:29:59.153116 31255 net.cpp:156] Memory required for data: 4174643280
I0205 20:29:59.153126 31255 layer_factory.hpp:77] Creating layer rgb_relu5b
I0205 20:29:59.153134 31255 net.cpp:91] Creating Layer rgb_relu5b
I0205 20:29:59.153139 31255 net.cpp:425] rgb_relu5b <- rgb_conv5b
I0205 20:29:59.153147 31255 net.cpp:386] rgb_relu5b -> rgb_conv5b (in-place)
I0205 20:29:59.153156 31255 net.cpp:141] Setting up rgb_relu5b
I0205 20:29:59.153162 31255 net.cpp:148] Top shape: 20 512 2 7 7 (1003520)
I0205 20:29:59.153164 31255 net.cpp:156] Memory required for data: 4178657360
I0205 20:29:59.153169 31255 layer_factory.hpp:77] Creating layer rgb_pool5
I0205 20:29:59.153175 31255 net.cpp:91] Creating Layer rgb_pool5
I0205 20:29:59.153178 31255 net.cpp:425] rgb_pool5 <- rgb_conv5b
I0205 20:29:59.153187 31255 net.cpp:399] rgb_pool5 -> rgb_pool5
I0205 20:29:59.153210 31255 net.cpp:141] Setting up rgb_pool5
I0205 20:29:59.153223 31255 net.cpp:148] Top shape: 20 512 1 4 4 (163840)
I0205 20:29:59.153234 31255 net.cpp:156] Memory required for data: 4179312720
I0205 20:29:59.153239 31255 layer_factory.hpp:77] Creating layer rgb_fc6
I0205 20:29:59.153246 31255 net.cpp:91] Creating Layer rgb_fc6
I0205 20:29:59.153250 31255 net.cpp:425] rgb_fc6 <- rgb_pool5
I0205 20:29:59.153256 31255 net.cpp:399] rgb_fc6 -> rgb_fc6
I0205 20:29:59.406275 31255 net.cpp:141] Setting up rgb_fc6
I0205 20:29:59.406306 31255 net.cpp:148] Top shape: 20 4096 (81920)
I0205 20:29:59.406311 31255 net.cpp:156] Memory required for data: 4179640400
I0205 20:29:59.406322 31255 layer_factory.hpp:77] Creating layer rgb_relu6
I0205 20:29:59.406342 31255 net.cpp:91] Creating Layer rgb_relu6
I0205 20:29:59.406347 31255 net.cpp:425] rgb_relu6 <- rgb_fc6
I0205 20:29:59.406352 31255 net.cpp:386] rgb_relu6 -> rgb_fc6 (in-place)
I0205 20:29:59.406360 31255 net.cpp:141] Setting up rgb_relu6
I0205 20:29:59.406364 31255 net.cpp:148] Top shape: 20 4096 (81920)
I0205 20:29:59.406366 31255 net.cpp:156] Memory required for data: 4179968080
I0205 20:29:59.406369 31255 layer_factory.hpp:77] Creating layer rgb_drop6
I0205 20:29:59.406380 31255 net.cpp:91] Creating Layer rgb_drop6
I0205 20:29:59.406383 31255 net.cpp:425] rgb_drop6 <- rgb_fc6
I0205 20:29:59.406388 31255 net.cpp:386] rgb_drop6 -> rgb_fc6 (in-place)
I0205 20:29:59.406410 31255 net.cpp:141] Setting up rgb_drop6
I0205 20:29:59.406415 31255 net.cpp:148] Top shape: 20 4096 (81920)
I0205 20:29:59.406419 31255 net.cpp:156] Memory required for data: 4180295760
I0205 20:29:59.406421 31255 layer_factory.hpp:77] Creating layer rgb_fc7
I0205 20:29:59.406430 31255 net.cpp:91] Creating Layer rgb_fc7
I0205 20:29:59.406433 31255 net.cpp:425] rgb_fc7 <- rgb_fc6
I0205 20:29:59.406438 31255 net.cpp:399] rgb_fc7 -> rgb_fc7
I0205 20:29:59.527256 31255 net.cpp:141] Setting up rgb_fc7
I0205 20:29:59.527303 31255 net.cpp:148] Top shape: 20 4096 (81920)
I0205 20:29:59.527307 31255 net.cpp:156] Memory required for data: 4180623440
I0205 20:29:59.527317 31255 layer_factory.hpp:77] Creating layer rgb_relu7
I0205 20:29:59.527325 31255 net.cpp:91] Creating Layer rgb_relu7
I0205 20:29:59.527329 31255 net.cpp:425] rgb_relu7 <- rgb_fc7
I0205 20:29:59.527350 31255 net.cpp:386] rgb_relu7 -> rgb_fc7 (in-place)
I0205 20:29:59.527359 31255 net.cpp:141] Setting up rgb_relu7
I0205 20:29:59.527362 31255 net.cpp:148] Top shape: 20 4096 (81920)
I0205 20:29:59.527364 31255 net.cpp:156] Memory required for data: 4180951120
I0205 20:29:59.527367 31255 layer_factory.hpp:77] Creating layer rgb_drop7
I0205 20:29:59.527374 31255 net.cpp:91] Creating Layer rgb_drop7
I0205 20:29:59.527375 31255 net.cpp:425] rgb_drop7 <- rgb_fc7
I0205 20:29:59.527380 31255 net.cpp:386] rgb_drop7 -> rgb_fc7 (in-place)
I0205 20:29:59.527401 31255 net.cpp:141] Setting up rgb_drop7
I0205 20:29:59.527406 31255 net.cpp:148] Top shape: 20 4096 (81920)
I0205 20:29:59.527410 31255 net.cpp:156] Memory required for data: 4181278800
I0205 20:29:59.527412 31255 layer_factory.hpp:77] Creating layer rgb_fc8
I0205 20:29:59.527420 31255 net.cpp:91] Creating Layer rgb_fc8
I0205 20:29:59.527423 31255 net.cpp:425] rgb_fc8 <- rgb_fc7
I0205 20:29:59.527427 31255 net.cpp:399] rgb_fc8 -> rgb_fc8
I0205 20:29:59.529536 31255 net.cpp:141] Setting up rgb_fc8
I0205 20:29:59.529548 31255 net.cpp:148] Top shape: 20 51 (1020)
I0205 20:29:59.529551 31255 net.cpp:156] Memory required for data: 4181282880
I0205 20:29:59.529556 31255 layer_factory.hpp:77] Creating layer loss
I0205 20:29:59.529564 31255 net.cpp:91] Creating Layer loss
I0205 20:29:59.529567 31255 net.cpp:425] loss <- rgb_fc8
I0205 20:29:59.529572 31255 net.cpp:425] loss <- label
I0205 20:29:59.529577 31255 net.cpp:399] loss -> loss
I0205 20:29:59.529590 31255 layer_factory.hpp:77] Creating layer loss
…
I0205 20:29:59.690933 31255 net.cpp:49] Initializing net from parameters: 
name: "C3D_net"
state {
  phase: TEST
}
layer {
  name: "data"
  type: "FlowData"
  top: "data"
  top: "label"
  include {
    phase: TEST
  }
  transform_param {
    mirror: false
    crop_size: 112
    mean_value: 128
    is_flow: false
    new_height: 128
    new_width: 171
  }
  flow_data_param {
    source: "/media/tranlaman/data/new-caffe-database/hmdb51_rgb_overlapping_len16_train_test_split1/val_rgb_lmdb/"
    batch_size: 1
    new_length: 16
    modality: RGB
    backend: LMDB
  }
}
layer {
  name: "reshape"
  type: "Reshape"
  bottom: "data"
  top: "vol_data"
  reshape_param {
    shape {
      dim: 3
      dim: -1
    }
    axis: 1
    num_axes: 1
  }
}
layer {
  name: "rgb_conv1a"
  type: "Convolution"
  bottom: "vol_data"
  top: "rgb_conv1a"
  param {
    lr_mult: 1
    decay_mult: 1
  }
  param {
    lr_mult: 2
    decay_mult: 0
  }
  convolution_param {
    num_output: 64
    pad: 1
    kernel_size: 3
    weight_filler {
      type: "gaussian"
      std: 0.01
    }
    bias_filler {
      type: "constant"
      value: 0
    }
    engine: CAFFE
    axis: 1
  }
}
layer {
  name: "rgb_relu1a"
  type: "ReLU"
  bottom: "rgb_conv1a"
  top: "rgb_conv1a"
  relu_param {
    engine: CAFFE
  }
}
layer {
  name: "rgb_pool1"
  type: "Pooling3D"
  bottom: "rgb_conv1a"
  top: "rgb_pool1"
  pooling3d_param {
    pool: MAX
    kernel_size: 2
    stride: 2
    kernel_depth: 1
    temporal_stride: 1
  }
}
layer {
  name: "rgb_conv2a"
  type: "Convolution"
  bottom: "rgb_pool1"
  top: "rgb_conv2a"
  param {
    lr_mult: 1
    decay_mult: 1
  }
  param {
    lr_mult: 2
    decay_mult: 0
  }
  convolution_param {
    num_output: 128
    pad: 1
    kernel_size: 3
    weight_filler {
      type: "gaussian"
      std: 0.01
    }
    bias_filler {
      type: "constant"
      value: 1
    }
    engine: CAFFE
    axis: 1
  }
}
layer {
  name: "rgb_relu2a"
  type: "ReLU"
  bottom: "rgb_conv2a"
  top: "rgb_conv2a"
  relu_param {
    engine: CAFFE
  }
}
layer {
  name: "rgb_pool2"
  type: "Pooling3D"
  bottom: "rgb_conv2a"
  top: "rgb_pool2"
  pooling3d_param {
    pool: MAX
    kernel_size: 2
    stride: 2
    kernel_depth: 2
    temporal_stride: 2
  }
}
layer {
  name: "rgb_conv3a"
  type: "Convolution"
  bottom: "rgb_pool2"
  top: "rgb_conv3a"
  param {
    lr_mult: 1
    decay_mult: 1
  }
  param {
    lr_mult: 2
    decay_mult: 0
  }
  convolution_param {
    num_output: 256
    pad: 1
    kernel_size: 3
    weight_filler {
      type: "gaussian"
      std: 0.01
    }
    bias_filler {
      type: "constant"
      value: 1
    }
    engine: CAFFE
    axis: 1
  }
}
layer {
  name: "rgb_relu3a"
  type: "ReLU"
  bottom: "rgb_conv3a"
  top: "rgb_conv3a"
  relu_param {
    engine: CAFFE
  }
}
layer {
  name: "rgb_conv3b"
  type: "Convolution"
  bottom: "rgb_conv3a"
  top: "rgb_conv3b"
  param {
    lr_mult: 1
    decay_mult: 1
  }
  param {
    lr_mult: 2
    decay_mult: 0
  }
  convolution_param {
    num_output: 256
    pad: 1
    kernel_size: 3
    weight_filler {
      type: "gaussian"
      std: 0.01
    }
    bias_filler {
      type: "constant"
      value: 1
    }
    engine: CAFFE
    axis: 1
  }
}
layer {
  name: "rgb_relu3b"
  type: "ReLU"
  bottom: "rgb_conv3b"
  top: "rgb_conv3b"
  relu_param {
    engine: CAFFE
  }
}
layer {
  name: "rgb_pool3"
  type: "Pooling3D"
  bottom: "rgb_conv3b"
  top: "rgb_pool3"
  pooling3d_param {
    pool: MAX
    kernel_size: 2
    stride: 2
    kernel_depth: 2
    temporal_stride: 2
  }
}
layer {
  name: "rgb_conv4a"
  type: "Convolution"
  bottom: "rgb_pool3"
  top: "rgb_conv4a"
  param {
    lr_mult: 1
    decay_mult: 1
  }
  param {
    lr_mult: 2
    decay_mult: 0
  }
  convolution_param {
    num_output: 512
    pad: 1
    kernel_size: 3
    weight_filler {
      type: "gaussian"
      std: 0.01
    }
    bias_filler {
      type: "constant"
      value: 1
    }
    engine: CAFFE
    axis: 1
  }
}
layer {
  name: "rgb_relu4a"
  type: "ReLU"
  bottom: "rgb_conv4a"
  top: "rgb_conv4a"
  relu_param {
    engine: CAFFE
  }
}
layer {
  name: "rgb_conv4b"
  type: "Convolution"
  bottom: "rgb_conv4a"
  top: "rgb_conv4b"
  param {
    lr_mult: 1
    decay_mult: 1
  }
  param {
    lr_mult: 2
    decay_mult: 0
  }
  convolution_param {
    num_output: 512
    pad: 1
    kernel_size: 3
    weight_filler {
      type: "gaussian"
      std: 0.01
    }
    bias_filler {
      type: "constant"
      value: 1
    }
    engine: CAFFE
    axis: 1
  }
}
layer {
  name: "rgb_relu4b"
  type: "ReLU"
  bottom: "rgb_conv4b"
  top: "rgb_conv4b"
  relu_param {
    engine: CAFFE
  }
}
layer {
  name: "rgb_pool4"
  type: "Pooling3D"
  bottom: "rgb_conv4b"
  top: "rgb_pool4"
  pooling3d_param {
    pool: MAX
    kernel_size: 2
    stride: 2
    kernel_depth: 2
    temporal_stride: 2
  }
}
layer {
  name: "rgb_conv5a"
  type: "Convolution"
  bottom: "rgb_pool4"
  top: "rgb_conv5a"
  param {
    lr_mult: 1
    decay_mult: 1
  }
  param {
    lr_mult: 2
    decay_mult: 0
  }
  convolution_param {
    num_output: 512
    pad: 1
    kernel_size: 3
    weight_filler {
      type: "gaussian"
      std: 0.01
    }
    bias_filler {
      type: "constant"
      value: 1
    }
    engine: CAFFE
    axis: 1
  }
}
layer {
  name: "rgb_relu5a"
  type: "ReLU"
  bottom: "rgb_conv5a"
  top: "rgb_conv5a"
  relu_param {
    engine: CAFFE
  }
}
layer {
  name: "rgb_conv5b"
  type: "Convolution"
  bottom: "rgb_conv5a"
  top: "rgb_conv5b"
  param {
    lr_mult: 1
    decay_mult: 1
  }
  param {
    lr_mult: 2
    decay_mult: 0
  }
  convolution_param {
    num_output: 512
    pad: 1
    kernel_size: 3
    weight_filler {
      type: "gaussian"
      std: 0.01
    }
    bias_filler {
      type: "constant"
      value: 1
    }
    engine: CAFFE
    axis: 1
  }
}
layer {
  name: "rgb_relu5b"
  type: "ReLU"
  bottom: "rgb_conv5b"
  top: "rgb_conv5b"
  relu_param {
    engine: CAFFE
  }
}
layer {
  name: "rgb_pool5"
  type: "Pooling3D"
  bottom: "rgb_conv5b"
  top: "rgb_pool5"
  pooling3d_param {
    pool: MAX
    kernel_size: 2
    stride: 2
    kernel_depth: 2
    temporal_stride: 2
  }
}
layer {
  name: "rgb_fc6"
  type: "InnerProduct"
  bottom: "rgb_pool5"
  top: "rgb_fc6"
  param {
    lr_mult: 1
    decay_mult: 1
  }
  param {
    lr_mult: 2
    decay_mult: 0
  }
  inner_product_param {
    num_output: 4096
    weight_filler {
      type: "gaussian"
      std: 0.005
    }
    bias_filler {
      type: "constant"
      value: 1
    }
  }
}
layer {
  name: "rgb_relu6"
  type: "ReLU"
  bottom: "rgb_fc6"
  top: "rgb_fc6"
  relu_param {
    engine: CAFFE
  }
}
layer {
  name: "rgb_drop6"
  type: "Dropout"
  bottom: "rgb_fc6"
  top: "rgb_fc6"
  dropout_param {
    dropout_ratio: 0.9
  }
}
layer {
  name: "rgb_fc7"
  type: "InnerProduct"
  bottom: "rgb_fc6"
  top: "rgb_fc7"
  param {
    lr_mult: 1
    decay_mult: 1
  }
  param {
    lr_mult: 2
    decay_mult: 0
  }
  inner_product_param {
    num_output: 4096
    weight_filler {
      type: "gaussian"
      std: 0.005
    }
    bias_filler {
      type: "constant"
      value: 1
    }
  }
}
layer {
  name: "rgb_relu7"
  type: "ReLU"
  bottom: "rgb_fc7"
  top: "rgb_fc7"
  relu_param {
    engine: CAFFE
  }
}
layer {
  name: "rgb_drop7"
  type: "Dropout"
  bottom: "rgb_fc7"
  top: "rgb_fc7"
  dropout_param {
    dropout_ratio: 0.8
  }
}
layer {
  name: "rgb_fc8"
  type: "InnerProduct"
  bottom: "rgb_fc7"
  top: "rgb_fc8"
  param {
    lr_mult: 1
    decay_mult: 1
  }
  param {
    lr_mult: 2
    decay_mult: 0
  }
  inner_product_param {
    num_output: 51
    weight_filler {
      type: "gaussian"
      std: 0.01
    }
    bias_filler {
      type: "constant"
      value: 0
    }
  }
}
layer {
  name: "accuracy"
  type: "Accuracy"
  bottom: "rgb_fc8"
  bottom: "label"
  top: "accuracy"
  include {
    phase: TEST
  }
}
layer {
  name: "loss"
  type: "SoftmaxWithLoss"
  bottom: "rgb_fc8"
  bottom: "label"
  top: "loss"
}
I0205 20:29:59.691028 31255 layer_factory.hpp:77] Creating layer data
I0205 20:29:59.691258 31255 net.cpp:91] Creating Layer data
I0205 20:29:59.691283 31255 net.cpp:399] data -> data
I0205 20:29:59.691292 31255 net.cpp:399] data -> label
I0205 20:29:59.692437 31267 db_lmdb.cpp:38] Opened lmdb /media/tranlaman/data/new-caffe-database/hmdb51_rgb_overlapping_len16_train_test_split1/val_rgb_lmdb/
I0205 20:29:59.693778 31255 flow_data_layer.cpp:40] Extracting 1-view features in TEST phase.
I0205 20:29:59.693876 31255 flow_data_layer.cpp:52] output data size: 1,48,112,112
I0205 20:29:59.702823 31255 net.cpp:141] Setting up data
I0205 20:29:59.702870 31255 net.cpp:148] Top shape: 1 48 112 112 (602112)
I0205 20:29:59.702875 31255 net.cpp:148] Top shape: 1 (1)
I0205 20:29:59.702878 31255 net.cpp:156] Memory required for data: 2408452
I0205 20:29:59.702884 31255 layer_factory.hpp:77] Creating layer label_data_1_split
I0205 20:29:59.702894 31255 net.cpp:91] Creating Layer label_data_1_split
I0205 20:29:59.702899 31255 net.cpp:425] label_data_1_split <- label
I0205 20:29:59.702905 31255 net.cpp:399] label_data_1_split -> label_data_1_split_0
I0205 20:29:59.702913 31255 net.cpp:399] label_data_1_split -> label_data_1_split_1
I0205 20:29:59.702952 31255 net.cpp:141] Setting up label_data_1_split
I0205 20:29:59.702960 31255 net.cpp:148] Top shape: 1 (1)
I0205 20:29:59.702963 31255 net.cpp:148] Top shape: 1 (1)
I0205 20:29:59.702972 31255 net.cpp:156] Memory required for data: 2408460
I0205 20:29:59.702982 31255 layer_factory.hpp:77] Creating layer reshape
I0205 20:29:59.702991 31255 net.cpp:91] Creating Layer reshape
I0205 20:29:59.702993 31255 net.cpp:425] reshape <- data
I0205 20:29:59.702998 31255 net.cpp:399] reshape -> vol_data
I0205 20:29:59.703024 31255 net.cpp:141] Setting up reshape
I0205 20:29:59.703032 31255 net.cpp:148] Top shape: 1 3 16 112 112 (602112)
I0205 20:29:59.703034 31255 net.cpp:156] Memory required for data: 4816908
I0205 20:29:59.703037 31255 layer_factory.hpp:77] Creating layer rgb_conv1a
I0205 20:29:59.703047 31255 net.cpp:91] Creating Layer rgb_conv1a
I0205 20:29:59.703052 31255 net.cpp:425] rgb_conv1a <- vol_data
I0205 20:29:59.703057 31255 net.cpp:399] rgb_conv1a -> rgb_conv1a
I0205 20:29:59.703375 31255 net.cpp:141] Setting up rgb_conv1a
I0205 20:29:59.703383 31255 net.cpp:148] Top shape: 1 64 16 112 112 (12845056)
I0205 20:29:59.703402 31255 net.cpp:156] Memory required for data: 56197132
I0205 20:29:59.703410 31255 layer_factory.hpp:77] Creating layer rgb_relu1a
I0205 20:29:59.703416 31255 net.cpp:91] Creating Layer rgb_relu1a
I0205 20:29:59.703419 31255 net.cpp:425] rgb_relu1a <- rgb_conv1a
I0205 20:29:59.703424 31255 net.cpp:386] rgb_relu1a -> rgb_conv1a (in-place)
I0205 20:29:59.703429 31255 net.cpp:141] Setting up rgb_relu1a
I0205 20:29:59.703433 31255 net.cpp:148] Top shape: 1 64 16 112 112 (12845056)
I0205 20:29:59.703435 31255 net.cpp:156] Memory required for data: 107577356
I0205 20:29:59.703439 31255 layer_factory.hpp:77] Creating layer rgb_pool1
I0205 20:29:59.703444 31255 net.cpp:91] Creating Layer rgb_pool1
I0205 20:29:59.703446 31255 net.cpp:425] rgb_pool1 <- rgb_conv1a
I0205 20:29:59.703450 31255 net.cpp:399] rgb_pool1 -> rgb_pool1
I0205 20:29:59.703471 31255 net.cpp:141] Setting up rgb_pool1
I0205 20:29:59.703479 31255 net.cpp:148] Top shape: 1 64 16 56 56 (3211264)
I0205 20:29:59.703481 31255 net.cpp:156] Memory required for data: 120422412
I0205 20:29:59.703485 31255 layer_factory.hpp:77] Creating layer rgb_conv2a
I0205 20:29:59.703491 31255 net.cpp:91] Creating Layer rgb_conv2a
I0205 20:29:59.703495 31255 net.cpp:425] rgb_conv2a <- rgb_pool1
I0205 20:29:59.703500 31255 net.cpp:399] rgb_conv2a -> rgb_conv2a
I0205 20:29:59.705768 31255 net.cpp:141] Setting up rgb_conv2a
I0205 20:29:59.705785 31255 net.cpp:148] Top shape: 1 128 16 56 56 (6422528)
I0205 20:29:59.705803 31255 net.cpp:156] Memory required for data: 146112524
I0205 20:29:59.705809 31255 layer_factory.hpp:77] Creating layer rgb_relu2a
I0205 20:29:59.705816 31255 net.cpp:91] Creating Layer rgb_relu2a
I0205 20:29:59.705819 31255 net.cpp:425] rgb_relu2a <- rgb_conv2a
I0205 20:29:59.705823 31255 net.cpp:386] rgb_relu2a -> rgb_conv2a (in-place)
I0205 20:29:59.705829 31255 net.cpp:141] Setting up rgb_relu2a
I0205 20:29:59.705833 31255 net.cpp:148] Top shape: 1 128 16 56 56 (6422528)
I0205 20:29:59.705837 31255 net.cpp:156] Memory required for data: 171802636
I0205 20:29:59.705839 31255 layer_factory.hpp:77] Creating layer rgb_pool2
I0205 20:29:59.705844 31255 net.cpp:91] Creating Layer rgb_pool2
I0205 20:29:59.705847 31255 net.cpp:425] rgb_pool2 <- rgb_conv2a
I0205 20:29:59.705852 31255 net.cpp:399] rgb_pool2 -> rgb_pool2
I0205 20:29:59.705873 31255 net.cpp:141] Setting up rgb_pool2
I0205 20:29:59.705881 31255 net.cpp:148] Top shape: 1 128 8 28 28 (802816)
I0205 20:29:59.705884 31255 net.cpp:156] Memory required for data: 175013900
I0205 20:29:59.705888 31255 layer_factory.hpp:77] Creating layer rgb_conv3a
I0205 20:29:59.705895 31255 net.cpp:91] Creating Layer rgb_conv3a
I0205 20:29:59.705899 31255 net.cpp:425] rgb_conv3a <- rgb_pool2
I0205 20:29:59.705904 31255 net.cpp:399] rgb_conv3a -> rgb_conv3a
I0205 20:29:59.712713 31255 net.cpp:141] Setting up rgb_conv3a
I0205 20:29:59.712749 31255 net.cpp:148] Top shape: 1 256 8 28 28 (1605632)
I0205 20:29:59.712751 31255 net.cpp:156] Memory required for data: 181436428
I0205 20:29:59.712759 31255 layer_factory.hpp:77] Creating layer rgb_relu3a
I0205 20:29:59.712766 31255 net.cpp:91] Creating Layer rgb_relu3a
I0205 20:29:59.712774 31255 net.cpp:425] rgb_relu3a <- rgb_conv3a
I0205 20:29:59.712785 31255 net.cpp:386] rgb_relu3a -> rgb_conv3a (in-place)
I0205 20:29:59.712790 31255 net.cpp:141] Setting up rgb_relu3a
I0205 20:29:59.712795 31255 net.cpp:148] Top shape: 1 256 8 28 28 (1605632)
I0205 20:29:59.712796 31255 net.cpp:156] Memory required for data: 187858956
I0205 20:29:59.712800 31255 layer_factory.hpp:77] Creating layer rgb_conv3b
I0205 20:29:59.712807 31255 net.cpp:91] Creating Layer rgb_conv3b
I0205 20:29:59.712811 31255 net.cpp:425] rgb_conv3b <- rgb_conv3a
I0205 20:29:59.712816 31255 net.cpp:399] rgb_conv3b -> rgb_conv3b
I0205 20:29:59.725889 31255 net.cpp:141] Setting up rgb_conv3b
I0205 20:29:59.725932 31255 net.cpp:148] Top shape: 1 256 8 28 28 (1605632)
I0205 20:29:59.725937 31255 net.cpp:156] Memory required for data: 194281484
I0205 20:29:59.725944 31255 layer_factory.hpp:77] Creating layer rgb_relu3b
I0205 20:29:59.725951 31255 net.cpp:91] Creating Layer rgb_relu3b
I0205 20:29:59.725955 31255 net.cpp:425] rgb_relu3b <- rgb_conv3b
I0205 20:29:59.725960 31255 net.cpp:386] rgb_relu3b -> rgb_conv3b (in-place)
I0205 20:29:59.725967 31255 net.cpp:141] Setting up rgb_relu3b
I0205 20:29:59.725971 31255 net.cpp:148] Top shape: 1 256 8 28 28 (1605632)
I0205 20:29:59.725975 31255 net.cpp:156] Memory required for data: 200704012
I0205 20:29:59.725977 31255 layer_factory.hpp:77] Creating layer rgb_pool3
I0205 20:29:59.725985 31255 net.cpp:91] Creating Layer rgb_pool3
I0205 20:29:59.725986 31255 net.cpp:425] rgb_pool3 <- rgb_conv3b
I0205 20:29:59.725991 31255 net.cpp:399] rgb_pool3 -> rgb_pool3
I0205 20:29:59.726014 31255 net.cpp:141] Setting up rgb_pool3
I0205 20:29:59.726021 31255 net.cpp:148] Top shape: 1 256 4 14 14 (200704)
I0205 20:29:59.726023 31255 net.cpp:156] Memory required for data: 201506828
I0205 20:29:59.726027 31255 layer_factory.hpp:77] Creating layer rgb_conv4a
I0205 20:29:59.726035 31255 net.cpp:91] Creating Layer rgb_conv4a
I0205 20:29:59.726038 31255 net.cpp:425] rgb_conv4a <- rgb_pool3
I0205 20:29:59.726044 31255 net.cpp:399] rgb_conv4a -> rgb_conv4a
I0205 20:29:59.752507 31255 net.cpp:141] Setting up rgb_conv4a
I0205 20:29:59.752553 31255 net.cpp:148] Top shape: 1 512 4 14 14 (401408)
I0205 20:29:59.752557 31255 net.cpp:156] Memory required for data: 203112460
I0205 20:29:59.752568 31255 layer_factory.hpp:77] Creating layer rgb_relu4a
I0205 20:29:59.752578 31255 net.cpp:91] Creating Layer rgb_relu4a
I0205 20:29:59.752581 31255 net.cpp:425] rgb_relu4a <- rgb_conv4a
I0205 20:29:59.752588 31255 net.cpp:386] rgb_relu4a -> rgb_conv4a (in-place)
I0205 20:29:59.752596 31255 net.cpp:141] Setting up rgb_relu4a
I0205 20:29:59.752600 31255 net.cpp:148] Top shape: 1 512 4 14 14 (401408)
I0205 20:29:59.752604 31255 net.cpp:156] Memory required for data: 204718092
I0205 20:29:59.752605 31255 layer_factory.hpp:77] Creating layer rgb_conv4b
I0205 20:29:59.752620 31255 net.cpp:91] Creating Layer rgb_conv4b
I0205 20:29:59.752624 31255 net.cpp:425] rgb_conv4b <- rgb_conv4a
I0205 20:29:59.752629 31255 net.cpp:399] rgb_conv4b -> rgb_conv4b
I0205 20:29:59.805027 31255 net.cpp:141] Setting up rgb_conv4b
I0205 20:29:59.805061 31255 net.cpp:148] Top shape: 1 512 4 14 14 (401408)
I0205 20:29:59.805065 31255 net.cpp:156] Memory required for data: 206323724
I0205 20:29:59.805073 31255 layer_factory.hpp:77] Creating layer rgb_relu4b
I0205 20:29:59.805081 31255 net.cpp:91] Creating Layer rgb_relu4b
I0205 20:29:59.805085 31255 net.cpp:425] rgb_relu4b <- rgb_conv4b
I0205 20:29:59.805091 31255 net.cpp:386] rgb_relu4b -> rgb_conv4b (in-place)
I0205 20:29:59.805100 31255 net.cpp:141] Setting up rgb_relu4b
I0205 20:29:59.805104 31255 net.cpp:148] Top shape: 1 512 4 14 14 (401408)
I0205 20:29:59.805106 31255 net.cpp:156] Memory required for data: 207929356
I0205 20:29:59.805109 31255 layer_factory.hpp:77] Creating layer rgb_pool4
I0205 20:29:59.805115 31255 net.cpp:91] Creating Layer rgb_pool4
I0205 20:29:59.805119 31255 net.cpp:425] rgb_pool4 <- rgb_conv4b
I0205 20:29:59.805124 31255 net.cpp:399] rgb_pool4 -> rgb_pool4
I0205 20:29:59.805152 31255 net.cpp:141] Setting up rgb_pool4
I0205 20:29:59.805166 31255 net.cpp:148] Top shape: 1 512 2 7 7 (50176)
I0205 20:29:59.805168 31255 net.cpp:156] Memory required for data: 208130060
I0205 20:29:59.805171 31255 layer_factory.hpp:77] Creating layer rgb_conv5a
I0205 20:29:59.805179 31255 net.cpp:91] Creating Layer rgb_conv5a
I0205 20:29:59.805184 31255 net.cpp:425] rgb_conv5a <- rgb_pool4
I0205 20:29:59.805189 31255 net.cpp:399] rgb_conv5a -> rgb_conv5a
I0205 20:29:59.856602 31255 net.cpp:141] Setting up rgb_conv5a
I0205 20:29:59.856637 31255 net.cpp:148] Top shape: 1 512 2 7 7 (50176)
I0205 20:29:59.856642 31255 net.cpp:156] Memory required for data: 208330764
I0205 20:29:59.856649 31255 layer_factory.hpp:77] Creating layer rgb_relu5a
I0205 20:29:59.856657 31255 net.cpp:91] Creating Layer rgb_relu5a
I0205 20:29:59.856662 31255 net.cpp:425] rgb_relu5a <- rgb_conv5a
I0205 20:29:59.856669 31255 net.cpp:386] rgb_relu5a -> rgb_conv5a (in-place)
I0205 20:29:59.856676 31255 net.cpp:141] Setting up rgb_relu5a
I0205 20:29:59.856680 31255 net.cpp:148] Top shape: 1 512 2 7 7 (50176)
I0205 20:29:59.856683 31255 net.cpp:156] Memory required for data: 208531468
I0205 20:29:59.856686 31255 layer_factory.hpp:77] Creating layer rgb_conv5b
I0205 20:29:59.856695 31255 net.cpp:91] Creating Layer rgb_conv5b
I0205 20:29:59.856698 31255 net.cpp:425] rgb_conv5b <- rgb_conv5a
I0205 20:29:59.856703 31255 net.cpp:399] rgb_conv5b -> rgb_conv5b
I0205 20:29:59.908030 31255 net.cpp:141] Setting up rgb_conv5b
I0205 20:29:59.908079 31255 net.cpp:148] Top shape: 1 512 2 7 7 (50176)
I0205 20:29:59.908083 31255 net.cpp:156] Memory required for data: 208732172
I0205 20:29:59.908092 31255 layer_factory.hpp:77] Creating layer rgb_relu5b
I0205 20:29:59.908102 31255 net.cpp:91] Creating Layer rgb_relu5b
I0205 20:29:59.908107 31255 net.cpp:425] rgb_relu5b <- rgb_conv5b
I0205 20:29:59.908113 31255 net.cpp:386] rgb_relu5b -> rgb_conv5b (in-place)
I0205 20:29:59.908119 31255 net.cpp:141] Setting up rgb_relu5b
I0205 20:29:59.908124 31255 net.cpp:148] Top shape: 1 512 2 7 7 (50176)
I0205 20:29:59.908126 31255 net.cpp:156] Memory required for data: 208932876
I0205 20:29:59.908129 31255 layer_factory.hpp:77] Creating layer rgb_pool5
I0205 20:29:59.908138 31255 net.cpp:91] Creating Layer rgb_pool5
I0205 20:29:59.908141 31255 net.cpp:425] rgb_pool5 <- rgb_conv5b
I0205 20:29:59.908145 31255 net.cpp:399] rgb_pool5 -> rgb_pool5
I0205 20:29:59.908171 31255 net.cpp:141] Setting up rgb_pool5
I0205 20:29:59.908177 31255 net.cpp:148] Top shape: 1 512 1 4 4 (8192)
I0205 20:29:59.908180 31255 net.cpp:156] Memory required for data: 208965644
I0205 20:29:59.908184 31255 layer_factory.hpp:77] Creating layer rgb_fc6
I0205 20:29:59.908190 31255 net.cpp:91] Creating Layer rgb_fc6
I0205 20:29:59.908195 31255 net.cpp:425] rgb_fc6 <- rgb_pool5
I0205 20:29:59.908200 31255 net.cpp:399] rgb_fc6 -> rgb_fc6
I0205 20:30:00.148046 31255 net.cpp:141] Setting up rgb_fc6
I0205 20:30:00.148082 31255 net.cpp:148] Top shape: 1 4096 (4096)
I0205 20:30:00.148085 31255 net.cpp:156] Memory required for data: 208982028
I0205 20:30:00.148100 31255 layer_factory.hpp:77] Creating layer rgb_relu6
I0205 20:30:00.148109 31255 net.cpp:91] Creating Layer rgb_relu6
I0205 20:30:00.148113 31255 net.cpp:425] rgb_relu6 <- rgb_fc6
I0205 20:30:00.148118 31255 net.cpp:386] rgb_relu6 -> rgb_fc6 (in-place)
I0205 20:30:00.148126 31255 net.cpp:141] Setting up rgb_relu6
I0205 20:30:00.148130 31255 net.cpp:148] Top shape: 1 4096 (4096)
I0205 20:30:00.148133 31255 net.cpp:156] Memory required for data: 208998412
I0205 20:30:00.148136 31255 layer_factory.hpp:77] Creating layer rgb_drop6
I0205 20:30:00.148142 31255 net.cpp:91] Creating Layer rgb_drop6
I0205 20:30:00.148145 31255 net.cpp:425] rgb_drop6 <- rgb_fc6
I0205 20:30:00.148150 31255 net.cpp:386] rgb_drop6 -> rgb_fc6 (in-place)
I0205 20:30:00.148170 31255 net.cpp:141] Setting up rgb_drop6
I0205 20:30:00.148175 31255 net.cpp:148] Top shape: 1 4096 (4096)
I0205 20:30:00.148178 31255 net.cpp:156] Memory required for data: 209014796
I0205 20:30:00.148180 31255 layer_factory.hpp:77] Creating layer rgb_fc7
I0205 20:30:00.148201 31255 net.cpp:91] Creating Layer rgb_fc7
I0205 20:30:00.148205 31255 net.cpp:425] rgb_fc7 <- rgb_fc6
I0205 20:30:00.148211 31255 net.cpp:399] rgb_fc7 -> rgb_fc7
I0205 20:30:00.268510 31255 net.cpp:141] Setting up rgb_fc7
I0205 20:30:00.268558 31255 net.cpp:148] Top shape: 1 4096 (4096)
I0205 20:30:00.268563 31255 net.cpp:156] Memory required for data: 209031180
I0205 20:30:00.268571 31255 layer_factory.hpp:77] Creating layer rgb_relu7
I0205 20:30:00.268581 31255 net.cpp:91] Creating Layer rgb_relu7
I0205 20:30:00.268585 31255 net.cpp:425] rgb_relu7 <- rgb_fc7
I0205 20:30:00.268592 31255 net.cpp:386] rgb_relu7 -> rgb_fc7 (in-place)
I0205 20:30:00.268600 31255 net.cpp:141] Setting up rgb_relu7
I0205 20:30:00.268604 31255 net.cpp:148] Top shape: 1 4096 (4096)
I0205 20:30:00.268607 31255 net.cpp:156] Memory required for data: 209047564
I0205 20:30:00.268610 31255 layer_factory.hpp:77] Creating layer rgb_drop7
I0205 20:30:00.268615 31255 net.cpp:91] Creating Layer rgb_drop7
I0205 20:30:00.268618 31255 net.cpp:425] rgb_drop7 <- rgb_fc7
I0205 20:30:00.268623 31255 net.cpp:386] rgb_drop7 -> rgb_fc7 (in-place)
I0205 20:30:00.268643 31255 net.cpp:141] Setting up rgb_drop7
I0205 20:30:00.268648 31255 net.cpp:148] Top shape: 1 4096 (4096)
I0205 20:30:00.268651 31255 net.cpp:156] Memory required for data: 209063948
I0205 20:30:00.268653 31255 layer_factory.hpp:77] Creating layer rgb_fc8
I0205 20:30:00.268661 31255 net.cpp:91] Creating Layer rgb_fc8
I0205 20:30:00.268664 31255 net.cpp:425] rgb_fc8 <- rgb_fc7
I0205 20:30:00.268669 31255 net.cpp:399] rgb_fc8 -> rgb_fc8
I0205 20:30:00.270138 31255 net.cpp:141] Setting up rgb_fc8
I0205 20:30:00.270145 31255 net.cpp:148] Top shape: 1 51 (51)
I0205 20:30:00.270164 31255 net.cpp:156] Memory required for data: 209064152
I0205 20:30:00.270169 31255 layer_factory.hpp:77] Creating layer rgb_fc8_rgb_fc8_0_split
I0205 20:30:00.270174 31255 net.cpp:91] Creating Layer rgb_fc8_rgb_fc8_0_split
I0205 20:30:00.270176 31255 net.cpp:425] rgb_fc8_rgb_fc8_0_split <- rgb_fc8
I0205 20:30:00.270181 31255 net.cpp:399] rgb_fc8_rgb_fc8_0_split -> rgb_fc8_rgb_fc8_0_split_0
I0205 20:30:00.270187 31255 net.cpp:399] rgb_fc8_rgb_fc8_0_split -> rgb_fc8_rgb_fc8_0_split_1
I0205 20:30:00.270217 31255 net.cpp:141] Setting up rgb_fc8_rgb_fc8_0_split
I0205 20:30:00.270223 31255 net.cpp:148] Top shape: 1 51 (51)
I0205 20:30:00.270226 31255 net.cpp:148] Top shape: 1 51 (51)
I0205 20:30:00.270228 31255 net.cpp:156] Memory required for data: 209064560
I0205 20:30:00.270231 31255 layer_factory.hpp:77] Creating layer accuracy
I0205 20:30:00.270242 31255 net.cpp:91] Creating Layer accuracy
I0205 20:30:00.270246 31255 net.cpp:425] accuracy <- rgb_fc8_rgb_fc8_0_split_0
I0205 20:30:00.270251 31255 net.cpp:425] accuracy <- label_data_1_split_0
I0205 20:30:00.270256 31255 net.cpp:399] accuracy -> accuracy
…
