…
  top: "label"
  include {
    phase: TRAIN
  }
  transform_param {
    mirror: true
    crop_size: 112
    mean_value: 128
    fix_crop: true
    multi_scale: true
    scale_ratios: 1
    scale_ratios: 0.875
    scale_ratios: 0.75
    scale_ratios: 0.66
    max_distort: 1
    is_flow: true
    new_height: 128
    new_width: 171
  }
  flow_data_param {
    source: "/home/tranlaman/Public/data/new-caffe-database/ucf101_comp_tvl1_overlapping_segment16_train_test_split1/train_flow_lmdb/"
    batch_size: 20
    new_length: 16
    modality: FLOW
    backend: LMDB
  }
}
layer {
  name: "reshape"
  type: "Reshape"
  bottom: "data"
  top: "vol_data"
  reshape_param {
    shape {
      dim: 2
      dim: -1
    }
    axis: 1
    num_axes: 1
  }
}
layer {
  name: "flow_conv1a"
  type: "Convolution"
  bottom: "vol_data"
  top: "flow_conv1a"
  param {
    lr_mult: 1
    decay_mult: 1
  }
  param {
    lr_mult: 2
    decay_mult: 0
  }
  convolution_param {
    num_output: 64
    pad: 1
    kernel_size: 3
    weight_filler {
      type: "gaussian"
      std: 0.01
    }
    bias_filler {
      type: "constant"
      value: 0
    }
    engine: CAFFE
    axis: 1
  }
}
layer {
  name: "flow_relu1a"
  type: "ReLU"
  bottom: "flow_conv1a"
  top: "flow_conv1a"
  relu_param {
    engine: CAFFE
  }
}
layer {
  name: "flow_pool1"
  type: "Pooling3D"
  bottom: "flow_conv1a"
  top: "flow_pool1"
  pooling3d_param {
    pool: MAX
    kernel_size: 2
    stride: 2
    kernel_depth: 1
    temporal_stride: 1
  }
}
layer {
  name: "flow_conv2a"
  type: "Convolution"
  bottom: "flow_pool1"
  top: "flow_conv2a"
  param {
    lr_mult: 1
    decay_mult: 1
  }
  param {
    lr_mult: 2
    decay_mult: 0
  }
  convolution_param {
    num_output: 128
    pad: 1
    kernel_size: 3
    weight_filler {
      type: "gaussian"
      std: 0.01
    }
    bias_filler {
      type: "constant"
      value: 1
    }
    engine: CAFFE
    axis: 1
  }
}
layer {
  name: "flow_relu2a"
  type: "ReLU"
  bottom: "flow_conv2a"
  top: "flow_conv2a"
  relu_param {
    engine: CAFFE
  }
}
layer {
  name: "flow_pool2"
  type: "Pooling3D"
  bottom: "flow_conv2a"
  top: "flow_pool2"
  pooling3d_param {
    pool: MAX
    kernel_size: 2
    stride: 2
    kernel_depth: 2
    temporal_stride: 2
  }
}
layer {
  name: "flow_conv3a"
  type: "Convolution"
  bottom: "flow_pool2"
  top: "flow_conv3a"
  param {
    lr_mult: 1
    decay_mult: 1
  }
  param {
    lr_mult: 2
    decay_mult: 0
  }
  convolution_param {
    num_output: 256
    pad: 1
    kernel_size: 3
    weight_filler {
      type: "gaussian"
      std: 0.01
    }
    bias_filler {
      type: "constant"
      value: 1
    }
    engine: CAFFE
    axis: 1
  }
}
layer {
  name: "flow_relu3a"
  type: "ReLU"
  bottom: "flow_conv3a"
  top: "flow_conv3a"
  relu_param {
    engine: CAFFE
  }
}
layer {
  name: "flow_conv3b"
  type: "Convolution"
  bottom: "flow_conv3a"
  top: "flow_conv3b"
  param {
    lr_mult: 1
    decay_mult: 1
  }
  param {
    lr_mult: 2
    decay_mult: 0
  }
  convolution_param {
    num_output: 256
    pad: 1
    kernel_size: 3
    weight_filler {
      type: "gaussian"
      std: 0.01
    }
    bias_filler {
      type: "constant"
      value: 1
    }
    engine: CAFFE
    axis: 1
  }
}
layer {
  name: "flow_relu3b"
  type: "ReLU"
  bottom: "flow_conv3b"
  top: "flow_conv3b"
  relu_param {
    engine: CAFFE
  }
}
layer {
  name: "flow_pool3"
  type: "Pooling3D"
  bottom: "flow_conv3b"
  top: "flow_pool3"
  pooling3d_param {
    pool: MAX
    kernel_size: 2
    stride: 2
    kernel_depth: 2
    temporal_stride: 2
  }
}
layer {
  name: "flow_conv4a"
  type: "Convolution"
  bottom: "flow_pool3"
  top: "flow_conv4a"
  param {
    lr_mult: 1
    decay_mult: 1
  }
  param {
    lr_mult: 2
    decay_mult: 0
  }
  convolution_param {
    num_output: 512
    pad: 1
    kernel_size: 3
    weight_filler {
      type: "gaussian"
      std: 0.01
    }
    bias_filler {
      type: "constant"
      value: 1
    }
    engine: CAFFE
    axis: 1
  }
}
layer {
  name: "flow_relu4a"
  type: "ReLU"
  bottom: "flow_conv4a"
  top: "flow_conv4a"
  relu_param {
    engine: CAFFE
  }
}
layer {
  name: "flow_conv4b"
  type: "Convolution"
  bottom: "flow_conv4a"
  top: "flow_conv4b"
  param {
    lr_mult: 1
    decay_mult: 1
  }
  param {
    lr_mult: 2
    decay_mult: 0
  }
  convolution_param {
    num_output: 512
    pad: 1
    kernel_size: 3
    weight_filler {
      type: "gaussian"
      std: 0.01
    }
    bias_filler {
      type: "constant"
      value: 1
    }
    engine: CAFFE
    axis: 1
  }
}
layer {
  name: "flow_relu4b"
  type: "ReLU"
  bottom: "flow_conv4b"
  top: "flow_conv4b"
  relu_param {
    engine: CAFFE
  }
}
layer {
  name: "flow_pool4"
  type: "Pooling3D"
  bottom: "flow_conv4b"
  top: "flow_pool4"
  pooling3d_param {
    pool: MAX
    kernel_size: 2
    stride: 2
    kernel_depth: 2
    temporal_stride: 2
  }
}
layer {
  name: "flow_conv5a"
  type: "Convolution"
  bottom: "flow_pool4"
  top: "flow_conv5a"
  param {
    lr_mult: 1
    decay_mult: 1
  }
  param {
    lr_mult: 2
    decay_mult: 0
  }
  convolution_param {
    num_output: 512
    pad: 1
    kernel_size: 3
    weight_filler {
      type: "gaussian"
      std: 0.01
    }
    bias_filler {
      type: "constant"
      value: 1
    }
    engine: CAFFE
    axis: 1
  }
}
layer {
  name: "flow_relu5a"
  type: "ReLU"
  bottom: "flow_conv5a"
  top: "flow_conv5a"
  relu_param {
    engine: CAFFE
  }
}
layer {
  name: "flow_conv5b"
  type: "Convolution"
  bottom: "flow_conv5a"
  top: "flow_conv5b"
  param {
    lr_mult: 1
    decay_mult: 1
  }
  param {
    lr_mult: 2
    decay_mult: 0
  }
  convolution_param {
    num_output: 512
    pad: 1
    kernel_size: 3
    weight_filler {
      type: "gaussian"
      std: 0.01
    }
    bias_filler {
      type: "constant"
      value: 1
    }
    engine: CAFFE
    axis: 1
  }
}
layer {
  name: "flow_relu5b"
  type: "ReLU"
  bottom: "flow_conv5b"
  top: "flow_conv5b"
  relu_param {
    engine: CAFFE
  }
}
layer {
  name: "flow_pool5"
  type: "Pooling3D"
  bottom: "flow_conv5b"
  top: "flow_pool5"
  pooling3d_param {
    pool: MAX
    kernel_size: 2
    stride: 2
    kernel_depth: 2
    temporal_stride: 2
  }
}
layer {
  name: "flow_fc6"
  type: "InnerProduct"
  bottom: "flow_pool5"
  top: "flow_fc6"
  param {
    lr_mult: 1
    decay_mult: 1
  }
  param {
    lr_mult: 2
    decay_mult: 0
  }
  inner_product_param {
    num_output: 4096
    weight_filler {
      type: "gaussian"
      std: 0.005
    }
    bias_filler {
      type: "constant"
      value: 1
    }
  }
}
layer {
  name: "flow_relu6"
  type: "ReLU"
  bottom: "flow_fc6"
  top: "flow_fc6"
  relu_param {
    engine: CAFFE
  }
}
layer {
  name: "flow_drop6"
  type: "Dropout"
  bottom: "flow_fc6"
  top: "flow_fc6"
  dropout_param {
    dropout_ratio: 0.8
  }
}
layer {
  name: "flow_fc7"
  type: "InnerProduct"
  bottom: "flow_fc6"
  top: "flow_fc7"
  param {
    lr_mult: 1
    decay_mult: 1
  }
  param {
    lr_mult: 2
    decay_mult: 0
  }
  inner_product_param {
    num_output: 4096
    weight_filler {
      type: "gaussian"
      std: 0.005
    }
    bias_filler {
      type: "constant"
      value: 1
    }
  }
}
layer {
  name: "flow_relu7"
  type: "ReLU"
  bottom: "flow_fc7"
  top: "flow_fc7"
  relu_param {
    engine: CAFFE
  }
}
layer {
  name: "flow_drop7"
  type: "Dropout"
  bottom: "flow_fc7"
  top: "flow_fc7"
  dropout_param {
    dropout_ratio: 0.7
  }
}
layer {
  name: "flow_fc8"
  type: "InnerProduct"
  bottom: "flow_fc7"
  top: "flow_fc8"
  param {
    lr_mult: 1
    decay_mult: 1
  }
  param {
    lr_mult: 2
    decay_mult: 0
  }
  inner_product_param {
    num_output: 101
    weight_filler {
      type: "gaussian"
      std: 0.01
    }
    bias_filler {
      type: "constant"
      value: 0
    }
  }
}
layer {
  name: "loss"
  type: "SoftmaxWithLoss"
  bottom: "flow_fc8"
  bottom: "label"
  top: "loss"
}
I0117 16:15:09.660100 29697 layer_factory.hpp:77] Creating layer data
I0117 16:15:09.660462 29697 net.cpp:91] Creating Layer data
I0117 16:15:09.660476 29697 net.cpp:399] data -> data
I0117 16:15:09.660516 29697 net.cpp:399] data -> label
I0117 16:15:09.662075 29708 db_lmdb.cpp:38] Opened lmdb /home/tranlaman/Public/data/new-caffe-database/ucf101_comp_tvl1_overlapping_segment16_train_test_split1/train_flow_lmdb/
I0117 16:15:09.670183 29697 flow_data_layer.cpp:52] output data size: 20,32,112,112
I0117 16:15:09.757164 29697 net.cpp:141] Setting up data
I0117 16:15:09.757200 29697 net.cpp:148] Top shape: 20 32 112 112 (8028160)
I0117 16:15:09.757207 29697 net.cpp:148] Top shape: 20 (20)
I0117 16:15:09.757211 29697 net.cpp:156] Memory required for data: 32112720
I0117 16:15:09.757222 29697 layer_factory.hpp:77] Creating layer reshape
I0117 16:15:09.757241 29697 net.cpp:91] Creating Layer reshape
I0117 16:15:09.757246 29697 net.cpp:425] reshape <- data
I0117 16:15:09.757258 29697 net.cpp:399] reshape -> vol_data
I0117 16:15:09.757314 29697 net.cpp:141] Setting up reshape
I0117 16:15:09.757324 29697 net.cpp:148] Top shape: 20 2 16 112 112 (8028160)
I0117 16:15:09.757328 29697 net.cpp:156] Memory required for data: 64225360
I0117 16:15:09.757331 29697 layer_factory.hpp:77] Creating layer flow_conv1a
I0117 16:15:09.757347 29697 net.cpp:91] Creating Layer flow_conv1a
I0117 16:15:09.757351 29697 net.cpp:425] flow_conv1a <- vol_data
I0117 16:15:09.757359 29697 net.cpp:399] flow_conv1a -> flow_conv1a
I0117 16:15:09.759166 29697 net.cpp:141] Setting up flow_conv1a
I0117 16:15:09.759181 29697 net.cpp:148] Top shape: 20 64 16 112 112 (256901120)
I0117 16:15:09.759186 29697 net.cpp:156] Memory required for data: 1091829840
I0117 16:15:09.759199 29697 layer_factory.hpp:77] Creating layer flow_relu1a
I0117 16:15:09.759207 29697 net.cpp:91] Creating Layer flow_relu1a
I0117 16:15:09.759210 29697 net.cpp:425] flow_relu1a <- flow_conv1a
I0117 16:15:09.759217 29697 net.cpp:386] flow_relu1a -> flow_conv1a (in-place)
I0117 16:15:09.759227 29697 net.cpp:141] Setting up flow_relu1a
I0117 16:15:09.759232 29697 net.cpp:148] Top shape: 20 64 16 112 112 (256901120)
I0117 16:15:09.759234 29697 net.cpp:156] Memory required for data: 2119434320
I0117 16:15:09.759238 29697 layer_factory.hpp:77] Creating layer flow_pool1
I0117 16:15:09.759250 29697 net.cpp:91] Creating Layer flow_pool1
I0117 16:15:09.759254 29697 net.cpp:425] flow_pool1 <- flow_conv1a
I0117 16:15:09.759260 29697 net.cpp:399] flow_pool1 -> flow_pool1
I0117 16:15:09.761670 29697 net.cpp:141] Setting up flow_pool1
I0117 16:15:09.761689 29697 net.cpp:148] Top shape: 20 64 16 56 56 (64225280)
I0117 16:15:09.761694 29697 net.cpp:156] Memory required for data: 2376335440
I0117 16:15:09.761698 29697 layer_factory.hpp:77] Creating layer flow_conv2a
I0117 16:15:09.761714 29697 net.cpp:91] Creating Layer flow_conv2a
I0117 16:15:09.761719 29697 net.cpp:425] flow_conv2a <- flow_pool1
I0117 16:15:09.761725 29697 net.cpp:399] flow_conv2a -> flow_conv2a
I0117 16:15:09.766716 29697 net.cpp:141] Setting up flow_conv2a
I0117 16:15:09.766732 29697 net.cpp:148] Top shape: 20 128 16 56 56 (128450560)
I0117 16:15:09.766741 29697 net.cpp:156] Memory required for data: 2890137680
I0117 16:15:09.766757 29697 layer_factory.hpp:77] Creating layer flow_relu2a
I0117 16:15:09.766763 29697 net.cpp:91] Creating Layer flow_relu2a
I0117 16:15:09.766767 29697 net.cpp:425] flow_relu2a <- flow_conv2a
I0117 16:15:09.766772 29697 net.cpp:386] flow_relu2a -> flow_conv2a (in-place)
I0117 16:15:09.766778 29697 net.cpp:141] Setting up flow_relu2a
I0117 16:15:09.766783 29697 net.cpp:148] Top shape: 20 128 16 56 56 (128450560)
I0117 16:15:09.766786 29697 net.cpp:156] Memory required for data: 3403939920
I0117 16:15:09.766790 29697 layer_factory.hpp:77] Creating layer flow_pool2
I0117 16:15:09.766796 29697 net.cpp:91] Creating Layer flow_pool2
I0117 16:15:09.766800 29697 net.cpp:425] flow_pool2 <- flow_conv2a
I0117 16:15:09.766805 29697 net.cpp:399] flow_pool2 -> flow_pool2
I0117 16:15:09.766827 29697 net.cpp:141] Setting up flow_pool2
I0117 16:15:09.766835 29697 net.cpp:148] Top shape: 20 128 8 28 28 (16056320)
I0117 16:15:09.766839 29697 net.cpp:156] Memory required for data: 3468165200
I0117 16:15:09.766842 29697 layer_factory.hpp:77] Creating layer flow_conv3a
I0117 16:15:09.766855 29697 net.cpp:91] Creating Layer flow_conv3a
I0117 16:15:09.766858 29697 net.cpp:425] flow_conv3a <- flow_pool2
I0117 16:15:09.766865 29697 net.cpp:399] flow_conv3a -> flow_conv3a
I0117 16:15:09.785109 29697 net.cpp:141] Setting up flow_conv3a
I0117 16:15:09.785128 29697 net.cpp:148] Top shape: 20 256 8 28 28 (32112640)
I0117 16:15:09.785132 29697 net.cpp:156] Memory required for data: 3596615760
I0117 16:15:09.785141 29697 layer_factory.hpp:77] Creating layer flow_relu3a
I0117 16:15:09.785150 29697 net.cpp:91] Creating Layer flow_relu3a
I0117 16:15:09.785154 29697 net.cpp:425] flow_relu3a <- flow_conv3a
I0117 16:15:09.785161 29697 net.cpp:386] flow_relu3a -> flow_conv3a (in-place)
I0117 16:15:09.785167 29697 net.cpp:141] Setting up flow_relu3a
I0117 16:15:09.785172 29697 net.cpp:148] Top shape: 20 256 8 28 28 (32112640)
I0117 16:15:09.785176 29697 net.cpp:156] Memory required for data: 3725066320
I0117 16:15:09.785178 29697 layer_factory.hpp:77] Creating layer flow_conv3b
I0117 16:15:09.785187 29697 net.cpp:91] Creating Layer flow_conv3b
I0117 16:15:09.785190 29697 net.cpp:425] flow_conv3b <- flow_conv3a
I0117 16:15:09.785197 29697 net.cpp:399] flow_conv3b -> flow_conv3b
I0117 16:15:09.819972 29697 net.cpp:141] Setting up flow_conv3b
I0117 16:15:09.819995 29697 net.cpp:148] Top shape: 20 256 8 28 28 (32112640)
I0117 16:15:09.820000 29697 net.cpp:156] Memory required for data: 3853516880
I0117 16:15:09.820008 29697 layer_factory.hpp:77] Creating layer flow_relu3b
I0117 16:15:09.820016 29697 net.cpp:91] Creating Layer flow_relu3b
I0117 16:15:09.820021 29697 net.cpp:425] flow_relu3b <- flow_conv3b
I0117 16:15:09.820026 29697 net.cpp:386] flow_relu3b -> flow_conv3b (in-place)
I0117 16:15:09.820034 29697 net.cpp:141] Setting up flow_relu3b
I0117 16:15:09.820037 29697 net.cpp:148] Top shape: 20 256 8 28 28 (32112640)
I0117 16:15:09.820041 29697 net.cpp:156] Memory required for data: 3981967440
I0117 16:15:09.820045 29697 layer_factory.hpp:77] Creating layer flow_pool3
I0117 16:15:09.820052 29697 net.cpp:91] Creating Layer flow_pool3
I0117 16:15:09.820056 29697 net.cpp:425] flow_pool3 <- flow_conv3b
I0117 16:15:09.820061 29697 net.cpp:399] flow_pool3 -> flow_pool3
I0117 16:15:09.820082 29697 net.cpp:141] Setting up flow_pool3
I0117 16:15:09.820089 29697 net.cpp:148] Top shape: 20 256 4 14 14 (4014080)
I0117 16:15:09.820093 29697 net.cpp:156] Memory required for data: 3998023760
I0117 16:15:09.820097 29697 layer_factory.hpp:77] Creating layer flow_conv4a
I0117 16:15:09.820106 29697 net.cpp:91] Creating Layer flow_conv4a
I0117 16:15:09.820111 29697 net.cpp:425] flow_conv4a <- flow_pool3
I0117 16:15:09.820116 29697 net.cpp:399] flow_conv4a -> flow_conv4a
I0117 16:15:09.890188 29697 net.cpp:141] Setting up flow_conv4a
I0117 16:15:09.890221 29697 net.cpp:148] Top shape: 20 512 4 14 14 (8028160)
I0117 16:15:09.890226 29697 net.cpp:156] Memory required for data: 4030136400
I0117 16:15:09.890245 29697 layer_factory.hpp:77] Creating layer flow_relu4a
I0117 16:15:09.890262 29697 net.cpp:91] Creating Layer flow_relu4a
I0117 16:15:09.890269 29697 net.cpp:425] flow_relu4a <- flow_conv4a
I0117 16:15:09.890275 29697 net.cpp:386] flow_relu4a -> flow_conv4a (in-place)
I0117 16:15:09.890283 29697 net.cpp:141] Setting up flow_relu4a
I0117 16:15:09.890287 29697 net.cpp:148] Top shape: 20 512 4 14 14 (8028160)
I0117 16:15:09.890291 29697 net.cpp:156] Memory required for data: 4062249040
I0117 16:15:09.890295 29697 layer_factory.hpp:77] Creating layer flow_conv4b
I0117 16:15:09.890305 29697 net.cpp:91] Creating Layer flow_conv4b
I0117 16:15:09.890308 29697 net.cpp:425] flow_conv4b <- flow_conv4a
I0117 16:15:09.890318 29697 net.cpp:399] flow_conv4b -> flow_conv4b
I0117 16:15:10.029623 29697 net.cpp:141] Setting up flow_conv4b
I0117 16:15:10.029664 29697 net.cpp:148] Top shape: 20 512 4 14 14 (8028160)
I0117 16:15:10.029669 29697 net.cpp:156] Memory required for data: 4094361680
I0117 16:15:10.029677 29697 layer_factory.hpp:77] Creating layer flow_relu4b
I0117 16:15:10.029690 29697 net.cpp:91] Creating Layer flow_relu4b
I0117 16:15:10.029695 29697 net.cpp:425] flow_relu4b <- flow_conv4b
I0117 16:15:10.029702 29697 net.cpp:386] flow_relu4b -> flow_conv4b (in-place)
I0117 16:15:10.029711 29697 net.cpp:141] Setting up flow_relu4b
I0117 16:15:10.029716 29697 net.cpp:148] Top shape: 20 512 4 14 14 (8028160)
I0117 16:15:10.029718 29697 net.cpp:156] Memory required for data: 4126474320
I0117 16:15:10.029722 29697 layer_factory.hpp:77] Creating layer flow_pool4
I0117 16:15:10.029729 29697 net.cpp:91] Creating Layer flow_pool4
I0117 16:15:10.029732 29697 net.cpp:425] flow_pool4 <- flow_conv4b
I0117 16:15:10.029737 29697 net.cpp:399] flow_pool4 -> flow_pool4
I0117 16:15:10.029760 29697 net.cpp:141] Setting up flow_pool4
I0117 16:15:10.029767 29697 net.cpp:148] Top shape: 20 512 2 7 7 (1003520)
I0117 16:15:10.029769 29697 net.cpp:156] Memory required for data: 4130488400
I0117 16:15:10.029773 29697 layer_factory.hpp:77] Creating layer flow_conv5a
I0117 16:15:10.029783 29697 net.cpp:91] Creating Layer flow_conv5a
I0117 16:15:10.029786 29697 net.cpp:425] flow_conv5a <- flow_pool4
I0117 16:15:10.029793 29697 net.cpp:399] flow_conv5a -> flow_conv5a
I0117 16:15:10.168336 29697 net.cpp:141] Setting up flow_conv5a
I0117 16:15:10.168373 29697 net.cpp:148] Top shape: 20 512 2 7 7 (1003520)
I0117 16:15:10.168378 29697 net.cpp:156] Memory required for data: 4134502480
I0117 16:15:10.168387 29697 layer_factory.hpp:77] Creating layer flow_relu5a
I0117 16:15:10.168397 29697 net.cpp:91] Creating Layer flow_relu5a
I0117 16:15:10.168402 29697 net.cpp:425] flow_relu5a <- flow_conv5a
I0117 16:15:10.168409 29697 net.cpp:386] flow_relu5a -> flow_conv5a (in-place)
I0117 16:15:10.168418 29697 net.cpp:141] Setting up flow_relu5a
I0117 16:15:10.168423 29697 net.cpp:148] Top shape: 20 512 2 7 7 (1003520)
I0117 16:15:10.168426 29697 net.cpp:156] Memory required for data: 4138516560
I0117 16:15:10.168429 29697 layer_factory.hpp:77] Creating layer flow_conv5b
I0117 16:15:10.168440 29697 net.cpp:91] Creating Layer flow_conv5b
I0117 16:15:10.168444 29697 net.cpp:425] flow_conv5b <- flow_conv5a
I0117 16:15:10.168450 29697 net.cpp:399] flow_conv5b -> flow_conv5b
I0117 16:15:10.306970 29697 net.cpp:141] Setting up flow_conv5b
I0117 16:15:10.307006 29697 net.cpp:148] Top shape: 20 512 2 7 7 (1003520)
I0117 16:15:10.307011 29697 net.cpp:156] Memory required for data: 4142530640
I0117 16:15:10.307019 29697 layer_factory.hpp:77] Creating layer flow_relu5b
I0117 16:15:10.307029 29697 net.cpp:91] Creating Layer flow_relu5b
I0117 16:15:10.307034 29697 net.cpp:425] flow_relu5b <- flow_conv5b
I0117 16:15:10.307040 29697 net.cpp:386] flow_relu5b -> flow_conv5b (in-place)
I0117 16:15:10.307049 29697 net.cpp:141] Setting up flow_relu5b
I0117 16:15:10.307054 29697 net.cpp:148] Top shape: 20 512 2 7 7 (1003520)
I0117 16:15:10.307056 29697 net.cpp:156] Memory required for data: 4146544720
I0117 16:15:10.307060 29697 layer_factory.hpp:77] Creating layer flow_pool5
I0117 16:15:10.307075 29697 net.cpp:91] Creating Layer flow_pool5
I0117 16:15:10.307085 29697 net.cpp:425] flow_pool5 <- flow_conv5b
I0117 16:15:10.307090 29697 net.cpp:399] flow_pool5 -> flow_pool5
I0117 16:15:10.307116 29697 net.cpp:141] Setting up flow_pool5
I0117 16:15:10.307121 29697 net.cpp:148] Top shape: 20 512 1 4 4 (163840)
I0117 16:15:10.307126 29697 net.cpp:156] Memory required for data: 4147200080
I0117 16:15:10.307128 29697 layer_factory.hpp:77] Creating layer flow_fc6
I0117 16:15:10.307137 29697 net.cpp:91] Creating Layer flow_fc6
I0117 16:15:10.307139 29697 net.cpp:425] flow_fc6 <- flow_pool5
I0117 16:15:10.307145 29697 net.cpp:399] flow_fc6 -> flow_fc6
I0117 16:15:10.960489 29697 net.cpp:141] Setting up flow_fc6
I0117 16:15:10.960528 29697 net.cpp:148] Top shape: 20 4096 (81920)
I0117 16:15:10.960535 29697 net.cpp:156] Memory required for data: 4147527760
I0117 16:15:10.960547 29697 layer_factory.hpp:77] Creating layer flow_relu6
I0117 16:15:10.960561 29697 net.cpp:91] Creating Layer flow_relu6
I0117 16:15:10.960566 29697 net.cpp:425] flow_relu6 <- flow_fc6
I0117 16:15:10.960572 29697 net.cpp:386] flow_relu6 -> flow_fc6 (in-place)
I0117 16:15:10.960580 29697 net.cpp:141] Setting up flow_relu6
I0117 16:15:10.960585 29697 net.cpp:148] Top shape: 20 4096 (81920)
I0117 16:15:10.960588 29697 net.cpp:156] Memory required for data: 4147855440
I0117 16:15:10.960592 29697 layer_factory.hpp:77] Creating layer flow_drop6
I0117 16:15:10.960608 29697 net.cpp:91] Creating Layer flow_drop6
I0117 16:15:10.960611 29697 net.cpp:425] flow_drop6 <- flow_fc6
I0117 16:15:10.960615 29697 net.cpp:386] flow_drop6 -> flow_fc6 (in-place)
I0117 16:15:10.960640 29697 net.cpp:141] Setting up flow_drop6
I0117 16:15:10.960646 29697 net.cpp:148] Top shape: 20 4096 (81920)
I0117 16:15:10.960649 29697 net.cpp:156] Memory required for data: 4148183120
I0117 16:15:10.960654 29697 layer_factory.hpp:77] Creating layer flow_fc7
I0117 16:15:10.960664 29697 net.cpp:91] Creating Layer flow_fc7
I0117 16:15:10.960667 29697 net.cpp:425] flow_fc7 <- flow_fc6
I0117 16:15:10.960671 29697 net.cpp:399] flow_fc7 -> flow_fc7
I0117 16:15:11.287155 29697 net.cpp:141] Setting up flow_fc7
I0117 16:15:11.287192 29697 net.cpp:148] Top shape: 20 4096 (81920)
I0117 16:15:11.287199 29697 net.cpp:156] Memory required for data: 4148510800
I0117 16:15:11.287209 29697 layer_factory.hpp:77] Creating layer flow_relu7
I0117 16:15:11.287219 29697 net.cpp:91] Creating Layer flow_relu7
I0117 16:15:11.287223 29697 net.cpp:425] flow_relu7 <- flow_fc7
I0117 16:15:11.287230 29697 net.cpp:386] flow_relu7 -> flow_fc7 (in-place)
I0117 16:15:11.287240 29697 net.cpp:141] Setting up flow_relu7
I0117 16:15:11.287245 29697 net.cpp:148] Top shape: 20 4096 (81920)
I0117 16:15:11.287248 29697 net.cpp:156] Memory required for data: 4148838480
I0117 16:15:11.287251 29697 layer_factory.hpp:77] Creating layer flow_drop7
I0117 16:15:11.287257 29697 net.cpp:91] Creating Layer flow_drop7
I0117 16:15:11.287261 29697 net.cpp:425] flow_drop7 <- flow_fc7
I0117 16:15:11.287266 29697 net.cpp:386] flow_drop7 -> flow_fc7 (in-place)
I0117 16:15:11.287288 29697 net.cpp:141] Setting up flow_drop7
I0117 16:15:11.287294 29697 net.cpp:148] Top shape: 20 4096 (81920)
I0117 16:15:11.287298 29697 net.cpp:156] Memory required for data: 4149166160
I0117 16:15:11.287302 29697 layer_factory.hpp:77] Creating layer flow_fc8
I0117 16:15:11.287310 29697 net.cpp:91] Creating Layer flow_fc8
I0117 16:15:11.287314 29697 net.cpp:425] flow_fc8 <- flow_fc7
I0117 16:15:11.287319 29697 net.cpp:399] flow_fc8 -> flow_fc8
I0117 16:15:11.295809 29697 net.cpp:141] Setting up flow_fc8
I0117 16:15:11.295825 29697 net.cpp:148] Top shape: 20 101 (2020)
I0117 16:15:11.295830 29697 net.cpp:156] Memory required for data: 4149174240
I0117 16:15:11.295835 29697 layer_factory.hpp:77] Creating layer loss
I0117 16:15:11.295846 29697 net.cpp:91] Creating Layer loss
I0117 16:15:11.295850 29697 net.cpp:425] loss <- flow_fc8
I0117 16:15:11.295856 29697 net.cpp:425] loss <- label
I0117 16:15:11.295863 29697 net.cpp:399] loss -> loss
I0117 16:15:11.295881 29697 layer_factory.hpp:77] Creating layer loss
…
name: "C3D_net"
state {
  phase: TEST
}
layer {
  name: "data"
  type: "FlowData"
  top: "data"
  top: "label"
  include {
    phase: TEST
  }
  transform_param {
    mirror: false
    crop_size: 112
    mean_value: 128
    fix_crop: false
    multi_scale: false
    is_flow: true
    new_height: 128
    new_width: 171
  }
  flow_data_param {
    source: "/home/tranlaman/Public/data/new-caffe-database/ucf101_comp_tvl1_overlapping_segment16_train_test_split1/val_flow_lmdb/"
    batch_size: 1
    new_length: 16
    modality: FLOW
    backend: LMDB
  }
}
layer {
  name: "reshape"
  type: "Reshape"
  bottom: "data"
  top: "vol_data"
  reshape_param {
    shape {
      dim: 2
      dim: -1
    }
    axis: 1
    num_axes: 1
  }
}
layer {
  name: "flow_conv1a"
  type: "Convolution"
  bottom: "vol_data"
  top: "flow_conv1a"
  param {
    lr_mult: 1
    decay_mult: 1
  }
  param {
    lr_mult: 2
    decay_mult: 0
  }
  convolution_param {
    num_output: 64
    pad: 1
    kernel_size: 3
    weight_filler {
      type: "gaussian"
      std: 0.01
    }
    bias_filler {
      type: "constant"
      value: 0
    }
    engine: CAFFE
    axis: 1
  }
}
layer {
  name: "flow_relu1a"
  type: "ReLU"
  bottom: "flow_conv1a"
  top: "flow_conv1a"
  relu_param {
    engine: CAFFE
  }
}
layer {
  name: "flow_pool1"
  type: "Pooling3D"
  bottom: "flow_conv1a"
  top: "flow_pool1"
  pooling3d_param {
    pool: MAX
    kernel_size: 2
    stride: 2
    kernel_depth: 1
    temporal_stride: 1
  }
}
layer {
  name: "flow_conv2a"
  type: "Convolution"
  bottom: "flow_pool1"
  top: "flow_conv2a"
  param {
    lr_mult: 1
    decay_mult: 1
  }
  param {
    lr_mult: 2
    decay_mult: 0
  }
  convolution_param {
    num_output: 128
    pad: 1
    kernel_size: 3
    weight_filler {
      type: "gaussian"
      std: 0.01
    }
    bias_filler {
      type: "constant"
      value: 1
    }
    engine: CAFFE
    axis: 1
  }
}
layer {
  name: "flow_relu2a"
  type: "ReLU"
  bottom: "flow_conv2a"
  top: "flow_conv2a"
  relu_param {
    engine: CAFFE
  }
}
layer {
  name: "flow_pool2"
  type: "Pooling3D"
  bottom: "flow_conv2a"
  top: "flow_pool2"
  pooling3d_param {
    pool: MAX
    kernel_size: 2
    stride: 2
    kernel_depth: 2
    temporal_stride: 2
  }
}
layer {
  name: "flow_conv3a"
  type: "Convolution"
  bottom: "flow_pool2"
  top: "flow_conv3a"
  param {
    lr_mult: 1
    decay_mult: 1
  }
  param {
    lr_mult: 2
    decay_mult: 0
  }
  convolution_param {
    num_output: 256
    pad: 1
    kernel_size: 3
    weight_filler {
      type: "gaussian"
      std: 0.01
    }
    bias_filler {
      type: "constant"
      value: 1
    }
    engine: CAFFE
    axis: 1
  }
}
layer {
  name: "flow_relu3a"
  type: "ReLU"
  bottom: "flow_conv3a"
  top: "flow_conv3a"
  relu_param {
    engine: CAFFE
  }
}
layer {
  name: "flow_conv3b"
  type: "Convolution"
  bottom: "flow_conv3a"
  top: "flow_conv3b"
  param {
    lr_mult: 1
    decay_mult: 1
  }
  param {
    lr_mult: 2
    decay_mult: 0
  }
  convolution_param {
    num_output: 256
    pad: 1
    kernel_size: 3
    weight_filler {
      type: "gaussian"
      std: 0.01
    }
    bias_filler {
      type: "constant"
      value: 1
    }
    engine: CAFFE
    axis: 1
  }
}
layer {
  name: "flow_relu3b"
  type: "ReLU"
  bottom: "flow_conv3b"
  top: "flow_conv3b"
  relu_param {
    engine: CAFFE
  }
}
layer {
  name: "flow_pool3"
  type: "Pooling3D"
  bottom: "flow_conv3b"
  top: "flow_pool3"
  pooling3d_param {
    pool: MAX
    kernel_size: 2
    stride: 2
    kernel_depth: 2
    temporal_stride: 2
  }
}
layer {
  name: "flow_conv4a"
  type: "Convolution"
  bottom: "flow_pool3"
  top: "flow_conv4a"
  param {
    lr_mult: 1
    decay_mult: 1
  }
  param {
    lr_mult: 2
    decay_mult: 0
  }
  convolution_param {
    num_output: 512
    pad: 1
    kernel_size: 3
    weight_filler {
      type: "gaussian"
      std: 0.01
    }
    bias_filler {
      type: "constant"
      value: 1
    }
    engine: CAFFE
    axis: 1
  }
}
layer {
  name: "flow_relu4a"
  type: "ReLU"
  bottom: "flow_conv4a"
  top: "flow_conv4a"
  relu_param {
    engine: CAFFE
  }
}
layer {
  name: "flow_conv4b"
  type: "Convolution"
  bottom: "flow_conv4a"
  top: "flow_conv4b"
  param {
    lr_mult: 1
    decay_mult: 1
  }
  param {
    lr_mult: 2
    decay_mult: 0
  }
  convolution_param {
    num_output: 512
    pad: 1
    kernel_size: 3
    weight_filler {
      type: "gaussian"
      std: 0.01
    }
    bias_filler {
      type: "constant"
      value: 1
    }
    engine: CAFFE
    axis: 1
  }
}
layer {
  name: "flow_relu4b"
  type: "ReLU"
  bottom: "flow_conv4b"
  top: "flow_conv4b"
  relu_param {
    engine: CAFFE
  }
}
layer {
  name: "flow_pool4"
  type: "Pooling3D"
  bottom: "flow_conv4b"
  top: "flow_pool4"
  pooling3d_param {
    pool: MAX
    kernel_size: 2
    stride: 2
    kernel_depth: 2
    temporal_stride: 2
  }
}
layer {
  name: "flow_conv5a"
  type: "Convolution"
  bottom: "flow_pool4"
  top: "flow_conv5a"
  param {
    lr_mult: 1
    decay_mult: 1
  }
  param {
    lr_mult: 2
    decay_mult: 0
  }
  convolution_param {
    num_output: 512
    pad: 1
    kernel_size: 3
    weight_filler {
      type: "gaussian"
      std: 0.01
    }
    bias_filler {
      type: "constant"
      value: 1
    }
    engine: CAFFE
    axis: 1
  }
}
layer {
  name: "flow_relu5a"
  type: "ReLU"
  bottom: "flow_conv5a"
  top: "flow_conv5a"
  relu_param {
    engine: CAFFE
  }
}
layer {
  name: "flow_conv5b"
  type: "Convolution"
  bottom: "flow_conv5a"
  top: "flow_conv5b"
  param {
    lr_mult: 1
    decay_mult: 1
  }
  param {
    lr_mult: 2
    decay_mult: 0
  }
  convolution_param {
    num_output: 512
    pad: 1
    kernel_size: 3
    weight_filler {
      type: "gaussian"
      std: 0.01
    }
    bias_filler {
      type: "constant"
      value: 1
    }
    engine: CAFFE
    axis: 1
  }
}
layer {
  name: "flow_relu5b"
  type: "ReLU"
  bottom: "flow_conv5b"
  top: "flow_conv5b"
  relu_param {
    engine: CAFFE
  }
}
layer {
  name: "flow_pool5"
  type: "Pooling3D"
  bottom: "flow_conv5b"
  top: "flow_pool5"
  pooling3d_param {
    pool: MAX
    kernel_size: 2
    stride: 2
    kernel_depth: 2
    temporal_stride: 2
  }
}
layer {
  name: "flow_fc6"
  type: "InnerProduct"
  bottom: "flow_pool5"
  top: "flow_fc6"
  param {
    lr_mult: 1
    decay_mult: 1
  }
  param {
    lr_mult: 2
    decay_mult: 0
  }
  inner_product_param {
    num_output: 4096
    weight_filler {
      type: "gaussian"
      std: 0.005
    }
    bias_filler {
      type: "constant"
      value: 1
    }
  }
}
layer {
  name: "flow_relu6"
  type: "ReLU"
  bottom: "flow_fc6"
  top: "flow_fc6"
  relu_param {
    engine: CAFFE
  }
}
layer {
  name: "flow_drop6"
  type: "Dropout"
  bottom: "flow_fc6"
  top: "flow_fc6"
  dropout_param {
    dropout_ratio: 0.8
  }
}
layer {
  name: "flow_fc7"
  type: "InnerProduct"
  bottom: "flow_fc6"
  top: "flow_fc7"
  param {
    lr_mult: 1
    decay_mult: 1
  }
  param {
    lr_mult: 2
    decay_mult: 0
  }
  inner_product_param {
    num_output: 4096
    weight_filler {
      type: "gaussian"
      std: 0.005
    }
    bias_filler {
      type: "constant"
      value: 1
    }
  }
}
layer {
  name: "flow_relu7"
  type: "ReLU"
  bottom: "flow_fc7"
  top: "flow_fc7"
  relu_param {
    engine: CAFFE
  }
}
layer {
  name: "flow_drop7"
  type: "Dropout"
  bottom: "flow_fc7"
  top: "flow_fc7"
  dropout_param {
    dropout_ratio: 0.7
  }
}
layer {
  name: "flow_fc8"
  type: "InnerProduct"
  bottom: "flow_fc7"
  top: "flow_fc8"
  param {
    lr_mult: 1
    decay_mult: 1
  }
  param {
    lr_mult: 2
    decay_mult: 0
  }
  inner_product_param {
    num_output: 101
    weight_filler {
      type: "gaussian"
      std: 0.01
    }
    bias_filler {
      type: "constant"
      value: 0
    }
  }
}
layer {
  name: "accuracy"
  type: "Accuracy"
  bottom: "flow_fc8"
  bottom: "label"
  top: "accuracy"
  include {
    phase: TEST
  }
}
layer {
  name: "loss"
  type: "SoftmaxWithLoss"
  bottom: "flow_fc8"
  bottom: "label"
  top: "loss"
}
I0117 16:15:11.674916 29697 layer_factory.hpp:77] Creating layer data
I0117 16:15:11.680765 29697 net.cpp:91] Creating Layer data
I0117 16:15:11.680781 29697 net.cpp:399] data -> data
I0117 16:15:11.680791 29697 net.cpp:399] data -> label
I0117 16:15:11.682406 29710 db_lmdb.cpp:38] Opened lmdb /home/tranlaman/Public/data/new-caffe-database/ucf101_comp_tvl1_overlapping_segment16_train_test_split1/val_flow_lmdb/
I0117 16:15:11.683722 29697 flow_data_layer.cpp:40] Extracting 1-view features in TEST phase.
I0117 16:15:11.683886 29697 flow_data_layer.cpp:52] output data size: 1,32,112,112
I0117 16:15:11.692787 29697 net.cpp:141] Setting up data
I0117 16:15:11.692821 29697 net.cpp:148] Top shape: 1 32 112 112 (401408)
I0117 16:15:11.692827 29697 net.cpp:148] Top shape: 1 (1)
I0117 16:15:11.692831 29697 net.cpp:156] Memory required for data: 1605636
I0117 16:15:11.692838 29697 layer_factory.hpp:77] Creating layer label_data_1_split
I0117 16:15:11.692852 29697 net.cpp:91] Creating Layer label_data_1_split
I0117 16:15:11.692870 29697 net.cpp:425] label_data_1_split <- label
I0117 16:15:11.692878 29697 net.cpp:399] label_data_1_split -> label_data_1_split_0
I0117 16:15:11.692888 29697 net.cpp:399] label_data_1_split -> label_data_1_split_1
I0117 16:15:11.692927 29697 net.cpp:141] Setting up label_data_1_split
I0117 16:15:11.692935 29697 net.cpp:148] Top shape: 1 (1)
I0117 16:15:11.692939 29697 net.cpp:148] Top shape: 1 (1)
I0117 16:15:11.692942 29697 net.cpp:156] Memory required for data: 1605644
I0117 16:15:11.692946 29697 layer_factory.hpp:77] Creating layer reshape
I0117 16:15:11.692955 29697 net.cpp:91] Creating Layer reshape
I0117 16:15:11.692958 29697 net.cpp:425] reshape <- data
I0117 16:15:11.692963 29697 net.cpp:399] reshape -> vol_data
I0117 16:15:11.693013 29697 net.cpp:141] Setting up reshape
I0117 16:15:11.693022 29697 net.cpp:148] Top shape: 1 2 16 112 112 (401408)
I0117 16:15:11.693027 29697 net.cpp:156] Memory required for data: 3211276
I0117 16:15:11.693029 29697 layer_factory.hpp:77] Creating layer flow_conv1a
I0117 16:15:11.693040 29697 net.cpp:91] Creating Layer flow_conv1a
I0117 16:15:11.693045 29697 net.cpp:425] flow_conv1a <- vol_data
I0117 16:15:11.693051 29697 net.cpp:399] flow_conv1a -> flow_conv1a
I0117 16:15:11.694164 29697 net.cpp:141] Setting up flow_conv1a
I0117 16:15:11.694180 29697 net.cpp:148] Top shape: 1 64 16 112 112 (12845056)
I0117 16:15:11.694183 29697 net.cpp:156] Memory required for data: 54591500
I0117 16:15:11.694193 29697 layer_factory.hpp:77] Creating layer flow_relu1a
I0117 16:15:11.694201 29697 net.cpp:91] Creating Layer flow_relu1a
I0117 16:15:11.694206 29697 net.cpp:425] flow_relu1a <- flow_conv1a
I0117 16:15:11.694211 29697 net.cpp:386] flow_relu1a -> flow_conv1a (in-place)
I0117 16:15:11.694218 29697 net.cpp:141] Setting up flow_relu1a
I0117 16:15:11.694223 29697 net.cpp:148] Top shape: 1 64 16 112 112 (12845056)
I0117 16:15:11.694227 29697 net.cpp:156] Memory required for data: 105971724
I0117 16:15:11.694231 29697 layer_factory.hpp:77] Creating layer flow_pool1
I0117 16:15:11.694236 29697 net.cpp:91] Creating Layer flow_pool1
I0117 16:15:11.694241 29697 net.cpp:425] flow_pool1 <- flow_conv1a
I0117 16:15:11.694245 29697 net.cpp:399] flow_pool1 -> flow_pool1
I0117 16:15:11.694270 29697 net.cpp:141] Setting up flow_pool1
I0117 16:15:11.694278 29697 net.cpp:148] Top shape: 1 64 16 56 56 (3211264)
I0117 16:15:11.694283 29697 net.cpp:156] Memory required for data: 118816780
I0117 16:15:11.694286 29697 layer_factory.hpp:77] Creating layer flow_conv2a
I0117 16:15:11.694294 29697 net.cpp:91] Creating Layer flow_conv2a
I0117 16:15:11.694298 29697 net.cpp:425] flow_conv2a <- flow_pool1
I0117 16:15:11.694303 29697 net.cpp:399] flow_conv2a -> flow_conv2a
I0117 16:15:11.698541 29697 net.cpp:141] Setting up flow_conv2a
I0117 16:15:11.698554 29697 net.cpp:148] Top shape: 1 128 16 56 56 (6422528)
I0117 16:15:11.698559 29697 net.cpp:156] Memory required for data: 144506892
I0117 16:15:11.698566 29697 layer_factory.hpp:77] Creating layer flow_relu2a
I0117 16:15:11.698571 29697 net.cpp:91] Creating Layer flow_relu2a
I0117 16:15:11.698576 29697 net.cpp:425] flow_relu2a <- flow_conv2a
I0117 16:15:11.698581 29697 net.cpp:386] flow_relu2a -> flow_conv2a (in-place)
I0117 16:15:11.698586 29697 net.cpp:141] Setting up flow_relu2a
I0117 16:15:11.698591 29697 net.cpp:148] Top shape: 1 128 16 56 56 (6422528)
I0117 16:15:11.698595 29697 net.cpp:156] Memory required for data: 170197004
I0117 16:15:11.698597 29697 layer_factory.hpp:77] Creating layer flow_pool2
I0117 16:15:11.698603 29697 net.cpp:91] Creating Layer flow_pool2
I0117 16:15:11.698607 29697 net.cpp:425] flow_pool2 <- flow_conv2a
I0117 16:15:11.698612 29697 net.cpp:399] flow_pool2 -> flow_pool2
I0117 16:15:11.698634 29697 net.cpp:141] Setting up flow_pool2
I0117 16:15:11.698642 29697 net.cpp:148] Top shape: 1 128 8 28 28 (802816)
I0117 16:15:11.698645 29697 net.cpp:156] Memory required for data: 173408268
I0117 16:15:11.698649 29697 layer_factory.hpp:77] Creating layer flow_conv3a
I0117 16:15:11.698662 29697 net.cpp:91] Creating Layer flow_conv3a
I0117 16:15:11.698670 29697 net.cpp:425] flow_conv3a <- flow_pool2
I0117 16:15:11.698676 29697 net.cpp:399] flow_conv3a -> flow_conv3a
I0117 16:15:11.716130 29697 net.cpp:141] Setting up flow_conv3a
I0117 16:15:11.716161 29697 net.cpp:148] Top shape: 1 256 8 28 28 (1605632)
I0117 16:15:11.716166 29697 net.cpp:156] Memory required for data: 179830796
I0117 16:15:11.716176 29697 layer_factory.hpp:77] Creating layer flow_relu3a
I0117 16:15:11.716184 29697 net.cpp:91] Creating Layer flow_relu3a
I0117 16:15:11.716189 29697 net.cpp:425] flow_relu3a <- flow_conv3a
I0117 16:15:11.716195 29697 net.cpp:386] flow_relu3a -> flow_conv3a (in-place)
I0117 16:15:11.716203 29697 net.cpp:141] Setting up flow_relu3a
I0117 16:15:11.716207 29697 net.cpp:148] Top shape: 1 256 8 28 28 (1605632)
I0117 16:15:11.716210 29697 net.cpp:156] Memory required for data: 186253324
I0117 16:15:11.716213 29697 layer_factory.hpp:77] Creating layer flow_conv3b
I0117 16:15:11.716223 29697 net.cpp:91] Creating Layer flow_conv3b
I0117 16:15:11.716226 29697 net.cpp:425] flow_conv3b <- flow_conv3a
I0117 16:15:11.716231 29697 net.cpp:399] flow_conv3b -> flow_conv3b
I0117 16:15:11.750867 29697 net.cpp:141] Setting up flow_conv3b
I0117 16:15:11.750903 29697 net.cpp:148] Top shape: 1 256 8 28 28 (1605632)
I0117 16:15:11.750907 29697 net.cpp:156] Memory required for data: 192675852
I0117 16:15:11.750916 29697 layer_factory.hpp:77] Creating layer flow_relu3b
I0117 16:15:11.750926 29697 net.cpp:91] Creating Layer flow_relu3b
I0117 16:15:11.750931 29697 net.cpp:425] flow_relu3b <- flow_conv3b
I0117 16:15:11.750937 29697 net.cpp:386] flow_relu3b -> flow_conv3b (in-place)
I0117 16:15:11.750946 29697 net.cpp:141] Setting up flow_relu3b
I0117 16:15:11.750952 29697 net.cpp:148] Top shape: 1 256 8 28 28 (1605632)
I0117 16:15:11.750954 29697 net.cpp:156] Memory required for data: 199098380
I0117 16:15:11.750957 29697 layer_factory.hpp:77] Creating layer flow_pool3
I0117 16:15:11.750963 29697 net.cpp:91] Creating Layer flow_pool3
I0117 16:15:11.750967 29697 net.cpp:425] flow_pool3 <- flow_conv3b
I0117 16:15:11.750972 29697 net.cpp:399] flow_pool3 -> flow_pool3
I0117 16:15:11.750994 29697 net.cpp:141] Setting up flow_pool3
I0117 16:15:11.751003 29697 net.cpp:148] Top shape: 1 256 4 14 14 (200704)
I0117 16:15:11.751005 29697 net.cpp:156] Memory required for data: 199901196
I0117 16:15:11.751009 29697 layer_factory.hpp:77] Creating layer flow_conv4a
I0117 16:15:11.751018 29697 net.cpp:91] Creating Layer flow_conv4a
I0117 16:15:11.751021 29697 net.cpp:425] flow_conv4a <- flow_pool3
I0117 16:15:11.751026 29697 net.cpp:399] flow_conv4a -> flow_conv4a
I0117 16:15:11.820297 29697 net.cpp:141] Setting up flow_conv4a
I0117 16:15:11.820333 29697 net.cpp:148] Top shape: 1 512 4 14 14 (401408)
I0117 16:15:11.820339 29697 net.cpp:156] Memory required for data: 201506828
I0117 16:15:11.820351 29697 layer_factory.hpp:77] Creating layer flow_relu4a
I0117 16:15:11.820361 29697 net.cpp:91] Creating Layer flow_relu4a
I0117 16:15:11.820368 29697 net.cpp:425] flow_relu4a <- flow_conv4a
I0117 16:15:11.820372 29697 net.cpp:386] flow_relu4a -> flow_conv4a (in-place)
I0117 16:15:11.820381 29697 net.cpp:141] Setting up flow_relu4a
I0117 16:15:11.820386 29697 net.cpp:148] Top shape: 1 512 4 14 14 (401408)
I0117 16:15:11.820389 29697 net.cpp:156] Memory required for data: 203112460
I0117 16:15:11.820394 29697 layer_factory.hpp:77] Creating layer flow_conv4b
I0117 16:15:11.820405 29697 net.cpp:91] Creating Layer flow_conv4b
I0117 16:15:11.820408 29697 net.cpp:425] flow_conv4b <- flow_conv4a
I0117 16:15:11.820413 29697 net.cpp:399] flow_conv4b -> flow_conv4b
I0117 16:15:11.958422 29697 net.cpp:141] Setting up flow_conv4b
I0117 16:15:11.958461 29697 net.cpp:148] Top shape: 1 512 4 14 14 (401408)
I0117 16:15:11.958467 29697 net.cpp:156] Memory required for data: 204718092
I0117 16:15:11.958475 29697 layer_factory.hpp:77] Creating layer flow_relu4b
I0117 16:15:11.958485 29697 net.cpp:91] Creating Layer flow_relu4b
I0117 16:15:11.958492 29697 net.cpp:425] flow_relu4b <- flow_conv4b
I0117 16:15:11.958504 29697 net.cpp:386] flow_relu4b -> flow_conv4b (in-place)
I0117 16:15:11.958520 29697 net.cpp:141] Setting up flow_relu4b
I0117 16:15:11.958525 29697 net.cpp:148] Top shape: 1 512 4 14 14 (401408)
I0117 16:15:11.958528 29697 net.cpp:156] Memory required for data: 206323724
I0117 16:15:11.958533 29697 layer_factory.hpp:77] Creating layer flow_pool4
I0117 16:15:11.958539 29697 net.cpp:91] Creating Layer flow_pool4
I0117 16:15:11.958541 29697 net.cpp:425] flow_pool4 <- flow_conv4b
I0117 16:15:11.958547 29697 net.cpp:399] flow_pool4 -> flow_pool4
I0117 16:15:11.958570 29697 net.cpp:141] Setting up flow_pool4
I0117 16:15:11.958575 29697 net.cpp:148] Top shape: 1 512 2 7 7 (50176)
I0117 16:15:11.958580 29697 net.cpp:156] Memory required for data: 206524428
I0117 16:15:11.958582 29697 layer_factory.hpp:77] Creating layer flow_conv5a
I0117 16:15:11.958591 29697 net.cpp:91] Creating Layer flow_conv5a
I0117 16:15:11.958596 29697 net.cpp:425] flow_conv5a <- flow_pool4
I0117 16:15:11.958601 29697 net.cpp:399] flow_conv5a -> flow_conv5a
I0117 16:15:12.097051 29697 net.cpp:141] Setting up flow_conv5a
I0117 16:15:12.097088 29697 net.cpp:148] Top shape: 1 512 2 7 7 (50176)
I0117 16:15:12.097093 29697 net.cpp:156] Memory required for data: 206725132
I0117 16:15:12.097102 29697 layer_factory.hpp:77] Creating layer flow_relu5a
I0117 16:15:12.097112 29697 net.cpp:91] Creating Layer flow_relu5a
I0117 16:15:12.097117 29697 net.cpp:425] flow_relu5a <- flow_conv5a
I0117 16:15:12.097124 29697 net.cpp:386] flow_relu5a -> flow_conv5a (in-place)
I0117 16:15:12.097132 29697 net.cpp:141] Setting up flow_relu5a
I0117 16:15:12.097137 29697 net.cpp:148] Top shape: 1 512 2 7 7 (50176)
I0117 16:15:12.097141 29697 net.cpp:156] Memory required for data: 206925836
I0117 16:15:12.097144 29697 layer_factory.hpp:77] Creating layer flow_conv5b
I0117 16:15:12.097152 29697 net.cpp:91] Creating Layer flow_conv5b
I0117 16:15:12.097157 29697 net.cpp:425] flow_conv5b <- flow_conv5a
I0117 16:15:12.097162 29697 net.cpp:399] flow_conv5b -> flow_conv5b
I0117 16:15:12.235244 29697 net.cpp:141] Setting up flow_conv5b
I0117 16:15:12.235283 29697 net.cpp:148] Top shape: 1 512 2 7 7 (50176)
I0117 16:15:12.235288 29697 net.cpp:156] Memory required for data: 207126540
I0117 16:15:12.235298 29697 layer_factory.hpp:77] Creating layer flow_relu5b
I0117 16:15:12.235308 29697 net.cpp:91] Creating Layer flow_relu5b
I0117 16:15:12.235313 29697 net.cpp:425] flow_relu5b <- flow_conv5b
I0117 16:15:12.235321 29697 net.cpp:386] flow_relu5b -> flow_conv5b (in-place)
I0117 16:15:12.235328 29697 net.cpp:141] Setting up flow_relu5b
I0117 16:15:12.235333 29697 net.cpp:148] Top shape: 1 512 2 7 7 (50176)
I0117 16:15:12.235337 29697 net.cpp:156] Memory required for data: 207327244
I0117 16:15:12.235339 29697 layer_factory.hpp:77] Creating layer flow_pool5
I0117 16:15:12.235345 29697 net.cpp:91] Creating Layer flow_pool5
I0117 16:15:12.235348 29697 net.cpp:425] flow_pool5 <- flow_conv5b
I0117 16:15:12.235354 29697 net.cpp:399] flow_pool5 -> flow_pool5
I0117 16:15:12.235379 29697 net.cpp:141] Setting up flow_pool5
I0117 16:15:12.235385 29697 net.cpp:148] Top shape: 1 512 1 4 4 (8192)
I0117 16:15:12.235389 29697 net.cpp:156] Memory required for data: 207360012
I0117 16:15:12.235394 29697 layer_factory.hpp:77] Creating layer flow_fc6
I0117 16:15:12.235400 29697 net.cpp:91] Creating Layer flow_fc6
I0117 16:15:12.235404 29697 net.cpp:425] flow_fc6 <- flow_pool5
I0117 16:15:12.235409 29697 net.cpp:399] flow_fc6 -> flow_fc6
I0117 16:15:12.886430 29697 net.cpp:141] Setting up flow_fc6
I0117 16:15:12.886463 29697 net.cpp:148] Top shape: 1 4096 (4096)
I0117 16:15:12.886469 29697 net.cpp:156] Memory required for data: 207376396
I0117 16:15:12.886482 29697 layer_factory.hpp:77] Creating layer flow_relu6
I0117 16:15:12.886492 29697 net.cpp:91] Creating Layer flow_relu6
I0117 16:15:12.886498 29697 net.cpp:425] flow_relu6 <- flow_fc6
I0117 16:15:12.886504 29697 net.cpp:386] flow_relu6 -> flow_fc6 (in-place)
I0117 16:15:12.886512 29697 net.cpp:141] Setting up flow_relu6
I0117 16:15:12.886525 29697 net.cpp:148] Top shape: 1 4096 (4096)
I0117 16:15:12.886535 29697 net.cpp:156] Memory required for data: 207392780
I0117 16:15:12.886539 29697 layer_factory.hpp:77] Creating layer flow_drop6
I0117 16:15:12.886545 29697 net.cpp:91] Creating Layer flow_drop6
I0117 16:15:12.886549 29697 net.cpp:425] flow_drop6 <- flow_fc6
I0117 16:15:12.886554 29697 net.cpp:386] flow_drop6 -> flow_fc6 (in-place)
I0117 16:15:12.886575 29697 net.cpp:141] Setting up flow_drop6
I0117 16:15:12.886582 29697 net.cpp:148] Top shape: 1 4096 (4096)
I0117 16:15:12.886586 29697 net.cpp:156] Memory required for data: 207409164
I0117 16:15:12.886590 29697 layer_factory.hpp:77] Creating layer flow_fc7
I0117 16:15:12.886597 29697 net.cpp:91] Creating Layer flow_fc7
I0117 16:15:12.886601 29697 net.cpp:425] flow_fc7 <- flow_fc6
I0117 16:15:12.886606 29697 net.cpp:399] flow_fc7 -> flow_fc7
I0117 16:15:13.213611 29697 net.cpp:141] Setting up flow_fc7
I0117 16:15:13.213650 29697 net.cpp:148] Top shape: 1 4096 (4096)
I0117 16:15:13.213655 29697 net.cpp:156] Memory required for data: 207425548
I0117 16:15:13.213665 29697 layer_factory.hpp:77] Creating layer flow_relu7
I0117 16:15:13.213675 29697 net.cpp:91] Creating Layer flow_relu7
I0117 16:15:13.213680 29697 net.cpp:425] flow_relu7 <- flow_fc7
I0117 16:15:13.213687 29697 net.cpp:386] flow_relu7 -> flow_fc7 (in-place)
I0117 16:15:13.213697 29697 net.cpp:141] Setting up flow_relu7
I0117 16:15:13.213701 29697 net.cpp:148] Top shape: 1 4096 (4096)
I0117 16:15:13.213704 29697 net.cpp:156] Memory required for data: 207441932
I0117 16:15:13.213707 29697 layer_factory.hpp:77] Creating layer flow_drop7
I0117 16:15:13.213714 29697 net.cpp:91] Creating Layer flow_drop7
I0117 16:15:13.213717 29697 net.cpp:425] flow_drop7 <- flow_fc7
I0117 16:15:13.213729 29697 net.cpp:386] flow_drop7 -> flow_fc7 (in-place)
I0117 16:15:13.213752 29697 net.cpp:141] Setting up flow_drop7
I0117 16:15:13.213757 29697 net.cpp:148] Top shape: 1 4096 (4096)
I0117 16:15:13.213760 29697 net.cpp:156] Memory required for data: 207458316
I0117 16:15:13.213764 29697 layer_factory.hpp:77] Creating layer flow_fc8
I0117 16:15:13.213771 29697 net.cpp:91] Creating Layer flow_fc8
I0117 16:15:13.213775 29697 net.cpp:425] flow_fc8 <- flow_fc7
I0117 16:15:13.213780 29697 net.cpp:399] flow_fc8 -> flow_fc8
I0117 16:15:13.222311 29697 net.cpp:141] Setting up flow_fc8
I0117 16:15:13.222326 29697 net.cpp:148] Top shape: 1 101 (101)
I0117 16:15:13.222332 29697 net.cpp:156] Memory required for data: 207458720
I0117 16:15:13.222337 29697 layer_factory.hpp:77] Creating layer flow_fc8_flow_fc8_0_split
I0117 16:15:13.222344 29697 net.cpp:91] Creating Layer flow_fc8_flow_fc8_0_split
I0117 16:15:13.222349 29697 net.cpp:425] flow_fc8_flow_fc8_0_split <- flow_fc8
I0117 16:15:13.222354 29697 net.cpp:399] flow_fc8_flow_fc8_0_split -> flow_fc8_flow_fc8_0_split_0
I0117 16:15:13.222362 29697 net.cpp:399] flow_fc8_flow_fc8_0_split -> flow_fc8_flow_fc8_0_split_1
I0117 16:15:13.222393 29697 net.cpp:141] Setting up flow_fc8_flow_fc8_0_split
I0117 16:15:13.222401 29697 net.cpp:148] Top shape: 1 101 (101)
I0117 16:15:13.222405 29697 net.cpp:148] Top shape: 1 101 (101)
I0117 16:15:13.222409 29697 net.cpp:156] Memory required for data: 207459528
I0117 16:15:13.222412 29697 layer_factory.hpp:77] Creating layer accuracy
I0117 16:15:13.222421 29697 net.cpp:91] Creating Layer accuracy
I0117 16:15:13.222425 29697 net.cpp:425] accuracy <- flow_fc8_flow_fc8_0_split_0
I0117 16:15:13.222430 29697 net.cpp:425] accuracy <- label_data_1_split_0
I0117 16:15:13.222435 29697 net.cpp:399] accuracy -> accuracy
…
