…
  top: "label"
  include {
    phase: TRAIN
  }
  transform_param {
    mirror: true
    crop_size: 112
    mean_value: 128
    fix_crop: true
    multi_scale: true
    scale_ratios: 1
    scale_ratios: 0.875
    scale_ratios: 0.75
    scale_ratios: 0.66
    max_distort: 1
    is_flow: true
    new_height: 128
    new_width: 171
  }
  flow_data_param {
    source: "/media/tranlaman/data/new-caffe-database/hollywood2_comp_tvl1_overlapping_len16_train_test_split1/train_flow_lmdb/"
    batch_size: 40
    new_length: 16
    modality: FLOW
    backend: LMDB
  }
}
layer {
  name: "reshape"
  type: "Reshape"
  bottom: "data"
  top: "vol_data"
  reshape_param {
    shape {
      dim: 2
      dim: -1
    }
    axis: 1
    num_axes: 1
  }
}
layer {
  name: "flow_conv1a"
  type: "Convolution"
  bottom: "vol_data"
  top: "flow_conv1a"
  param {
    lr_mult: 1
    decay_mult: 1
  }
  param {
    lr_mult: 2
    decay_mult: 0
  }
  convolution_param {
    num_output: 64
    pad: 1
    kernel_size: 3
    weight_filler {
      type: "gaussian"
      std: 0.01
    }
    bias_filler {
      type: "constant"
      value: 0
    }
    engine: CAFFE
    axis: 1
  }
}
layer {
  name: "flow_relu1a"
  type: "ReLU"
  bottom: "flow_conv1a"
  top: "flow_conv1a"
  relu_param {
    engine: CAFFE
  }
}
layer {
  name: "flow_pool1"
  type: "Pooling3D"
  bottom: "flow_conv1a"
  top: "flow_pool1"
  pooling3d_param {
    pool: MAX
    kernel_size: 2
    stride: 2
    kernel_depth: 1
    temporal_stride: 1
  }
}
layer {
  name: "flow_conv2a"
  type: "Convolution"
  bottom: "flow_pool1"
  top: "flow_conv2a"
  param {
    lr_mult: 1
    decay_mult: 1
  }
  param {
    lr_mult: 2
    decay_mult: 0
  }
  convolution_param {
    num_output: 128
    pad: 1
    kernel_size: 3
    weight_filler {
      type: "gaussian"
      std: 0.01
    }
    bias_filler {
      type: "constant"
      value: 1
    }
    engine: CAFFE
    axis: 1
  }
}
layer {
  name: "flow_relu2a"
  type: "ReLU"
  bottom: "flow_conv2a"
  top: "flow_conv2a"
  relu_param {
    engine: CAFFE
  }
}
layer {
  name: "flow_pool2"
  type: "Pooling3D"
  bottom: "flow_conv2a"
  top: "flow_pool2"
  pooling3d_param {
    pool: MAX
    kernel_size: 2
    stride: 2
    kernel_depth: 2
    temporal_stride: 2
  }
}
layer {
  name: "flow_conv3a"
  type: "Convolution"
  bottom: "flow_pool2"
  top: "flow_conv3a"
  param {
    lr_mult: 1
    decay_mult: 1
  }
  param {
    lr_mult: 2
    decay_mult: 0
  }
  convolution_param {
    num_output: 256
    pad: 1
    kernel_size: 3
    weight_filler {
      type: "gaussian"
      std: 0.01
    }
    bias_filler {
      type: "constant"
      value: 1
    }
    engine: CAFFE
    axis: 1
  }
}
layer {
  name: "flow_relu3a"
  type: "ReLU"
  bottom: "flow_conv3a"
  top: "flow_conv3a"
  relu_param {
    engine: CAFFE
  }
}
layer {
  name: "flow_conv3b"
  type: "Convolution"
  bottom: "flow_conv3a"
  top: "flow_conv3b"
  param {
    lr_mult: 1
    decay_mult: 1
  }
  param {
    lr_mult: 2
    decay_mult: 0
  }
  convolution_param {
    num_output: 256
    pad: 1
    kernel_size: 3
    weight_filler {
      type: "gaussian"
      std: 0.01
    }
    bias_filler {
      type: "constant"
      value: 1
    }
    engine: CAFFE
    axis: 1
  }
}
layer {
  name: "flow_relu3b"
  type: "ReLU"
  bottom: "flow_conv3b"
  top: "flow_conv3b"
  relu_param {
    engine: CAFFE
  }
}
layer {
  name: "flow_pool3"
  type: "Pooling3D"
  bottom: "flow_conv3b"
  top: "flow_pool3"
  pooling3d_param {
    pool: MAX
    kernel_size: 2
    stride: 2
    kernel_depth: 2
    temporal_stride: 2
  }
}
layer {
  name: "flow_conv4a"
  type: "Convolution"
  bottom: "flow_pool3"
  top: "flow_conv4a"
  param {
    lr_mult: 1
    decay_mult: 1
  }
  param {
    lr_mult: 2
    decay_mult: 0
  }
  convolution_param {
    num_output: 512
    pad: 1
    kernel_size: 3
    weight_filler {
      type: "gaussian"
      std: 0.01
    }
    bias_filler {
      type: "constant"
      value: 1
    }
    engine: CAFFE
    axis: 1
  }
}
layer {
  name: "flow_relu4a"
  type: "ReLU"
  bottom: "flow_conv4a"
  top: "flow_conv4a"
  relu_param {
    engine: CAFFE
  }
}
layer {
  name: "flow_conv4b"
  type: "Convolution"
  bottom: "flow_conv4a"
  top: "flow_conv4b"
  param {
    lr_mult: 1
    decay_mult: 1
  }
  param {
    lr_mult: 2
    decay_mult: 0
  }
  convolution_param {
    num_output: 512
    pad: 1
    kernel_size: 3
    weight_filler {
      type: "gaussian"
      std: 0.01
    }
    bias_filler {
      type: "constant"
      value: 1
    }
    engine: CAFFE
    axis: 1
  }
}
layer {
  name: "flow_relu4b"
  type: "ReLU"
  bottom: "flow_conv4b"
  top: "flow_conv4b"
  relu_param {
    engine: CAFFE
  }
}
layer {
  name: "flow_pool4"
  type: "Pooling3D"
  bottom: "flow_conv4b"
  top: "flow_pool4"
  pooling3d_param {
    pool: MAX
    kernel_size: 2
    stride: 2
    kernel_depth: 2
    temporal_stride: 2
  }
}
layer {
  name: "flow_conv5a"
  type: "Convolution"
  bottom: "flow_pool4"
  top: "flow_conv5a"
  param {
    lr_mult: 1
    decay_mult: 1
  }
  param {
    lr_mult: 2
    decay_mult: 0
  }
  convolution_param {
    num_output: 512
    pad: 1
    kernel_size: 3
    weight_filler {
      type: "gaussian"
      std: 0.01
    }
    bias_filler {
      type: "constant"
      value: 1
    }
    engine: CAFFE
    axis: 1
  }
}
layer {
  name: "flow_relu5a"
  type: "ReLU"
  bottom: "flow_conv5a"
  top: "flow_conv5a"
  relu_param {
    engine: CAFFE
  }
}
layer {
  name: "flow_conv5b"
  type: "Convolution"
  bottom: "flow_conv5a"
  top: "flow_conv5b"
  param {
    lr_mult: 1
    decay_mult: 1
  }
  param {
    lr_mult: 2
    decay_mult: 0
  }
  convolution_param {
    num_output: 512
    pad: 1
    kernel_size: 3
    weight_filler {
      type: "gaussian"
      std: 0.01
    }
    bias_filler {
      type: "constant"
      value: 1
    }
    engine: CAFFE
    axis: 1
  }
}
layer {
  name: "flow_relu5b"
  type: "ReLU"
  bottom: "flow_conv5b"
  top: "flow_conv5b"
  relu_param {
    engine: CAFFE
  }
}
layer {
  name: "flow_pool5"
  type: "Pooling3D"
  bottom: "flow_conv5b"
  top: "flow_pool5"
  pooling3d_param {
    pool: MAX
    kernel_size: 2
    stride: 2
    kernel_depth: 2
    temporal_stride: 2
  }
}
layer {
  name: "flow_fc6"
  type: "InnerProduct"
  bottom: "flow_pool5"
  top: "flow_fc6"
  param {
    lr_mult: 1
    decay_mult: 1
  }
  param {
    lr_mult: 2
    decay_mult: 0
  }
  inner_product_param {
    num_output: 4096
    weight_filler {
      type: "gaussian"
      std: 0.005
    }
    bias_filler {
      type: "constant"
      value: 1
    }
  }
}
layer {
  name: "flow_relu6"
  type: "ReLU"
  bottom: "flow_fc6"
  top: "flow_fc6"
  relu_param {
    engine: CAFFE
  }
}
layer {
  name: "flow_drop6"
  type: "Dropout"
  bottom: "flow_fc6"
  top: "flow_fc6"
  dropout_param {
    dropout_ratio: 0.9
  }
}
layer {
  name: "flow_fc7"
  type: "InnerProduct"
  bottom: "flow_fc6"
  top: "flow_fc7"
  param {
    lr_mult: 1
    decay_mult: 1
  }
  param {
    lr_mult: 2
    decay_mult: 0
  }
  inner_product_param {
    num_output: 4096
    weight_filler {
      type: "gaussian"
      std: 0.005
    }
    bias_filler {
      type: "constant"
      value: 1
    }
  }
}
layer {
  name: "flow_relu7"
  type: "ReLU"
  bottom: "flow_fc7"
  top: "flow_fc7"
  relu_param {
    engine: CAFFE
  }
}
layer {
  name: "flow_drop7"
  type: "Dropout"
  bottom: "flow_fc7"
  top: "flow_fc7"
  dropout_param {
    dropout_ratio: 0.8
  }
}
layer {
  name: "flow_fc8"
  type: "InnerProduct"
  bottom: "flow_fc7"
  top: "flow_fc8"
  param {
    lr_mult: 1
    decay_mult: 1
  }
  param {
    lr_mult: 2
    decay_mult: 0
  }
  inner_product_param {
    num_output: 12
    weight_filler {
      type: "gaussian"
      std: 0.01
    }
    bias_filler {
      type: "constant"
      value: 0
    }
  }
}
layer {
  name: "loss"
  type: "SoftmaxWithLoss"
  bottom: "flow_fc8"
  bottom: "label"
  top: "loss"
}
I0324 21:56:59.123530 21652 layer_factory.hpp:77] Creating layer data
I0324 21:56:59.123932 21652 net.cpp:91] Creating Layer data
I0324 21:56:59.123947 21652 net.cpp:399] data -> data
I0324 21:56:59.123973 21652 net.cpp:399] data -> label
I0324 21:56:59.125536 21658 db_lmdb.cpp:38] Opened lmdb /media/tranlaman/data/new-caffe-database/hollywood2_comp_tvl1_overlapping_len16_train_test_split1/train_flow_lmdb/
I0324 21:56:59.134014 21652 flow_data_layer.cpp:52] output data size: 40,32,112,112
I0324 21:56:59.284816 21652 net.cpp:141] Setting up data
I0324 21:56:59.284860 21652 net.cpp:148] Top shape: 40 32 112 112 (16056320)
I0324 21:56:59.284868 21652 net.cpp:148] Top shape: 40 (40)
I0324 21:56:59.284870 21652 net.cpp:156] Memory required for data: 64225440
I0324 21:56:59.284883 21652 layer_factory.hpp:77] Creating layer reshape
I0324 21:56:59.284896 21652 net.cpp:91] Creating Layer reshape
I0324 21:56:59.284904 21652 net.cpp:425] reshape <- data
I0324 21:56:59.284919 21652 net.cpp:399] reshape -> vol_data
I0324 21:56:59.284963 21652 net.cpp:141] Setting up reshape
I0324 21:56:59.284971 21652 net.cpp:148] Top shape: 40 2 16 112 112 (16056320)
I0324 21:56:59.284976 21652 net.cpp:156] Memory required for data: 128450720
I0324 21:56:59.284979 21652 layer_factory.hpp:77] Creating layer flow_conv1a
I0324 21:56:59.285002 21652 net.cpp:91] Creating Layer flow_conv1a
I0324 21:56:59.285007 21652 net.cpp:425] flow_conv1a <- vol_data
I0324 21:56:59.285013 21652 net.cpp:399] flow_conv1a -> flow_conv1a
I0324 21:56:59.286299 21652 net.cpp:141] Setting up flow_conv1a
I0324 21:56:59.286314 21652 net.cpp:148] Top shape: 40 64 16 112 112 (513802240)
I0324 21:56:59.286319 21652 net.cpp:156] Memory required for data: 2183659680
I0324 21:56:59.286334 21652 layer_factory.hpp:77] Creating layer flow_relu1a
I0324 21:56:59.286341 21652 net.cpp:91] Creating Layer flow_relu1a
I0324 21:56:59.286345 21652 net.cpp:425] flow_relu1a <- flow_conv1a
I0324 21:56:59.286352 21652 net.cpp:386] flow_relu1a -> flow_conv1a (in-place)
I0324 21:56:59.286361 21652 net.cpp:141] Setting up flow_relu1a
I0324 21:56:59.286366 21652 net.cpp:148] Top shape: 40 64 16 112 112 (513802240)
I0324 21:56:59.286370 21652 net.cpp:156] Memory required for data: 4238868640
I0324 21:56:59.286372 21652 layer_factory.hpp:77] Creating layer flow_pool1
I0324 21:56:59.286381 21652 net.cpp:91] Creating Layer flow_pool1
I0324 21:56:59.286383 21652 net.cpp:425] flow_pool1 <- flow_conv1a
I0324 21:56:59.286389 21652 net.cpp:399] flow_pool1 -> flow_pool1
I0324 21:56:59.286417 21652 net.cpp:141] Setting up flow_pool1
I0324 21:56:59.286427 21652 net.cpp:148] Top shape: 40 64 16 56 56 (128450560)
I0324 21:56:59.286430 21652 net.cpp:156] Memory required for data: 4752670880
I0324 21:56:59.286433 21652 layer_factory.hpp:77] Creating layer flow_conv2a
I0324 21:56:59.286444 21652 net.cpp:91] Creating Layer flow_conv2a
I0324 21:56:59.286448 21652 net.cpp:425] flow_conv2a <- flow_pool1
I0324 21:56:59.286454 21652 net.cpp:399] flow_conv2a -> flow_conv2a
I0324 21:56:59.292888 21652 net.cpp:141] Setting up flow_conv2a
I0324 21:56:59.292908 21652 net.cpp:148] Top shape: 40 128 16 56 56 (256901120)
I0324 21:56:59.292913 21652 net.cpp:156] Memory required for data: 5780275360
I0324 21:56:59.292937 21652 layer_factory.hpp:77] Creating layer flow_relu2a
I0324 21:56:59.292945 21652 net.cpp:91] Creating Layer flow_relu2a
I0324 21:56:59.292949 21652 net.cpp:425] flow_relu2a <- flow_conv2a
I0324 21:56:59.292956 21652 net.cpp:386] flow_relu2a -> flow_conv2a (in-place)
I0324 21:56:59.292963 21652 net.cpp:141] Setting up flow_relu2a
I0324 21:56:59.292968 21652 net.cpp:148] Top shape: 40 128 16 56 56 (256901120)
I0324 21:56:59.292971 21652 net.cpp:156] Memory required for data: 6807879840
I0324 21:56:59.292975 21652 layer_factory.hpp:77] Creating layer flow_pool2
I0324 21:56:59.292981 21652 net.cpp:91] Creating Layer flow_pool2
I0324 21:56:59.292984 21652 net.cpp:425] flow_pool2 <- flow_conv2a
I0324 21:56:59.292989 21652 net.cpp:399] flow_pool2 -> flow_pool2
I0324 21:56:59.293015 21652 net.cpp:141] Setting up flow_pool2
I0324 21:56:59.293023 21652 net.cpp:148] Top shape: 40 128 8 28 28 (32112640)
I0324 21:56:59.293026 21652 net.cpp:156] Memory required for data: 6936330400
I0324 21:56:59.293030 21652 layer_factory.hpp:77] Creating layer flow_conv3a
I0324 21:56:59.293041 21652 net.cpp:91] Creating Layer flow_conv3a
I0324 21:56:59.293045 21652 net.cpp:425] flow_conv3a <- flow_pool2
I0324 21:56:59.293052 21652 net.cpp:399] flow_conv3a -> flow_conv3a
I0324 21:56:59.300415 21652 net.cpp:141] Setting up flow_conv3a
I0324 21:56:59.300431 21652 net.cpp:148] Top shape: 40 256 8 28 28 (64225280)
I0324 21:56:59.300436 21652 net.cpp:156] Memory required for data: 7193231520
I0324 21:56:59.300443 21652 layer_factory.hpp:77] Creating layer flow_relu3a
I0324 21:56:59.300451 21652 net.cpp:91] Creating Layer flow_relu3a
I0324 21:56:59.300457 21652 net.cpp:425] flow_relu3a <- flow_conv3a
I0324 21:56:59.300462 21652 net.cpp:386] flow_relu3a -> flow_conv3a (in-place)
I0324 21:56:59.300467 21652 net.cpp:141] Setting up flow_relu3a
I0324 21:56:59.300472 21652 net.cpp:148] Top shape: 40 256 8 28 28 (64225280)
I0324 21:56:59.300477 21652 net.cpp:156] Memory required for data: 7450132640
I0324 21:56:59.300479 21652 layer_factory.hpp:77] Creating layer flow_conv3b
I0324 21:56:59.300488 21652 net.cpp:91] Creating Layer flow_conv3b
I0324 21:56:59.300493 21652 net.cpp:425] flow_conv3b <- flow_conv3a
I0324 21:56:59.300498 21652 net.cpp:399] flow_conv3b -> flow_conv3b
I0324 21:56:59.314126 21652 net.cpp:141] Setting up flow_conv3b
I0324 21:56:59.314146 21652 net.cpp:148] Top shape: 40 256 8 28 28 (64225280)
I0324 21:56:59.314149 21652 net.cpp:156] Memory required for data: 7707033760
I0324 21:56:59.314157 21652 layer_factory.hpp:77] Creating layer flow_relu3b
I0324 21:56:59.314162 21652 net.cpp:91] Creating Layer flow_relu3b
I0324 21:56:59.314167 21652 net.cpp:425] flow_relu3b <- flow_conv3b
I0324 21:56:59.314172 21652 net.cpp:386] flow_relu3b -> flow_conv3b (in-place)
I0324 21:56:59.314179 21652 net.cpp:141] Setting up flow_relu3b
I0324 21:56:59.314184 21652 net.cpp:148] Top shape: 40 256 8 28 28 (64225280)
I0324 21:56:59.314188 21652 net.cpp:156] Memory required for data: 7963934880
I0324 21:56:59.314190 21652 layer_factory.hpp:77] Creating layer flow_pool3
I0324 21:56:59.314196 21652 net.cpp:91] Creating Layer flow_pool3
I0324 21:56:59.314199 21652 net.cpp:425] flow_pool3 <- flow_conv3b
I0324 21:56:59.314203 21652 net.cpp:399] flow_pool3 -> flow_pool3
I0324 21:56:59.314224 21652 net.cpp:141] Setting up flow_pool3
I0324 21:56:59.314232 21652 net.cpp:148] Top shape: 40 256 4 14 14 (8028160)
I0324 21:56:59.314235 21652 net.cpp:156] Memory required for data: 7996047520
I0324 21:56:59.314239 21652 layer_factory.hpp:77] Creating layer flow_conv4a
I0324 21:56:59.314249 21652 net.cpp:91] Creating Layer flow_conv4a
I0324 21:56:59.314252 21652 net.cpp:425] flow_conv4a <- flow_pool3
I0324 21:56:59.314260 21652 net.cpp:399] flow_conv4a -> flow_conv4a
I0324 21:56:59.341866 21652 net.cpp:141] Setting up flow_conv4a
I0324 21:56:59.341902 21652 net.cpp:148] Top shape: 40 512 4 14 14 (16056320)
I0324 21:56:59.341907 21652 net.cpp:156] Memory required for data: 8060272800
I0324 21:56:59.341922 21652 layer_factory.hpp:77] Creating layer flow_relu4a
I0324 21:56:59.341945 21652 net.cpp:91] Creating Layer flow_relu4a
I0324 21:56:59.341950 21652 net.cpp:425] flow_relu4a <- flow_conv4a
I0324 21:56:59.341958 21652 net.cpp:386] flow_relu4a -> flow_conv4a (in-place)
I0324 21:56:59.341967 21652 net.cpp:141] Setting up flow_relu4a
I0324 21:56:59.341972 21652 net.cpp:148] Top shape: 40 512 4 14 14 (16056320)
I0324 21:56:59.341975 21652 net.cpp:156] Memory required for data: 8124498080
I0324 21:56:59.341979 21652 layer_factory.hpp:77] Creating layer flow_conv4b
I0324 21:56:59.341989 21652 net.cpp:91] Creating Layer flow_conv4b
I0324 21:56:59.341994 21652 net.cpp:425] flow_conv4b <- flow_conv4a
I0324 21:56:59.341998 21652 net.cpp:399] flow_conv4b -> flow_conv4b
I0324 21:56:59.396853 21652 net.cpp:141] Setting up flow_conv4b
I0324 21:56:59.396889 21652 net.cpp:148] Top shape: 40 512 4 14 14 (16056320)
I0324 21:56:59.396893 21652 net.cpp:156] Memory required for data: 8188723360
I0324 21:56:59.396903 21652 layer_factory.hpp:77] Creating layer flow_relu4b
I0324 21:56:59.396916 21652 net.cpp:91] Creating Layer flow_relu4b
I0324 21:56:59.396922 21652 net.cpp:425] flow_relu4b <- flow_conv4b
I0324 21:56:59.396929 21652 net.cpp:386] flow_relu4b -> flow_conv4b (in-place)
I0324 21:56:59.396939 21652 net.cpp:141] Setting up flow_relu4b
I0324 21:56:59.396944 21652 net.cpp:148] Top shape: 40 512 4 14 14 (16056320)
I0324 21:56:59.396946 21652 net.cpp:156] Memory required for data: 8252948640
I0324 21:56:59.396950 21652 layer_factory.hpp:77] Creating layer flow_pool4
I0324 21:56:59.396956 21652 net.cpp:91] Creating Layer flow_pool4
I0324 21:56:59.396960 21652 net.cpp:425] flow_pool4 <- flow_conv4b
I0324 21:56:59.396965 21652 net.cpp:399] flow_pool4 -> flow_pool4
I0324 21:56:59.396988 21652 net.cpp:141] Setting up flow_pool4
I0324 21:56:59.396996 21652 net.cpp:148] Top shape: 40 512 2 7 7 (2007040)
I0324 21:56:59.396999 21652 net.cpp:156] Memory required for data: 8260976800
I0324 21:56:59.397002 21652 layer_factory.hpp:77] Creating layer flow_conv5a
I0324 21:56:59.397012 21652 net.cpp:91] Creating Layer flow_conv5a
I0324 21:56:59.397017 21652 net.cpp:425] flow_conv5a <- flow_pool4
I0324 21:56:59.397022 21652 net.cpp:399] flow_conv5a -> flow_conv5a
I0324 21:56:59.451939 21652 net.cpp:141] Setting up flow_conv5a
I0324 21:56:59.451979 21652 net.cpp:148] Top shape: 40 512 2 7 7 (2007040)
I0324 21:56:59.451984 21652 net.cpp:156] Memory required for data: 8269004960
I0324 21:56:59.451993 21652 layer_factory.hpp:77] Creating layer flow_relu5a
I0324 21:56:59.452003 21652 net.cpp:91] Creating Layer flow_relu5a
I0324 21:56:59.452008 21652 net.cpp:425] flow_relu5a <- flow_conv5a
I0324 21:56:59.452015 21652 net.cpp:386] flow_relu5a -> flow_conv5a (in-place)
I0324 21:56:59.452025 21652 net.cpp:141] Setting up flow_relu5a
I0324 21:56:59.452030 21652 net.cpp:148] Top shape: 40 512 2 7 7 (2007040)
I0324 21:56:59.452033 21652 net.cpp:156] Memory required for data: 8277033120
I0324 21:56:59.452036 21652 layer_factory.hpp:77] Creating layer flow_conv5b
I0324 21:56:59.452047 21652 net.cpp:91] Creating Layer flow_conv5b
I0324 21:56:59.452051 21652 net.cpp:425] flow_conv5b <- flow_conv5a
I0324 21:56:59.452056 21652 net.cpp:399] flow_conv5b -> flow_conv5b
I0324 21:56:59.506963 21652 net.cpp:141] Setting up flow_conv5b
I0324 21:56:59.506997 21652 net.cpp:148] Top shape: 40 512 2 7 7 (2007040)
I0324 21:56:59.507001 21652 net.cpp:156] Memory required for data: 8285061280
I0324 21:56:59.507010 21652 layer_factory.hpp:77] Creating layer flow_relu5b
I0324 21:56:59.507021 21652 net.cpp:91] Creating Layer flow_relu5b
I0324 21:56:59.507026 21652 net.cpp:425] flow_relu5b <- flow_conv5b
I0324 21:56:59.507033 21652 net.cpp:386] flow_relu5b -> flow_conv5b (in-place)
I0324 21:56:59.507041 21652 net.cpp:141] Setting up flow_relu5b
I0324 21:56:59.507046 21652 net.cpp:148] Top shape: 40 512 2 7 7 (2007040)
I0324 21:56:59.507050 21652 net.cpp:156] Memory required for data: 8293089440
I0324 21:56:59.507053 21652 layer_factory.hpp:77] Creating layer flow_pool5
I0324 21:56:59.507058 21652 net.cpp:91] Creating Layer flow_pool5
I0324 21:56:59.507078 21652 net.cpp:425] flow_pool5 <- flow_conv5b
I0324 21:56:59.507086 21652 net.cpp:399] flow_pool5 -> flow_pool5
I0324 21:56:59.507112 21652 net.cpp:141] Setting up flow_pool5
I0324 21:56:59.507117 21652 net.cpp:148] Top shape: 40 512 1 4 4 (327680)
I0324 21:56:59.507120 21652 net.cpp:156] Memory required for data: 8294400160
I0324 21:56:59.507124 21652 layer_factory.hpp:77] Creating layer flow_fc6
I0324 21:56:59.507133 21652 net.cpp:91] Creating Layer flow_fc6
I0324 21:56:59.507135 21652 net.cpp:425] flow_fc6 <- flow_pool5
I0324 21:56:59.507141 21652 net.cpp:399] flow_fc6 -> flow_fc6
I0324 21:56:59.765471 21652 net.cpp:141] Setting up flow_fc6
I0324 21:56:59.765508 21652 net.cpp:148] Top shape: 40 4096 (163840)
I0324 21:56:59.765512 21652 net.cpp:156] Memory required for data: 8295055520
I0324 21:56:59.765528 21652 layer_factory.hpp:77] Creating layer flow_relu6
I0324 21:56:59.765539 21652 net.cpp:91] Creating Layer flow_relu6
I0324 21:56:59.765544 21652 net.cpp:425] flow_relu6 <- flow_fc6
I0324 21:56:59.765552 21652 net.cpp:386] flow_relu6 -> flow_fc6 (in-place)
I0324 21:56:59.765560 21652 net.cpp:141] Setting up flow_relu6
I0324 21:56:59.765565 21652 net.cpp:148] Top shape: 40 4096 (163840)
I0324 21:56:59.765568 21652 net.cpp:156] Memory required for data: 8295710880
I0324 21:56:59.765573 21652 layer_factory.hpp:77] Creating layer flow_drop6
I0324 21:56:59.765578 21652 net.cpp:91] Creating Layer flow_drop6
I0324 21:56:59.765581 21652 net.cpp:425] flow_drop6 <- flow_fc6
I0324 21:56:59.765586 21652 net.cpp:386] flow_drop6 -> flow_fc6 (in-place)
I0324 21:56:59.765614 21652 net.cpp:141] Setting up flow_drop6
I0324 21:56:59.765620 21652 net.cpp:148] Top shape: 40 4096 (163840)
I0324 21:56:59.765625 21652 net.cpp:156] Memory required for data: 8296366240
I0324 21:56:59.765630 21652 layer_factory.hpp:77] Creating layer flow_fc7
I0324 21:56:59.765636 21652 net.cpp:91] Creating Layer flow_fc7
I0324 21:56:59.765640 21652 net.cpp:425] flow_fc7 <- flow_fc6
I0324 21:56:59.765650 21652 net.cpp:399] flow_fc7 -> flow_fc7
I0324 21:56:59.895028 21652 net.cpp:141] Setting up flow_fc7
I0324 21:56:59.895067 21652 net.cpp:148] Top shape: 40 4096 (163840)
I0324 21:56:59.895071 21652 net.cpp:156] Memory required for data: 8297021600
I0324 21:56:59.895082 21652 layer_factory.hpp:77] Creating layer flow_relu7
I0324 21:56:59.895093 21652 net.cpp:91] Creating Layer flow_relu7
I0324 21:56:59.895098 21652 net.cpp:425] flow_relu7 <- flow_fc7
I0324 21:56:59.895107 21652 net.cpp:386] flow_relu7 -> flow_fc7 (in-place)
I0324 21:56:59.895117 21652 net.cpp:141] Setting up flow_relu7
I0324 21:56:59.895120 21652 net.cpp:148] Top shape: 40 4096 (163840)
I0324 21:56:59.895123 21652 net.cpp:156] Memory required for data: 8297676960
I0324 21:56:59.895128 21652 layer_factory.hpp:77] Creating layer flow_drop7
I0324 21:56:59.895133 21652 net.cpp:91] Creating Layer flow_drop7
I0324 21:56:59.895136 21652 net.cpp:425] flow_drop7 <- flow_fc7
I0324 21:56:59.895141 21652 net.cpp:386] flow_drop7 -> flow_fc7 (in-place)
I0324 21:56:59.895164 21652 net.cpp:141] Setting up flow_drop7
I0324 21:56:59.895170 21652 net.cpp:148] Top shape: 40 4096 (163840)
I0324 21:56:59.895174 21652 net.cpp:156] Memory required for data: 8298332320
I0324 21:56:59.895177 21652 layer_factory.hpp:77] Creating layer flow_fc8
I0324 21:56:59.895184 21652 net.cpp:91] Creating Layer flow_fc8
I0324 21:56:59.895189 21652 net.cpp:425] flow_fc8 <- flow_fc7
I0324 21:56:59.895193 21652 net.cpp:399] flow_fc8 -> flow_fc8
I0324 21:56:59.895612 21652 net.cpp:141] Setting up flow_fc8
I0324 21:56:59.895620 21652 net.cpp:148] Top shape: 40 12 (480)
I0324 21:56:59.895624 21652 net.cpp:156] Memory required for data: 8298334240
I0324 21:56:59.895629 21652 layer_factory.hpp:77] Creating layer loss
I0324 21:56:59.895635 21652 net.cpp:91] Creating Layer loss
I0324 21:56:59.895638 21652 net.cpp:425] loss <- flow_fc8
I0324 21:56:59.895643 21652 net.cpp:425] loss <- label
I0324 21:56:59.895651 21652 net.cpp:399] loss -> loss
I0324 21:56:59.895660 21652 layer_factory.hpp:77] Creating layer loss
…
I0324 21:57:00.076797 21652 net.cpp:49] Initializing net from parameters: 
name: "C3D_net"
state {
  phase: TEST
}
layer {
  name: "data"
  type: "FlowData"
  top: "data"
  top: "label"
  include {
    phase: TEST
  }
  transform_param {
    mirror: false
    crop_size: 112
    mean_value: 128
    fix_crop: false
    multi_scale: false
    is_flow: true
    new_height: 128
    new_width: 171
  }
  flow_data_param {
    source: "/media/tranlaman/data/new-caffe-database/hollywood2_comp_tvl1_overlapping_len16_train_test_split1/val_flow_lmdb/"
    batch_size: 1
    new_length: 16
    modality: FLOW
    backend: LMDB
  }
}
layer {
  name: "reshape"
  type: "Reshape"
  bottom: "data"
  top: "vol_data"
  reshape_param {
    shape {
      dim: 2
      dim: -1
    }
    axis: 1
    num_axes: 1
  }
}
layer {
  name: "flow_conv1a"
  type: "Convolution"
  bottom: "vol_data"
  top: "flow_conv1a"
  param {
    lr_mult: 1
    decay_mult: 1
  }
  param {
    lr_mult: 2
    decay_mult: 0
  }
  convolution_param {
    num_output: 64
    pad: 1
    kernel_size: 3
    weight_filler {
      type: "gaussian"
      std: 0.01
    }
    bias_filler {
      type: "constant"
      value: 0
    }
    engine: CAFFE
    axis: 1
  }
}
layer {
  name: "flow_relu1a"
  type: "ReLU"
  bottom: "flow_conv1a"
  top: "flow_conv1a"
  relu_param {
    engine: CAFFE
  }
}
layer {
  name: "flow_pool1"
  type: "Pooling3D"
  bottom: "flow_conv1a"
  top: "flow_pool1"
  pooling3d_param {
    pool: MAX
    kernel_size: 2
    stride: 2
    kernel_depth: 1
    temporal_stride: 1
  }
}
layer {
  name: "flow_conv2a"
  type: "Convolution"
  bottom: "flow_pool1"
  top: "flow_conv2a"
  param {
    lr_mult: 1
    decay_mult: 1
  }
  param {
    lr_mult: 2
    decay_mult: 0
  }
  convolution_param {
    num_output: 128
    pad: 1
    kernel_size: 3
    weight_filler {
      type: "gaussian"
      std: 0.01
    }
    bias_filler {
      type: "constant"
      value: 1
    }
    engine: CAFFE
    axis: 1
  }
}
layer {
  name: "flow_relu2a"
  type: "ReLU"
  bottom: "flow_conv2a"
  top: "flow_conv2a"
  relu_param {
    engine: CAFFE
  }
}
layer {
  name: "flow_pool2"
  type: "Pooling3D"
  bottom: "flow_conv2a"
  top: "flow_pool2"
  pooling3d_param {
    pool: MAX
    kernel_size: 2
    stride: 2
    kernel_depth: 2
    temporal_stride: 2
  }
}
layer {
  name: "flow_conv3a"
  type: "Convolution"
  bottom: "flow_pool2"
  top: "flow_conv3a"
  param {
    lr_mult: 1
    decay_mult: 1
  }
  param {
    lr_mult: 2
    decay_mult: 0
  }
  convolution_param {
    num_output: 256
    pad: 1
    kernel_size: 3
    weight_filler {
      type: "gaussian"
      std: 0.01
    }
    bias_filler {
      type: "constant"
      value: 1
    }
    engine: CAFFE
    axis: 1
  }
}
layer {
  name: "flow_relu3a"
  type: "ReLU"
  bottom: "flow_conv3a"
  top: "flow_conv3a"
  relu_param {
    engine: CAFFE
  }
}
layer {
  name: "flow_conv3b"
  type: "Convolution"
  bottom: "flow_conv3a"
  top: "flow_conv3b"
  param {
    lr_mult: 1
    decay_mult: 1
  }
  param {
    lr_mult: 2
    decay_mult: 0
  }
  convolution_param {
    num_output: 256
    pad: 1
    kernel_size: 3
    weight_filler {
      type: "gaussian"
      std: 0.01
    }
    bias_filler {
      type: "constant"
      value: 1
    }
    engine: CAFFE
    axis: 1
  }
}
layer {
  name: "flow_relu3b"
  type: "ReLU"
  bottom: "flow_conv3b"
  top: "flow_conv3b"
  relu_param {
    engine: CAFFE
  }
}
layer {
  name: "flow_pool3"
  type: "Pooling3D"
  bottom: "flow_conv3b"
  top: "flow_pool3"
  pooling3d_param {
    pool: MAX
    kernel_size: 2
    stride: 2
    kernel_depth: 2
    temporal_stride: 2
  }
}
layer {
  name: "flow_conv4a"
  type: "Convolution"
  bottom: "flow_pool3"
  top: "flow_conv4a"
  param {
    lr_mult: 1
    decay_mult: 1
  }
  param {
    lr_mult: 2
    decay_mult: 0
  }
  convolution_param {
    num_output: 512
    pad: 1
    kernel_size: 3
    weight_filler {
      type: "gaussian"
      std: 0.01
    }
    bias_filler {
      type: "constant"
      value: 1
    }
    engine: CAFFE
    axis: 1
  }
}
layer {
  name: "flow_relu4a"
  type: "ReLU"
  bottom: "flow_conv4a"
  top: "flow_conv4a"
  relu_param {
    engine: CAFFE
  }
}
layer {
  name: "flow_conv4b"
  type: "Convolution"
  bottom: "flow_conv4a"
  top: "flow_conv4b"
  param {
    lr_mult: 1
    decay_mult: 1
  }
  param {
    lr_mult: 2
    decay_mult: 0
  }
  convolution_param {
    num_output: 512
    pad: 1
    kernel_size: 3
    weight_filler {
      type: "gaussian"
      std: 0.01
    }
    bias_filler {
      type: "constant"
      value: 1
    }
    engine: CAFFE
    axis: 1
  }
}
layer {
  name: "flow_relu4b"
  type: "ReLU"
  bottom: "flow_conv4b"
  top: "flow_conv4b"
  relu_param {
    engine: CAFFE
  }
}
layer {
  name: "flow_pool4"
  type: "Pooling3D"
  bottom: "flow_conv4b"
  top: "flow_pool4"
  pooling3d_param {
    pool: MAX
    kernel_size: 2
    stride: 2
    kernel_depth: 2
    temporal_stride: 2
  }
}
layer {
  name: "flow_conv5a"
  type: "Convolution"
  bottom: "flow_pool4"
  top: "flow_conv5a"
  param {
    lr_mult: 1
    decay_mult: 1
  }
  param {
    lr_mult: 2
    decay_mult: 0
  }
  convolution_param {
    num_output: 512
    pad: 1
    kernel_size: 3
    weight_filler {
      type: "gaussian"
      std: 0.01
    }
    bias_filler {
      type: "constant"
      value: 1
    }
    engine: CAFFE
    axis: 1
  }
}
layer {
  name: "flow_relu5a"
  type: "ReLU"
  bottom: "flow_conv5a"
  top: "flow_conv5a"
  relu_param {
    engine: CAFFE
  }
}
layer {
  name: "flow_conv5b"
  type: "Convolution"
  bottom: "flow_conv5a"
  top: "flow_conv5b"
  param {
    lr_mult: 1
    decay_mult: 1
  }
  param {
    lr_mult: 2
    decay_mult: 0
  }
  convolution_param {
    num_output: 512
    pad: 1
    kernel_size: 3
    weight_filler {
      type: "gaussian"
      std: 0.01
    }
    bias_filler {
      type: "constant"
      value: 1
    }
    engine: CAFFE
    axis: 1
  }
}
layer {
  name: "flow_relu5b"
  type: "ReLU"
  bottom: "flow_conv5b"
  top: "flow_conv5b"
  relu_param {
    engine: CAFFE
  }
}
layer {
  name: "flow_pool5"
  type: "Pooling3D"
  bottom: "flow_conv5b"
  top: "flow_pool5"
  pooling3d_param {
    pool: MAX
    kernel_size: 2
    stride: 2
    kernel_depth: 2
    temporal_stride: 2
  }
}
layer {
  name: "flow_fc6"
  type: "InnerProduct"
  bottom: "flow_pool5"
  top: "flow_fc6"
  param {
    lr_mult: 1
    decay_mult: 1
  }
  param {
    lr_mult: 2
    decay_mult: 0
  }
  inner_product_param {
    num_output: 4096
    weight_filler {
      type: "gaussian"
      std: 0.005
    }
    bias_filler {
      type: "constant"
      value: 1
    }
  }
}
layer {
  name: "flow_relu6"
  type: "ReLU"
  bottom: "flow_fc6"
  top: "flow_fc6"
  relu_param {
    engine: CAFFE
  }
}
layer {
  name: "flow_drop6"
  type: "Dropout"
  bottom: "flow_fc6"
  top: "flow_fc6"
  dropout_param {
    dropout_ratio: 0.9
  }
}
layer {
  name: "flow_fc7"
  type: "InnerProduct"
  bottom: "flow_fc6"
  top: "flow_fc7"
  param {
    lr_mult: 1
    decay_mult: 1
  }
  param {
    lr_mult: 2
    decay_mult: 0
  }
  inner_product_param {
    num_output: 4096
    weight_filler {
      type: "gaussian"
      std: 0.005
    }
    bias_filler {
      type: "constant"
      value: 1
    }
  }
}
layer {
  name: "flow_relu7"
  type: "ReLU"
  bottom: "flow_fc7"
  top: "flow_fc7"
  relu_param {
    engine: CAFFE
  }
}
layer {
  name: "flow_drop7"
  type: "Dropout"
  bottom: "flow_fc7"
  top: "flow_fc7"
  dropout_param {
    dropout_ratio: 0.8
  }
}
layer {
  name: "flow_fc8"
  type: "InnerProduct"
  bottom: "flow_fc7"
  top: "flow_fc8"
  param {
    lr_mult: 1
    decay_mult: 1
  }
  param {
    lr_mult: 2
    decay_mult: 0
  }
  inner_product_param {
    num_output: 12
    weight_filler {
      type: "gaussian"
      std: 0.01
    }
    bias_filler {
      type: "constant"
      value: 0
    }
  }
}
layer {
  name: "accuracy"
  type: "Accuracy"
  bottom: "flow_fc8"
  bottom: "label"
  top: "accuracy"
  include {
    phase: TEST
  }
}
layer {
  name: "loss"
  type: "SoftmaxWithLoss"
  bottom: "flow_fc8"
  bottom: "label"
  top: "loss"
}
I0324 21:57:00.076889 21652 layer_factory.hpp:77] Creating layer data
I0324 21:57:00.076958 21652 net.cpp:91] Creating Layer data
I0324 21:57:00.076983 21652 net.cpp:399] data -> data
I0324 21:57:00.076992 21652 net.cpp:399] data -> label
I0324 21:57:00.078522 21660 db_lmdb.cpp:38] Opened lmdb /media/tranlaman/data/new-caffe-database/hollywood2_comp_tvl1_overlapping_len16_train_test_split1/val_flow_lmdb/
I0324 21:57:00.079735 21652 flow_data_layer.cpp:40] Extracting 1-view features in TEST phase.
I0324 21:57:00.079849 21652 flow_data_layer.cpp:52] output data size: 1,32,112,112
I0324 21:57:00.087015 21652 net.cpp:141] Setting up data
I0324 21:57:00.087047 21652 net.cpp:148] Top shape: 1 32 112 112 (401408)
I0324 21:57:00.087054 21652 net.cpp:148] Top shape: 1 (1)
I0324 21:57:00.087057 21652 net.cpp:156] Memory required for data: 1605636
I0324 21:57:00.087064 21652 layer_factory.hpp:77] Creating layer label_data_1_split
I0324 21:57:00.087075 21652 net.cpp:91] Creating Layer label_data_1_split
I0324 21:57:00.087086 21652 net.cpp:425] label_data_1_split <- label
I0324 21:57:00.087100 21652 net.cpp:399] label_data_1_split -> label_data_1_split_0
I0324 21:57:00.087110 21652 net.cpp:399] label_data_1_split -> label_data_1_split_1
I0324 21:57:00.087203 21652 net.cpp:141] Setting up label_data_1_split
I0324 21:57:00.087213 21652 net.cpp:148] Top shape: 1 (1)
I0324 21:57:00.087216 21652 net.cpp:148] Top shape: 1 (1)
I0324 21:57:00.087219 21652 net.cpp:156] Memory required for data: 1605644
I0324 21:57:00.087222 21652 layer_factory.hpp:77] Creating layer reshape
I0324 21:57:00.087231 21652 net.cpp:91] Creating Layer reshape
I0324 21:57:00.087235 21652 net.cpp:425] reshape <- data
I0324 21:57:00.087240 21652 net.cpp:399] reshape -> vol_data
I0324 21:57:00.087312 21652 net.cpp:141] Setting up reshape
I0324 21:57:00.087323 21652 net.cpp:148] Top shape: 1 2 16 112 112 (401408)
I0324 21:57:00.087327 21652 net.cpp:156] Memory required for data: 3211276
I0324 21:57:00.087330 21652 layer_factory.hpp:77] Creating layer flow_conv1a
I0324 21:57:00.087342 21652 net.cpp:91] Creating Layer flow_conv1a
I0324 21:57:00.087345 21652 net.cpp:425] flow_conv1a <- vol_data
I0324 21:57:00.087352 21652 net.cpp:399] flow_conv1a -> flow_conv1a
I0324 21:57:00.088207 21652 net.cpp:141] Setting up flow_conv1a
I0324 21:57:00.088220 21652 net.cpp:148] Top shape: 1 64 16 112 112 (12845056)
I0324 21:57:00.088224 21652 net.cpp:156] Memory required for data: 54591500
I0324 21:57:00.088234 21652 layer_factory.hpp:77] Creating layer flow_relu1a
I0324 21:57:00.088243 21652 net.cpp:91] Creating Layer flow_relu1a
I0324 21:57:00.088248 21652 net.cpp:425] flow_relu1a <- flow_conv1a
I0324 21:57:00.088253 21652 net.cpp:386] flow_relu1a -> flow_conv1a (in-place)
I0324 21:57:00.088258 21652 net.cpp:141] Setting up flow_relu1a
I0324 21:57:00.088263 21652 net.cpp:148] Top shape: 1 64 16 112 112 (12845056)
I0324 21:57:00.088266 21652 net.cpp:156] Memory required for data: 105971724
I0324 21:57:00.088269 21652 layer_factory.hpp:77] Creating layer flow_pool1
I0324 21:57:00.088276 21652 net.cpp:91] Creating Layer flow_pool1
I0324 21:57:00.088279 21652 net.cpp:425] flow_pool1 <- flow_conv1a
I0324 21:57:00.088284 21652 net.cpp:399] flow_pool1 -> flow_pool1
I0324 21:57:00.088310 21652 net.cpp:141] Setting up flow_pool1
I0324 21:57:00.088318 21652 net.cpp:148] Top shape: 1 64 16 56 56 (3211264)
I0324 21:57:00.088322 21652 net.cpp:156] Memory required for data: 118816780
I0324 21:57:00.088325 21652 layer_factory.hpp:77] Creating layer flow_conv2a
I0324 21:57:00.088335 21652 net.cpp:91] Creating Layer flow_conv2a
I0324 21:57:00.088337 21652 net.cpp:425] flow_conv2a <- flow_pool1
I0324 21:57:00.088343 21652 net.cpp:399] flow_conv2a -> flow_conv2a
I0324 21:57:00.090692 21652 net.cpp:141] Setting up flow_conv2a
I0324 21:57:00.090708 21652 net.cpp:148] Top shape: 1 128 16 56 56 (6422528)
I0324 21:57:00.090711 21652 net.cpp:156] Memory required for data: 144506892
I0324 21:57:00.090719 21652 layer_factory.hpp:77] Creating layer flow_relu2a
I0324 21:57:00.090726 21652 net.cpp:91] Creating Layer flow_relu2a
I0324 21:57:00.090730 21652 net.cpp:425] flow_relu2a <- flow_conv2a
I0324 21:57:00.090736 21652 net.cpp:386] flow_relu2a -> flow_conv2a (in-place)
I0324 21:57:00.090744 21652 net.cpp:141] Setting up flow_relu2a
I0324 21:57:00.090747 21652 net.cpp:148] Top shape: 1 128 16 56 56 (6422528)
I0324 21:57:00.090751 21652 net.cpp:156] Memory required for data: 170197004
I0324 21:57:00.090754 21652 layer_factory.hpp:77] Creating layer flow_pool2
I0324 21:57:00.090759 21652 net.cpp:91] Creating Layer flow_pool2
I0324 21:57:00.090764 21652 net.cpp:425] flow_pool2 <- flow_conv2a
I0324 21:57:00.090767 21652 net.cpp:399] flow_pool2 -> flow_pool2
I0324 21:57:00.090792 21652 net.cpp:141] Setting up flow_pool2
I0324 21:57:00.090801 21652 net.cpp:148] Top shape: 1 128 8 28 28 (802816)
I0324 21:57:00.090804 21652 net.cpp:156] Memory required for data: 173408268
I0324 21:57:00.090807 21652 layer_factory.hpp:77] Creating layer flow_conv3a
I0324 21:57:00.090816 21652 net.cpp:91] Creating Layer flow_conv3a
I0324 21:57:00.090824 21652 net.cpp:425] flow_conv3a <- flow_pool2
I0324 21:57:00.090836 21652 net.cpp:399] flow_conv3a -> flow_conv3a
I0324 21:57:00.098953 21652 net.cpp:141] Setting up flow_conv3a
I0324 21:57:00.098970 21652 net.cpp:148] Top shape: 1 256 8 28 28 (1605632)
I0324 21:57:00.098973 21652 net.cpp:156] Memory required for data: 179830796
I0324 21:57:00.098983 21652 layer_factory.hpp:77] Creating layer flow_relu3a
I0324 21:57:00.098990 21652 net.cpp:91] Creating Layer flow_relu3a
I0324 21:57:00.098994 21652 net.cpp:425] flow_relu3a <- flow_conv3a
I0324 21:57:00.098999 21652 net.cpp:386] flow_relu3a -> flow_conv3a (in-place)
I0324 21:57:00.099005 21652 net.cpp:141] Setting up flow_relu3a
I0324 21:57:00.099010 21652 net.cpp:148] Top shape: 1 256 8 28 28 (1605632)
I0324 21:57:00.099014 21652 net.cpp:156] Memory required for data: 186253324
I0324 21:57:00.099016 21652 layer_factory.hpp:77] Creating layer flow_conv3b
I0324 21:57:00.099025 21652 net.cpp:91] Creating Layer flow_conv3b
I0324 21:57:00.099028 21652 net.cpp:425] flow_conv3b <- flow_conv3a
I0324 21:57:00.099035 21652 net.cpp:399] flow_conv3b -> flow_conv3b
I0324 21:57:00.114893 21652 net.cpp:141] Setting up flow_conv3b
I0324 21:57:00.114920 21652 net.cpp:148] Top shape: 1 256 8 28 28 (1605632)
I0324 21:57:00.114925 21652 net.cpp:156] Memory required for data: 192675852
I0324 21:57:00.114933 21652 layer_factory.hpp:77] Creating layer flow_relu3b
I0324 21:57:00.114943 21652 net.cpp:91] Creating Layer flow_relu3b
I0324 21:57:00.114948 21652 net.cpp:425] flow_relu3b <- flow_conv3b
I0324 21:57:00.114954 21652 net.cpp:386] flow_relu3b -> flow_conv3b (in-place)
I0324 21:57:00.114961 21652 net.cpp:141] Setting up flow_relu3b
I0324 21:57:00.114966 21652 net.cpp:148] Top shape: 1 256 8 28 28 (1605632)
I0324 21:57:00.114969 21652 net.cpp:156] Memory required for data: 199098380
I0324 21:57:00.114972 21652 layer_factory.hpp:77] Creating layer flow_pool3
I0324 21:57:00.114979 21652 net.cpp:91] Creating Layer flow_pool3
I0324 21:57:00.114984 21652 net.cpp:425] flow_pool3 <- flow_conv3b
I0324 21:57:00.114987 21652 net.cpp:399] flow_pool3 -> flow_pool3
I0324 21:57:00.115012 21652 net.cpp:141] Setting up flow_pool3
I0324 21:57:00.115020 21652 net.cpp:148] Top shape: 1 256 4 14 14 (200704)
I0324 21:57:00.115023 21652 net.cpp:156] Memory required for data: 199901196
I0324 21:57:00.115026 21652 layer_factory.hpp:77] Creating layer flow_conv4a
I0324 21:57:00.115036 21652 net.cpp:91] Creating Layer flow_conv4a
I0324 21:57:00.115041 21652 net.cpp:425] flow_conv4a <- flow_pool3
I0324 21:57:00.115046 21652 net.cpp:399] flow_conv4a -> flow_conv4a
I0324 21:57:00.146623 21652 net.cpp:141] Setting up flow_conv4a
I0324 21:57:00.146657 21652 net.cpp:148] Top shape: 1 512 4 14 14 (401408)
I0324 21:57:00.146661 21652 net.cpp:156] Memory required for data: 201506828
I0324 21:57:00.146674 21652 layer_factory.hpp:77] Creating layer flow_relu4a
I0324 21:57:00.146683 21652 net.cpp:91] Creating Layer flow_relu4a
I0324 21:57:00.146689 21652 net.cpp:425] flow_relu4a <- flow_conv4a
I0324 21:57:00.146695 21652 net.cpp:386] flow_relu4a -> flow_conv4a (in-place)
I0324 21:57:00.146703 21652 net.cpp:141] Setting up flow_relu4a
I0324 21:57:00.146708 21652 net.cpp:148] Top shape: 1 512 4 14 14 (401408)
I0324 21:57:00.146711 21652 net.cpp:156] Memory required for data: 203112460
I0324 21:57:00.146715 21652 layer_factory.hpp:77] Creating layer flow_conv4b
I0324 21:57:00.146728 21652 net.cpp:91] Creating Layer flow_conv4b
I0324 21:57:00.146733 21652 net.cpp:425] flow_conv4b <- flow_conv4a
I0324 21:57:00.146739 21652 net.cpp:399] flow_conv4b -> flow_conv4b
I0324 21:57:00.209575 21652 net.cpp:141] Setting up flow_conv4b
I0324 21:57:00.209609 21652 net.cpp:148] Top shape: 1 512 4 14 14 (401408)
I0324 21:57:00.209614 21652 net.cpp:156] Memory required for data: 204718092
I0324 21:57:00.209622 21652 layer_factory.hpp:77] Creating layer flow_relu4b
I0324 21:57:00.209632 21652 net.cpp:91] Creating Layer flow_relu4b
I0324 21:57:00.209637 21652 net.cpp:425] flow_relu4b <- flow_conv4b
I0324 21:57:00.209645 21652 net.cpp:386] flow_relu4b -> flow_conv4b (in-place)
I0324 21:57:00.209667 21652 net.cpp:141] Setting up flow_relu4b
I0324 21:57:00.209672 21652 net.cpp:148] Top shape: 1 512 4 14 14 (401408)
I0324 21:57:00.209676 21652 net.cpp:156] Memory required for data: 206323724
I0324 21:57:00.209679 21652 layer_factory.hpp:77] Creating layer flow_pool4
I0324 21:57:00.209686 21652 net.cpp:91] Creating Layer flow_pool4
I0324 21:57:00.209689 21652 net.cpp:425] flow_pool4 <- flow_conv4b
I0324 21:57:00.209694 21652 net.cpp:399] flow_pool4 -> flow_pool4
I0324 21:57:00.209717 21652 net.cpp:141] Setting up flow_pool4
I0324 21:57:00.209727 21652 net.cpp:148] Top shape: 1 512 2 7 7 (50176)
I0324 21:57:00.209730 21652 net.cpp:156] Memory required for data: 206524428
I0324 21:57:00.209733 21652 layer_factory.hpp:77] Creating layer flow_conv5a
I0324 21:57:00.209743 21652 net.cpp:91] Creating Layer flow_conv5a
I0324 21:57:00.209748 21652 net.cpp:425] flow_conv5a <- flow_pool4
I0324 21:57:00.209753 21652 net.cpp:399] flow_conv5a -> flow_conv5a
I0324 21:57:00.272332 21652 net.cpp:141] Setting up flow_conv5a
I0324 21:57:00.272367 21652 net.cpp:148] Top shape: 1 512 2 7 7 (50176)
I0324 21:57:00.272372 21652 net.cpp:156] Memory required for data: 206725132
I0324 21:57:00.272380 21652 layer_factory.hpp:77] Creating layer flow_relu5a
I0324 21:57:00.272390 21652 net.cpp:91] Creating Layer flow_relu5a
I0324 21:57:00.272394 21652 net.cpp:425] flow_relu5a <- flow_conv5a
I0324 21:57:00.272403 21652 net.cpp:386] flow_relu5a -> flow_conv5a (in-place)
I0324 21:57:00.272411 21652 net.cpp:141] Setting up flow_relu5a
I0324 21:57:00.272416 21652 net.cpp:148] Top shape: 1 512 2 7 7 (50176)
I0324 21:57:00.272419 21652 net.cpp:156] Memory required for data: 206925836
I0324 21:57:00.272423 21652 layer_factory.hpp:77] Creating layer flow_conv5b
I0324 21:57:00.272431 21652 net.cpp:91] Creating Layer flow_conv5b
I0324 21:57:00.272434 21652 net.cpp:425] flow_conv5b <- flow_conv5a
I0324 21:57:00.272442 21652 net.cpp:399] flow_conv5b -> flow_conv5b
I0324 21:57:00.334444 21652 net.cpp:141] Setting up flow_conv5b
I0324 21:57:00.334477 21652 net.cpp:148] Top shape: 1 512 2 7 7 (50176)
I0324 21:57:00.334481 21652 net.cpp:156] Memory required for data: 207126540
I0324 21:57:00.334489 21652 layer_factory.hpp:77] Creating layer flow_relu5b
I0324 21:57:00.334498 21652 net.cpp:91] Creating Layer flow_relu5b
I0324 21:57:00.334503 21652 net.cpp:425] flow_relu5b <- flow_conv5b
I0324 21:57:00.334511 21652 net.cpp:386] flow_relu5b -> flow_conv5b (in-place)
I0324 21:57:00.334519 21652 net.cpp:141] Setting up flow_relu5b
I0324 21:57:00.334523 21652 net.cpp:148] Top shape: 1 512 2 7 7 (50176)
I0324 21:57:00.334527 21652 net.cpp:156] Memory required for data: 207327244
I0324 21:57:00.334529 21652 layer_factory.hpp:77] Creating layer flow_pool5
I0324 21:57:00.334535 21652 net.cpp:91] Creating Layer flow_pool5
I0324 21:57:00.334538 21652 net.cpp:425] flow_pool5 <- flow_conv5b
I0324 21:57:00.334543 21652 net.cpp:399] flow_pool5 -> flow_pool5
I0324 21:57:00.334571 21652 net.cpp:141] Setting up flow_pool5
I0324 21:57:00.334578 21652 net.cpp:148] Top shape: 1 512 1 4 4 (8192)
I0324 21:57:00.334580 21652 net.cpp:156] Memory required for data: 207360012
I0324 21:57:00.334583 21652 layer_factory.hpp:77] Creating layer flow_fc6
I0324 21:57:00.334591 21652 net.cpp:91] Creating Layer flow_fc6
I0324 21:57:00.334595 21652 net.cpp:425] flow_fc6 <- flow_pool5
I0324 21:57:00.334600 21652 net.cpp:399] flow_fc6 -> flow_fc6
I0324 21:57:00.578248 21652 net.cpp:141] Setting up flow_fc6
I0324 21:57:00.578300 21652 net.cpp:148] Top shape: 1 4096 (4096)
I0324 21:57:00.578305 21652 net.cpp:156] Memory required for data: 207376396
I0324 21:57:00.578320 21652 layer_factory.hpp:77] Creating layer flow_relu6
I0324 21:57:00.578331 21652 net.cpp:91] Creating Layer flow_relu6
I0324 21:57:00.578336 21652 net.cpp:425] flow_relu6 <- flow_fc6
I0324 21:57:00.578342 21652 net.cpp:386] flow_relu6 -> flow_fc6 (in-place)
I0324 21:57:00.578352 21652 net.cpp:141] Setting up flow_relu6
I0324 21:57:00.578356 21652 net.cpp:148] Top shape: 1 4096 (4096)
I0324 21:57:00.578366 21652 net.cpp:156] Memory required for data: 207392780
I0324 21:57:00.578377 21652 layer_factory.hpp:77] Creating layer flow_drop6
I0324 21:57:00.578384 21652 net.cpp:91] Creating Layer flow_drop6
I0324 21:57:00.578387 21652 net.cpp:425] flow_drop6 <- flow_fc6
I0324 21:57:00.578393 21652 net.cpp:386] flow_drop6 -> flow_fc6 (in-place)
I0324 21:57:00.578415 21652 net.cpp:141] Setting up flow_drop6
I0324 21:57:00.578423 21652 net.cpp:148] Top shape: 1 4096 (4096)
I0324 21:57:00.578425 21652 net.cpp:156] Memory required for data: 207409164
I0324 21:57:00.578428 21652 layer_factory.hpp:77] Creating layer flow_fc7
I0324 21:57:00.578435 21652 net.cpp:91] Creating Layer flow_fc7
I0324 21:57:00.578439 21652 net.cpp:425] flow_fc7 <- flow_fc6
I0324 21:57:00.578446 21652 net.cpp:399] flow_fc7 -> flow_fc7
I0324 21:57:00.700214 21652 net.cpp:141] Setting up flow_fc7
I0324 21:57:00.700248 21652 net.cpp:148] Top shape: 1 4096 (4096)
I0324 21:57:00.700253 21652 net.cpp:156] Memory required for data: 207425548
I0324 21:57:00.700260 21652 layer_factory.hpp:77] Creating layer flow_relu7
I0324 21:57:00.700269 21652 net.cpp:91] Creating Layer flow_relu7
I0324 21:57:00.700274 21652 net.cpp:425] flow_relu7 <- flow_fc7
I0324 21:57:00.700281 21652 net.cpp:386] flow_relu7 -> flow_fc7 (in-place)
I0324 21:57:00.700291 21652 net.cpp:141] Setting up flow_relu7
I0324 21:57:00.700295 21652 net.cpp:148] Top shape: 1 4096 (4096)
I0324 21:57:00.700299 21652 net.cpp:156] Memory required for data: 207441932
I0324 21:57:00.700301 21652 layer_factory.hpp:77] Creating layer flow_drop7
I0324 21:57:00.700307 21652 net.cpp:91] Creating Layer flow_drop7
I0324 21:57:00.700310 21652 net.cpp:425] flow_drop7 <- flow_fc7
I0324 21:57:00.700314 21652 net.cpp:386] flow_drop7 -> flow_fc7 (in-place)
I0324 21:57:00.700336 21652 net.cpp:141] Setting up flow_drop7
I0324 21:57:00.700342 21652 net.cpp:148] Top shape: 1 4096 (4096)
I0324 21:57:00.700345 21652 net.cpp:156] Memory required for data: 207458316
I0324 21:57:00.700348 21652 layer_factory.hpp:77] Creating layer flow_fc8
I0324 21:57:00.700356 21652 net.cpp:91] Creating Layer flow_fc8
I0324 21:57:00.700358 21652 net.cpp:425] flow_fc8 <- flow_fc7
I0324 21:57:00.700364 21652 net.cpp:399] flow_fc8 -> flow_fc8
I0324 21:57:00.700784 21652 net.cpp:141] Setting up flow_fc8
I0324 21:57:00.700794 21652 net.cpp:148] Top shape: 1 12 (12)
I0324 21:57:00.700798 21652 net.cpp:156] Memory required for data: 207458364
I0324 21:57:00.700803 21652 layer_factory.hpp:77] Creating layer flow_fc8_flow_fc8_0_split
I0324 21:57:00.700808 21652 net.cpp:91] Creating Layer flow_fc8_flow_fc8_0_split
I0324 21:57:00.700811 21652 net.cpp:425] flow_fc8_flow_fc8_0_split <- flow_fc8
I0324 21:57:00.700817 21652 net.cpp:399] flow_fc8_flow_fc8_0_split -> flow_fc8_flow_fc8_0_split_0
I0324 21:57:00.700822 21652 net.cpp:399] flow_fc8_flow_fc8_0_split -> flow_fc8_flow_fc8_0_split_1
I0324 21:57:00.700853 21652 net.cpp:141] Setting up flow_fc8_flow_fc8_0_split
I0324 21:57:00.700860 21652 net.cpp:148] Top shape: 1 12 (12)
I0324 21:57:00.700863 21652 net.cpp:148] Top shape: 1 12 (12)
I0324 21:57:00.700866 21652 net.cpp:156] Memory required for data: 207458460
I0324 21:57:00.700870 21652 layer_factory.hpp:77] Creating layer accuracy
I0324 21:57:00.700881 21652 net.cpp:91] Creating Layer accuracy
I0324 21:57:00.700886 21652 net.cpp:425] accuracy <- flow_fc8_flow_fc8_0_split_0
I0324 21:57:00.700889 21652 net.cpp:425] accuracy <- label_data_1_split_0
I0324 21:57:00.700894 21652 net.cpp:399] accuracy -> accuracy
…
