…
  top: "rgb_data"
  top: "flow_data"
  top: "label"
  include {
    phase: TRAIN
  }
  transform_param {
    mirror: true
    crop_size: 112
    mean_value: 128
    fix_crop: true
    multi_scale: false
    scale_ratios: 1
    scale_ratios: 0.875
    scale_ratios: 0.75
    scale_ratios: 0.66
    max_distort: 1
    new_height: 128
    new_width: 171
  }
  twostream_data_param {
    flow_source: "hmdb51_train_flow_len16_split01.txt"
    batch_size: 8
    new_length: 16
    rgb_source: "hmdb51_train_rgb_len16_split01.txt"
    preserve_temporal: true
  }
}
layer {
  name: "reshape_flow"
  type: "Reshape"
  bottom: "flow_data"
  top: "flow_vol_data"
  reshape_param {
    shape {
      dim: 2
      dim: -1
    }
    axis: 1
    num_axes: 1
  }
}
layer {
  name: "flow_conv1a"
  type: "Convolution"
  bottom: "flow_vol_data"
  top: "flow_conv1a"
  param {
    lr_mult: 1
    decay_mult: 1
  }
  param {
    lr_mult: 2
    decay_mult: 0
  }
  convolution_param {
    num_output: 64
    pad: 1
    kernel_size: 3
    weight_filler {
      type: "gaussian"
      std: 0.01
    }
    bias_filler {
      type: "constant"
      value: 0
    }
    engine: CAFFE
    axis: 1
  }
}
layer {
  name: "flow_relu1a"
  type: "ReLU"
  bottom: "flow_conv1a"
  top: "flow_conv1a"
  relu_param {
    engine: CAFFE
  }
}
layer {
  name: "flow_pool1"
  type: "Pooling3D"
  bottom: "flow_conv1a"
  top: "flow_pool1"
  pooling3d_param {
    pool: MAX
    kernel_size: 2
    stride: 2
    kernel_depth: 1
    temporal_stride: 1
  }
}
layer {
  name: "flow_pool1_reduce_dim"
  type: "Convolution"
  bottom: "flow_pool1"
  top: "flow_pool1_reduce_dim"
  param {
    lr_mult: 1
    decay_mult: 1
  }
  param {
    lr_mult: 2
    decay_mult: 0
  }
  propagate_down: false
  convolution_param {
    num_output: 1
    pad: 0
    kernel_size: 1
    stride: 1
    weight_filler {
      type: "constant"
      value: 0.015625
    }
    bias_filler {
      type: "constant"
      value: 0
    }
    engine: CAFFE
  }
}
layer {
  name: "flow_pool1_normalized"
  type: "MVN_ND"
  bottom: "flow_pool1_reduce_dim"
  top: "flow_pool1_reduce_dim"
  mvn_param {
    axis: 2
  }
}
layer {
  name: "flow_pool1_attention"
  type: "Sigmoid"
  bottom: "flow_pool1_reduce_dim"
  top: "flow_pool1_attention"
  sigmoid_param {
    engine: CAFFE
  }
}
layer {
  name: "flow_pool1_attention_tiled"
  type: "Tile"
  bottom: "flow_pool1_attention"
  top: "flow_pool1_attention_tiled"
  tile_param {
    axis: 1
    tiles: 64
  }
}
layer {
  name: "reshape_rgb"
  type: "Reshape"
  bottom: "rgb_data"
  top: "rgb_vol_data"
  reshape_param {
    shape {
      dim: 3
      dim: -1
    }
    axis: 1
    num_axes: 1
  }
}
layer {
  name: "rgb_conv1a"
  type: "Convolution"
  bottom: "rgb_vol_data"
  top: "rgb_conv1a"
  param {
    lr_mult: 1
    decay_mult: 1
  }
  param {
    lr_mult: 2
    decay_mult: 0
  }
  convolution_param {
    num_output: 64
    pad: 1
    kernel_size: 3
    weight_filler {
      type: "gaussian"
      std: 0.01
    }
    bias_filler {
      type: "constant"
      value: 0
    }
    engine: CAFFE
    axis: 1
  }
}
layer {
  name: "rgb_relu1a"
  type: "ReLU"
  bottom: "rgb_conv1a"
  top: "rgb_conv1a"
  relu_param {
    engine: CAFFE
  }
}
layer {
  name: "rgb_pool1"
  type: "Pooling3D"
  bottom: "rgb_conv1a"
  top: "rgb_pool1"
  pooling3d_param {
    pool: MAX
    kernel_size: 2
    stride: 2
    kernel_depth: 1
    temporal_stride: 1
  }
}
layer {
  name: "rgb_pool1_feature_attention"
  type: "Eltwise"
  bottom: "rgb_pool1"
  bottom: "flow_pool1_attention_tiled"
  top: "rgb_pool1_feature_attention"
  eltwise_param {
    operation: PROD
  }
}
layer {
  name: "rgb_conv2a"
  type: "Convolution"
  bottom: "rgb_pool1_feature_attention"
  top: "rgb_conv2a"
  param {
    lr_mult: 1
    decay_mult: 1
  }
  param {
    lr_mult: 2
    decay_mult: 0
  }
  convolution_param {
    num_output: 128
    pad: 1
    kernel_size: 3
    weight_filler {
      type: "gaussian"
      std: 0.01
    }
    bias_filler {
      type: "constant"
      value: 1
    }
    engine: CAFFE
    axis: 1
  }
}
layer {
  name: "rgb_relu2a"
  type: "ReLU"
  bottom: "rgb_conv2a"
  top: "rgb_conv2a"
  relu_param {
    engine: CAFFE
  }
}
layer {
  name: "rgb_pool2"
  type: "Pooling3D"
  bottom: "rgb_conv2a"
  top: "rgb_pool2"
  pooling3d_param {
    pool: MAX
    kernel_size: 2
    stride: 2
    kernel_depth: 2
    temporal_stride: 2
  }
}
layer {
  name: "rgb_conv3a"
  type: "Convolution"
  bottom: "rgb_pool2"
  top: "rgb_conv3a"
  param {
    lr_mult: 1
    decay_mult: 1
  }
  param {
    lr_mult: 2
    decay_mult: 0
  }
  convolution_param {
    num_output: 256
    pad: 1
    kernel_size: 3
    weight_filler {
      type: "gaussian"
      std: 0.01
    }
    bias_filler {
      type: "constant"
      value: 1
    }
    engine: CAFFE
    axis: 1
  }
}
layer {
  name: "rgb_relu3a"
  type: "ReLU"
  bottom: "rgb_conv3a"
  top: "rgb_conv3a"
  relu_param {
    engine: CAFFE
  }
}
layer {
  name: "rgb_conv3b"
  type: "Convolution"
  bottom: "rgb_conv3a"
  top: "rgb_conv3b"
  param {
    lr_mult: 1
    decay_mult: 1
  }
  param {
    lr_mult: 2
    decay_mult: 0
  }
  convolution_param {
    num_output: 256
    pad: 1
    kernel_size: 3
    weight_filler {
      type: "gaussian"
      std: 0.01
    }
    bias_filler {
      type: "constant"
      value: 1
    }
    engine: CAFFE
    axis: 1
  }
}
layer {
  name: "rgb_relu3b"
  type: "ReLU"
  bottom: "rgb_conv3b"
  top: "rgb_conv3b"
  relu_param {
    engine: CAFFE
  }
}
layer {
  name: "rgb_pool3"
  type: "Pooling3D"
  bottom: "rgb_conv3b"
  top: "rgb_pool3"
  pooling3d_param {
    pool: MAX
    kernel_size: 2
    stride: 2
    kernel_depth: 2
    temporal_stride: 2
  }
}
layer {
  name: "rgb_conv4a"
  type: "Convolution"
  bottom: "rgb_pool3"
  top: "rgb_conv4a"
  param {
    lr_mult: 1
    decay_mult: 1
  }
  param {
    lr_mult: 2
    decay_mult: 0
  }
  convolution_param {
    num_output: 512
    pad: 1
    kernel_size: 3
    weight_filler {
      type: "gaussian"
      std: 0.01
    }
    bias_filler {
      type: "constant"
      value: 1
    }
    engine: CAFFE
    axis: 1
  }
}
layer {
  name: "rgb_relu4a"
  type: "ReLU"
  bottom: "rgb_conv4a"
  top: "rgb_conv4a"
  relu_param {
    engine: CAFFE
  }
}
layer {
  name: "rgb_conv4b"
  type: "Convolution"
  bottom: "rgb_conv4a"
  top: "rgb_conv4b"
  param {
    lr_mult: 1
    decay_mult: 1
  }
  param {
    lr_mult: 2
    decay_mult: 0
  }
  convolution_param {
    num_output: 512
    pad: 1
    kernel_size: 3
    weight_filler {
      type: "gaussian"
      std: 0.01
    }
    bias_filler {
      type: "constant"
      value: 1
    }
    engine: CAFFE
    axis: 1
  }
}
layer {
  name: "rgb_relu4b"
  type: "ReLU"
  bottom: "rgb_conv4b"
  top: "rgb_conv4b"
  relu_param {
    engine: CAFFE
  }
}
layer {
  name: "rgb_pool4"
  type: "Pooling3D"
  bottom: "rgb_conv4b"
  top: "rgb_pool4"
  pooling3d_param {
    pool: MAX
    kernel_size: 2
    stride: 2
    kernel_depth: 2
    temporal_stride: 2
  }
}
layer {
  name: "rgb_conv5a"
  type: "Convolution"
  bottom: "rgb_pool4"
  top: "rgb_conv5a"
  param {
    lr_mult: 1
    decay_mult: 1
  }
  param {
    lr_mult: 2
    decay_mult: 0
  }
  convolution_param {
    num_output: 512
    pad: 1
    kernel_size: 3
    weight_filler {
      type: "gaussian"
      std: 0.01
    }
    bias_filler {
      type: "constant"
      value: 1
    }
    engine: CAFFE
    axis: 1
  }
}
layer {
  name: "rgb_relu5a"
  type: "ReLU"
  bottom: "rgb_conv5a"
  top: "rgb_conv5a"
  relu_param {
    engine: CAFFE
  }
}
layer {
  name: "rgb_conv5b"
  type: "Convolution"
  bottom: "rgb_conv5a"
  top: "rgb_conv5b"
  param {
    lr_mult: 1
    decay_mult: 1
  }
  param {
    lr_mult: 2
    decay_mult: 0
  }
  convolution_param {
    num_output: 512
    pad: 1
    kernel_size: 3
    weight_filler {
      type: "gaussian"
      std: 0.01
    }
    bias_filler {
      type: "constant"
      value: 1
    }
    engine: CAFFE
    axis: 1
  }
}
layer {
  name: "rgb_relu5b"
  type: "ReLU"
  bottom: "rgb_conv5b"
  top: "rgb_conv5b"
  relu_param {
    engine: CAFFE
  }
}
layer {
  name: "rgb_pool5"
  type: "Pooling3D"
  bottom: "rgb_conv5b"
  top: "rgb_pool5"
  pooling3d_param {
    pool: MAX
    kernel_size: 2
    stride: 2
    kernel_depth: 2
    temporal_stride: 2
  }
}
layer {
  name: "rgb_fc6"
  type: "InnerProduct"
  bottom: "rgb_pool5"
  top: "rgb_fc6"
  param {
    lr_mult: 1
    decay_mult: 1
  }
  param {
    lr_mult: 2
    decay_mult: 0
  }
  inner_product_param {
    num_output: 4096
    weight_filler {
      type: "gaussian"
      std: 0.005
    }
    bias_filler {
      type: "constant"
      value: 1
    }
  }
}
layer {
  name: "rgb_relu6"
  type: "ReLU"
  bottom: "rgb_fc6"
  top: "rgb_fc6"
  relu_param {
    engine: CAFFE
  }
}
layer {
  name: "rgb_drop6"
  type: "Dropout"
  bottom: "rgb_fc6"
  top: "rgb_fc6"
  dropout_param {
    dropout_ratio: 0.9
  }
}
layer {
  name: "rgb_fc7"
  type: "InnerProduct"
  bottom: "rgb_fc6"
  top: "rgb_fc7"
  param {
    lr_mult: 1
    decay_mult: 1
  }
  param {
    lr_mult: 2
    decay_mult: 0
  }
  inner_product_param {
    num_output: 4096
    weight_filler {
      type: "gaussian"
      std: 0.005
    }
    bias_filler {
      type: "constant"
      value: 1
    }
  }
}
layer {
  name: "rgb_relu7"
  type: "ReLU"
  bottom: "rgb_fc7"
  top: "rgb_fc7"
  relu_param {
    engine: CAFFE
  }
}
layer {
  name: "rgb_drop7"
  type: "Dropout"
  bottom: "rgb_fc7"
  top: "rgb_fc7"
  dropout_param {
    dropout_ratio: 0.8
  }
}
layer {
  name: "rgb_fc8"
  type: "InnerProduct"
  bottom: "rgb_fc7"
  top: "rgb_fc8"
  param {
    lr_mult: 1
    decay_mult: 1
  }
  param {
    lr_mult: 2
    decay_mult: 0
  }
  inner_product_param {
    num_output: 51
    weight_filler {
      type: "gaussian"
      std: 0.01
    }
    bias_filler {
      type: "constant"
      value: 0
    }
  }
}
layer {
  name: "loss"
  type: "SoftmaxWithLoss"
  bottom: "rgb_fc8"
  bottom: "label"
  top: "loss"
}
I0726 13:44:55.507992 13872 layer_factory.hpp:77] Creating layer twostream_data
I0726 13:44:55.508378 13872 net.cpp:91] Creating Layer twostream_data
I0726 13:44:55.508390 13872 net.cpp:399] twostream_data -> rgb_data
I0726 13:44:55.508414 13872 net.cpp:399] twostream_data -> flow_data
I0726 13:44:55.508424 13872 net.cpp:399] twostream_data -> label
I0726 13:44:55.626332 13872 twostream_snippet_data_layer.cpp:52] rgb data size: 8,48,112,112
I0726 13:44:55.626468 13872 twostream_snippet_data_layer.cpp:68] flow data size: 8,32,112,112
I0726 13:44:55.725162 13872 net.cpp:141] Setting up twostream_data
I0726 13:44:55.725201 13872 net.cpp:148] Top shape: 8 48 112 112 (4816896)
I0726 13:44:55.725208 13872 net.cpp:148] Top shape: 8 32 112 112 (3211264)
I0726 13:44:55.725211 13872 net.cpp:148] Top shape: 8 (8)
I0726 13:44:55.725214 13872 net.cpp:156] Memory required for data: 32112672
I0726 13:44:55.725224 13872 layer_factory.hpp:77] Creating layer reshape_flow
I0726 13:44:55.725239 13872 net.cpp:91] Creating Layer reshape_flow
I0726 13:44:55.725244 13872 net.cpp:425] reshape_flow <- flow_data
I0726 13:44:55.725255 13872 net.cpp:399] reshape_flow -> flow_vol_data
I0726 13:44:55.725338 13872 net.cpp:141] Setting up reshape_flow
I0726 13:44:55.725348 13872 net.cpp:148] Top shape: 8 2 16 112 112 (3211264)
I0726 13:44:55.725353 13872 net.cpp:156] Memory required for data: 44957728
I0726 13:44:55.725356 13872 layer_factory.hpp:77] Creating layer flow_conv1a
I0726 13:44:55.725373 13872 net.cpp:91] Creating Layer flow_conv1a
I0726 13:44:55.725378 13872 net.cpp:425] flow_conv1a <- flow_vol_data
I0726 13:44:55.725388 13872 net.cpp:399] flow_conv1a -> flow_conv1a
I0726 13:44:55.727155 13872 net.cpp:141] Setting up flow_conv1a
I0726 13:44:55.727171 13872 net.cpp:148] Top shape: 8 64 16 112 112 (102760448)
I0726 13:44:55.727175 13872 net.cpp:156] Memory required for data: 455999520
I0726 13:44:55.727188 13872 layer_factory.hpp:77] Creating layer flow_relu1a
I0726 13:44:55.727196 13872 net.cpp:91] Creating Layer flow_relu1a
I0726 13:44:55.727200 13872 net.cpp:425] flow_relu1a <- flow_conv1a
I0726 13:44:55.727206 13872 net.cpp:386] flow_relu1a -> flow_conv1a (in-place)
I0726 13:44:55.727231 13872 net.cpp:141] Setting up flow_relu1a
I0726 13:44:55.727236 13872 net.cpp:148] Top shape: 8 64 16 112 112 (102760448)
I0726 13:44:55.727238 13872 net.cpp:156] Memory required for data: 867041312
I0726 13:44:55.727241 13872 layer_factory.hpp:77] Creating layer flow_pool1
I0726 13:44:55.727248 13872 net.cpp:91] Creating Layer flow_pool1
I0726 13:44:55.727252 13872 net.cpp:425] flow_pool1 <- flow_conv1a
I0726 13:44:55.727257 13872 net.cpp:399] flow_pool1 -> flow_pool1
I0726 13:44:55.728771 13872 net.cpp:141] Setting up flow_pool1
I0726 13:44:55.728792 13872 net.cpp:148] Top shape: 8 64 16 56 56 (25690112)
I0726 13:44:55.728799 13872 net.cpp:156] Memory required for data: 969801760
I0726 13:44:55.728806 13872 layer_factory.hpp:77] Creating layer flow_pool1_reduce_dim
I0726 13:44:55.728826 13872 net.cpp:91] Creating Layer flow_pool1_reduce_dim
I0726 13:44:55.728832 13872 net.cpp:425] flow_pool1_reduce_dim <- flow_pool1
I0726 13:44:55.728842 13872 net.cpp:399] flow_pool1_reduce_dim -> flow_pool1_reduce_dim
I0726 13:44:55.730731 13872 net.cpp:141] Setting up flow_pool1_reduce_dim
I0726 13:44:55.730756 13872 net.cpp:148] Top shape: 8 1 16 56 56 (401408)
I0726 13:44:55.730762 13872 net.cpp:156] Memory required for data: 971407392
I0726 13:44:55.730774 13872 layer_factory.hpp:77] Creating layer flow_pool1_normalized
I0726 13:44:55.730788 13872 net.cpp:91] Creating Layer flow_pool1_normalized
I0726 13:44:55.730798 13872 net.cpp:425] flow_pool1_normalized <- flow_pool1_reduce_dim
I0726 13:44:55.730806 13872 net.cpp:386] flow_pool1_normalized -> flow_pool1_reduce_dim (in-place)
I0726 13:44:55.730890 13872 net.cpp:141] Setting up flow_pool1_normalized
I0726 13:44:55.730900 13872 net.cpp:148] Top shape: 8 1 16 56 56 (401408)
I0726 13:44:55.730906 13872 net.cpp:156] Memory required for data: 973013024
I0726 13:44:55.730911 13872 layer_factory.hpp:77] Creating layer flow_pool1_attention
I0726 13:44:55.730922 13872 net.cpp:91] Creating Layer flow_pool1_attention
I0726 13:44:55.730929 13872 net.cpp:425] flow_pool1_attention <- flow_pool1_reduce_dim
I0726 13:44:55.730938 13872 net.cpp:399] flow_pool1_attention -> flow_pool1_attention
I0726 13:44:55.730967 13872 net.cpp:141] Setting up flow_pool1_attention
I0726 13:44:55.730976 13872 net.cpp:148] Top shape: 8 1 16 56 56 (401408)
I0726 13:44:55.730981 13872 net.cpp:156] Memory required for data: 974618656
I0726 13:44:55.730988 13872 layer_factory.hpp:77] Creating layer flow_pool1_attention_tiled
I0726 13:44:55.731001 13872 net.cpp:91] Creating Layer flow_pool1_attention_tiled
I0726 13:44:55.731009 13872 net.cpp:425] flow_pool1_attention_tiled <- flow_pool1_attention
I0726 13:44:55.731016 13872 net.cpp:399] flow_pool1_attention_tiled -> flow_pool1_attention_tiled
I0726 13:44:55.731047 13872 net.cpp:141] Setting up flow_pool1_attention_tiled
I0726 13:44:55.731058 13872 net.cpp:148] Top shape: 8 64 16 56 56 (25690112)
I0726 13:44:55.731065 13872 net.cpp:156] Memory required for data: 1077379104
I0726 13:44:55.731070 13872 layer_factory.hpp:77] Creating layer reshape_rgb
I0726 13:44:55.731086 13872 net.cpp:91] Creating Layer reshape_rgb
I0726 13:44:55.731101 13872 net.cpp:425] reshape_rgb <- rgb_data
I0726 13:44:55.731111 13872 net.cpp:399] reshape_rgb -> rgb_vol_data
I0726 13:44:55.731139 13872 net.cpp:141] Setting up reshape_rgb
I0726 13:44:55.731149 13872 net.cpp:148] Top shape: 8 3 16 112 112 (4816896)
I0726 13:44:55.731155 13872 net.cpp:156] Memory required for data: 1096646688
I0726 13:44:55.731160 13872 layer_factory.hpp:77] Creating layer rgb_conv1a
I0726 13:44:55.731173 13872 net.cpp:91] Creating Layer rgb_conv1a
I0726 13:44:55.731179 13872 net.cpp:425] rgb_conv1a <- rgb_vol_data
I0726 13:44:55.731191 13872 net.cpp:399] rgb_conv1a -> rgb_conv1a
I0726 13:44:55.732177 13872 net.cpp:141] Setting up rgb_conv1a
I0726 13:44:55.732195 13872 net.cpp:148] Top shape: 8 64 16 112 112 (102760448)
I0726 13:44:55.732203 13872 net.cpp:156] Memory required for data: 1507688480
I0726 13:44:55.732218 13872 layer_factory.hpp:77] Creating layer rgb_relu1a
I0726 13:44:55.732229 13872 net.cpp:91] Creating Layer rgb_relu1a
I0726 13:44:55.732236 13872 net.cpp:425] rgb_relu1a <- rgb_conv1a
I0726 13:44:55.732244 13872 net.cpp:386] rgb_relu1a -> rgb_conv1a (in-place)
I0726 13:44:55.732254 13872 net.cpp:141] Setting up rgb_relu1a
I0726 13:44:55.732260 13872 net.cpp:148] Top shape: 8 64 16 112 112 (102760448)
I0726 13:44:55.732265 13872 net.cpp:156] Memory required for data: 1918730272
I0726 13:44:55.732271 13872 layer_factory.hpp:77] Creating layer rgb_pool1
I0726 13:44:55.732280 13872 net.cpp:91] Creating Layer rgb_pool1
I0726 13:44:55.732286 13872 net.cpp:425] rgb_pool1 <- rgb_conv1a
I0726 13:44:55.732295 13872 net.cpp:399] rgb_pool1 -> rgb_pool1
I0726 13:44:55.732323 13872 net.cpp:141] Setting up rgb_pool1
I0726 13:44:55.732332 13872 net.cpp:148] Top shape: 8 64 16 56 56 (25690112)
I0726 13:44:55.732337 13872 net.cpp:156] Memory required for data: 2021490720
I0726 13:44:55.732343 13872 layer_factory.hpp:77] Creating layer rgb_pool1_feature_attention
I0726 13:44:55.732353 13872 net.cpp:91] Creating Layer rgb_pool1_feature_attention
I0726 13:44:55.732359 13872 net.cpp:425] rgb_pool1_feature_attention <- rgb_pool1
I0726 13:44:55.732367 13872 net.cpp:425] rgb_pool1_feature_attention <- flow_pool1_attention_tiled
I0726 13:44:55.732376 13872 net.cpp:399] rgb_pool1_feature_attention -> rgb_pool1_feature_attention
I0726 13:44:55.732406 13872 net.cpp:141] Setting up rgb_pool1_feature_attention
I0726 13:44:55.732415 13872 net.cpp:148] Top shape: 8 64 16 56 56 (25690112)
I0726 13:44:55.732420 13872 net.cpp:156] Memory required for data: 2124251168
I0726 13:44:55.732426 13872 layer_factory.hpp:77] Creating layer rgb_conv2a
I0726 13:44:55.732440 13872 net.cpp:91] Creating Layer rgb_conv2a
I0726 13:44:55.732446 13872 net.cpp:425] rgb_conv2a <- rgb_pool1_feature_attention
I0726 13:44:55.732455 13872 net.cpp:399] rgb_conv2a -> rgb_conv2a
I0726 13:44:55.734863 13872 net.cpp:141] Setting up rgb_conv2a
I0726 13:44:55.734880 13872 net.cpp:148] Top shape: 8 128 16 56 56 (51380224)
I0726 13:44:55.734887 13872 net.cpp:156] Memory required for data: 2329772064
I0726 13:44:55.734896 13872 layer_factory.hpp:77] Creating layer rgb_relu2a
I0726 13:44:55.734907 13872 net.cpp:91] Creating Layer rgb_relu2a
I0726 13:44:55.734915 13872 net.cpp:425] rgb_relu2a <- rgb_conv2a
I0726 13:44:55.734925 13872 net.cpp:386] rgb_relu2a -> rgb_conv2a (in-place)
I0726 13:44:55.734935 13872 net.cpp:141] Setting up rgb_relu2a
I0726 13:44:55.734943 13872 net.cpp:148] Top shape: 8 128 16 56 56 (51380224)
I0726 13:44:55.734948 13872 net.cpp:156] Memory required for data: 2535292960
I0726 13:44:55.734953 13872 layer_factory.hpp:77] Creating layer rgb_pool2
I0726 13:44:55.734966 13872 net.cpp:91] Creating Layer rgb_pool2
I0726 13:44:55.734972 13872 net.cpp:425] rgb_pool2 <- rgb_conv2a
I0726 13:44:55.734980 13872 net.cpp:399] rgb_pool2 -> rgb_pool2
I0726 13:44:55.735008 13872 net.cpp:141] Setting up rgb_pool2
I0726 13:44:55.735016 13872 net.cpp:148] Top shape: 8 128 8 28 28 (6422528)
I0726 13:44:55.735023 13872 net.cpp:156] Memory required for data: 2560983072
I0726 13:44:55.735039 13872 layer_factory.hpp:77] Creating layer rgb_conv3a
I0726 13:44:55.735054 13872 net.cpp:91] Creating Layer rgb_conv3a
I0726 13:44:55.735060 13872 net.cpp:425] rgb_conv3a <- rgb_pool2
I0726 13:44:55.735069 13872 net.cpp:399] rgb_conv3a -> rgb_conv3a
I0726 13:44:55.742236 13872 net.cpp:141] Setting up rgb_conv3a
I0726 13:44:55.742254 13872 net.cpp:148] Top shape: 8 256 8 28 28 (12845056)
I0726 13:44:55.742262 13872 net.cpp:156] Memory required for data: 2612363296
I0726 13:44:55.742274 13872 layer_factory.hpp:77] Creating layer rgb_relu3a
I0726 13:44:55.742287 13872 net.cpp:91] Creating Layer rgb_relu3a
I0726 13:44:55.742295 13872 net.cpp:425] rgb_relu3a <- rgb_conv3a
I0726 13:44:55.742302 13872 net.cpp:386] rgb_relu3a -> rgb_conv3a (in-place)
I0726 13:44:55.742311 13872 net.cpp:141] Setting up rgb_relu3a
I0726 13:44:55.742319 13872 net.cpp:148] Top shape: 8 256 8 28 28 (12845056)
I0726 13:44:55.742324 13872 net.cpp:156] Memory required for data: 2663743520
I0726 13:44:55.742329 13872 layer_factory.hpp:77] Creating layer rgb_conv3b
I0726 13:44:55.742342 13872 net.cpp:91] Creating Layer rgb_conv3b
I0726 13:44:55.742349 13872 net.cpp:425] rgb_conv3b <- rgb_conv3a
I0726 13:44:55.742360 13872 net.cpp:399] rgb_conv3b -> rgb_conv3b
I0726 13:44:55.756304 13872 net.cpp:141] Setting up rgb_conv3b
I0726 13:44:55.756330 13872 net.cpp:148] Top shape: 8 256 8 28 28 (12845056)
I0726 13:44:55.756336 13872 net.cpp:156] Memory required for data: 2715123744
I0726 13:44:55.756347 13872 layer_factory.hpp:77] Creating layer rgb_relu3b
I0726 13:44:55.756362 13872 net.cpp:91] Creating Layer rgb_relu3b
I0726 13:44:55.756371 13872 net.cpp:425] rgb_relu3b <- rgb_conv3b
I0726 13:44:55.756379 13872 net.cpp:386] rgb_relu3b -> rgb_conv3b (in-place)
I0726 13:44:55.756392 13872 net.cpp:141] Setting up rgb_relu3b
I0726 13:44:55.756402 13872 net.cpp:148] Top shape: 8 256 8 28 28 (12845056)
I0726 13:44:55.756408 13872 net.cpp:156] Memory required for data: 2766503968
I0726 13:44:55.756413 13872 layer_factory.hpp:77] Creating layer rgb_pool3
I0726 13:44:55.756422 13872 net.cpp:91] Creating Layer rgb_pool3
I0726 13:44:55.756428 13872 net.cpp:425] rgb_pool3 <- rgb_conv3b
I0726 13:44:55.756434 13872 net.cpp:399] rgb_pool3 -> rgb_pool3
I0726 13:44:55.756466 13872 net.cpp:141] Setting up rgb_pool3
I0726 13:44:55.756476 13872 net.cpp:148] Top shape: 8 256 4 14 14 (1605632)
I0726 13:44:55.756481 13872 net.cpp:156] Memory required for data: 2772926496
I0726 13:44:55.756486 13872 layer_factory.hpp:77] Creating layer rgb_conv4a
I0726 13:44:55.756500 13872 net.cpp:91] Creating Layer rgb_conv4a
I0726 13:44:55.756506 13872 net.cpp:425] rgb_conv4a <- rgb_pool3
I0726 13:44:55.756516 13872 net.cpp:399] rgb_conv4a -> rgb_conv4a
I0726 13:44:55.785006 13872 net.cpp:141] Setting up rgb_conv4a
I0726 13:44:55.785045 13872 net.cpp:148] Top shape: 8 512 4 14 14 (3211264)
I0726 13:44:55.785051 13872 net.cpp:156] Memory required for data: 2785771552
I0726 13:44:55.785063 13872 layer_factory.hpp:77] Creating layer rgb_relu4a
I0726 13:44:55.785081 13872 net.cpp:91] Creating Layer rgb_relu4a
I0726 13:44:55.785091 13872 net.cpp:425] rgb_relu4a <- rgb_conv4a
I0726 13:44:55.785101 13872 net.cpp:386] rgb_relu4a -> rgb_conv4a (in-place)
I0726 13:44:55.785115 13872 net.cpp:141] Setting up rgb_relu4a
I0726 13:44:55.785125 13872 net.cpp:148] Top shape: 8 512 4 14 14 (3211264)
I0726 13:44:55.785130 13872 net.cpp:156] Memory required for data: 2798616608
I0726 13:44:55.785136 13872 layer_factory.hpp:77] Creating layer rgb_conv4b
I0726 13:44:55.785151 13872 net.cpp:91] Creating Layer rgb_conv4b
I0726 13:44:55.785157 13872 net.cpp:425] rgb_conv4b <- rgb_conv4a
I0726 13:44:55.785168 13872 net.cpp:399] rgb_conv4b -> rgb_conv4b
I0726 13:44:55.841048 13872 net.cpp:141] Setting up rgb_conv4b
I0726 13:44:55.841095 13872 net.cpp:148] Top shape: 8 512 4 14 14 (3211264)
I0726 13:44:55.841104 13872 net.cpp:156] Memory required for data: 2811461664
I0726 13:44:55.841117 13872 layer_factory.hpp:77] Creating layer rgb_relu4b
I0726 13:44:55.841133 13872 net.cpp:91] Creating Layer rgb_relu4b
I0726 13:44:55.841158 13872 net.cpp:425] rgb_relu4b <- rgb_conv4b
I0726 13:44:55.841171 13872 net.cpp:386] rgb_relu4b -> rgb_conv4b (in-place)
I0726 13:44:55.841184 13872 net.cpp:141] Setting up rgb_relu4b
I0726 13:44:55.841192 13872 net.cpp:148] Top shape: 8 512 4 14 14 (3211264)
I0726 13:44:55.841198 13872 net.cpp:156] Memory required for data: 2824306720
I0726 13:44:55.841203 13872 layer_factory.hpp:77] Creating layer rgb_pool4
I0726 13:44:55.841215 13872 net.cpp:91] Creating Layer rgb_pool4
I0726 13:44:55.841223 13872 net.cpp:425] rgb_pool4 <- rgb_conv4b
I0726 13:44:55.841230 13872 net.cpp:399] rgb_pool4 -> rgb_pool4
I0726 13:44:55.841264 13872 net.cpp:141] Setting up rgb_pool4
I0726 13:44:55.841274 13872 net.cpp:148] Top shape: 8 512 2 7 7 (401408)
I0726 13:44:55.841279 13872 net.cpp:156] Memory required for data: 2825912352
I0726 13:44:55.841284 13872 layer_factory.hpp:77] Creating layer rgb_conv5a
I0726 13:44:55.841300 13872 net.cpp:91] Creating Layer rgb_conv5a
I0726 13:44:55.841306 13872 net.cpp:425] rgb_conv5a <- rgb_pool4
I0726 13:44:55.841316 13872 net.cpp:399] rgb_conv5a -> rgb_conv5a
I0726 13:44:55.897016 13872 net.cpp:141] Setting up rgb_conv5a
I0726 13:44:55.897060 13872 net.cpp:148] Top shape: 8 512 2 7 7 (401408)
I0726 13:44:55.897066 13872 net.cpp:156] Memory required for data: 2827517984
I0726 13:44:55.897089 13872 layer_factory.hpp:77] Creating layer rgb_relu5a
I0726 13:44:55.897109 13872 net.cpp:91] Creating Layer rgb_relu5a
I0726 13:44:55.897117 13872 net.cpp:425] rgb_relu5a <- rgb_conv5a
I0726 13:44:55.897130 13872 net.cpp:386] rgb_relu5a -> rgb_conv5a (in-place)
I0726 13:44:55.897142 13872 net.cpp:141] Setting up rgb_relu5a
I0726 13:44:55.897151 13872 net.cpp:148] Top shape: 8 512 2 7 7 (401408)
I0726 13:44:55.897157 13872 net.cpp:156] Memory required for data: 2829123616
I0726 13:44:55.897163 13872 layer_factory.hpp:77] Creating layer rgb_conv5b
I0726 13:44:55.897178 13872 net.cpp:91] Creating Layer rgb_conv5b
I0726 13:44:55.897183 13872 net.cpp:425] rgb_conv5b <- rgb_conv5a
I0726 13:44:55.897192 13872 net.cpp:399] rgb_conv5b -> rgb_conv5b
I0726 13:44:55.953083 13872 net.cpp:141] Setting up rgb_conv5b
I0726 13:44:55.953125 13872 net.cpp:148] Top shape: 8 512 2 7 7 (401408)
I0726 13:44:55.953132 13872 net.cpp:156] Memory required for data: 2830729248
I0726 13:44:55.953145 13872 layer_factory.hpp:77] Creating layer rgb_relu5b
I0726 13:44:55.953162 13872 net.cpp:91] Creating Layer rgb_relu5b
I0726 13:44:55.953171 13872 net.cpp:425] rgb_relu5b <- rgb_conv5b
I0726 13:44:55.953186 13872 net.cpp:386] rgb_relu5b -> rgb_conv5b (in-place)
I0726 13:44:55.953199 13872 net.cpp:141] Setting up rgb_relu5b
I0726 13:44:55.953208 13872 net.cpp:148] Top shape: 8 512 2 7 7 (401408)
I0726 13:44:55.953214 13872 net.cpp:156] Memory required for data: 2832334880
I0726 13:44:55.953219 13872 layer_factory.hpp:77] Creating layer rgb_pool5
I0726 13:44:55.953228 13872 net.cpp:91] Creating Layer rgb_pool5
I0726 13:44:55.953239 13872 net.cpp:425] rgb_pool5 <- rgb_conv5b
I0726 13:44:55.953248 13872 net.cpp:399] rgb_pool5 -> rgb_pool5
I0726 13:44:55.953280 13872 net.cpp:141] Setting up rgb_pool5
I0726 13:44:55.953289 13872 net.cpp:148] Top shape: 8 512 1 4 4 (65536)
I0726 13:44:55.953295 13872 net.cpp:156] Memory required for data: 2832597024
I0726 13:44:55.953300 13872 layer_factory.hpp:77] Creating layer rgb_fc6
I0726 13:44:55.953320 13872 net.cpp:91] Creating Layer rgb_fc6
I0726 13:44:55.953326 13872 net.cpp:425] rgb_fc6 <- rgb_pool5
I0726 13:44:55.953336 13872 net.cpp:399] rgb_fc6 -> rgb_fc6
I0726 13:44:56.214882 13872 net.cpp:141] Setting up rgb_fc6
I0726 13:44:56.214927 13872 net.cpp:148] Top shape: 8 4096 (32768)
I0726 13:44:56.214933 13872 net.cpp:156] Memory required for data: 2832728096
I0726 13:44:56.214947 13872 layer_factory.hpp:77] Creating layer rgb_relu6
I0726 13:44:56.214962 13872 net.cpp:91] Creating Layer rgb_relu6
I0726 13:44:56.214972 13872 net.cpp:425] rgb_relu6 <- rgb_fc6
I0726 13:44:56.214982 13872 net.cpp:386] rgb_relu6 -> rgb_fc6 (in-place)
I0726 13:44:56.215006 13872 net.cpp:141] Setting up rgb_relu6
I0726 13:44:56.215024 13872 net.cpp:148] Top shape: 8 4096 (32768)
I0726 13:44:56.215030 13872 net.cpp:156] Memory required for data: 2832859168
I0726 13:44:56.215036 13872 layer_factory.hpp:77] Creating layer rgb_drop6
I0726 13:44:56.215046 13872 net.cpp:91] Creating Layer rgb_drop6
I0726 13:44:56.215052 13872 net.cpp:425] rgb_drop6 <- rgb_fc6
I0726 13:44:56.215065 13872 net.cpp:386] rgb_drop6 -> rgb_fc6 (in-place)
I0726 13:44:56.215102 13872 net.cpp:141] Setting up rgb_drop6
I0726 13:44:56.215111 13872 net.cpp:148] Top shape: 8 4096 (32768)
I0726 13:44:56.215116 13872 net.cpp:156] Memory required for data: 2832990240
I0726 13:44:56.215121 13872 layer_factory.hpp:77] Creating layer rgb_fc7
I0726 13:44:56.215132 13872 net.cpp:91] Creating Layer rgb_fc7
I0726 13:44:56.215138 13872 net.cpp:425] rgb_fc7 <- rgb_fc6
I0726 13:44:56.215149 13872 net.cpp:399] rgb_fc7 -> rgb_fc7
I0726 13:44:56.344537 13872 net.cpp:141] Setting up rgb_fc7
I0726 13:44:56.344574 13872 net.cpp:148] Top shape: 8 4096 (32768)
I0726 13:44:56.344580 13872 net.cpp:156] Memory required for data: 2833121312
I0726 13:44:56.344594 13872 layer_factory.hpp:77] Creating layer rgb_relu7
I0726 13:44:56.344609 13872 net.cpp:91] Creating Layer rgb_relu7
I0726 13:44:56.344616 13872 net.cpp:425] rgb_relu7 <- rgb_fc7
I0726 13:44:56.344627 13872 net.cpp:386] rgb_relu7 -> rgb_fc7 (in-place)
I0726 13:44:56.344640 13872 net.cpp:141] Setting up rgb_relu7
I0726 13:44:56.344648 13872 net.cpp:148] Top shape: 8 4096 (32768)
I0726 13:44:56.344653 13872 net.cpp:156] Memory required for data: 2833252384
I0726 13:44:56.344657 13872 layer_factory.hpp:77] Creating layer rgb_drop7
I0726 13:44:56.344667 13872 net.cpp:91] Creating Layer rgb_drop7
I0726 13:44:56.344672 13872 net.cpp:425] rgb_drop7 <- rgb_fc7
I0726 13:44:56.344678 13872 net.cpp:386] rgb_drop7 -> rgb_fc7 (in-place)
I0726 13:44:56.344708 13872 net.cpp:141] Setting up rgb_drop7
I0726 13:44:56.344717 13872 net.cpp:148] Top shape: 8 4096 (32768)
I0726 13:44:56.344720 13872 net.cpp:156] Memory required for data: 2833383456
I0726 13:44:56.344725 13872 layer_factory.hpp:77] Creating layer rgb_fc8
I0726 13:44:56.344735 13872 net.cpp:91] Creating Layer rgb_fc8
I0726 13:44:56.344741 13872 net.cpp:425] rgb_fc8 <- rgb_fc7
I0726 13:44:56.344750 13872 net.cpp:399] rgb_fc8 -> rgb_fc8
I0726 13:44:56.346230 13872 net.cpp:141] Setting up rgb_fc8
I0726 13:44:56.346242 13872 net.cpp:148] Top shape: 8 51 (408)
I0726 13:44:56.346248 13872 net.cpp:156] Memory required for data: 2833385088
I0726 13:44:56.346256 13872 layer_factory.hpp:77] Creating layer loss
I0726 13:44:56.346264 13872 net.cpp:91] Creating Layer loss
I0726 13:44:56.346269 13872 net.cpp:425] loss <- rgb_fc8
I0726 13:44:56.346276 13872 net.cpp:425] loss <- label
I0726 13:44:56.346303 13872 net.cpp:399] loss -> loss
I0726 13:44:56.346318 13872 layer_factory.hpp:77] Creating layer loss
…
name: "C3D_FCAN_net"
state {
  phase: TEST
}
layer {
  name: "twostream_data"
  type: "TwostreamSnippetData"
  top: "rgb_data"
  top: "flow_data"
  top: "label"
  include {
    phase: TEST
  }
  transform_param {
    mirror: false
    crop_size: 112
    mean_value: 128
    fix_crop: false
    multi_scale: false
    new_height: 128
    new_width: 171
  }
  twostream_data_param {
    flow_source: "hmdb51_val_flow_len16_split01.txt"
    batch_size: 1
    new_length: 16
    rgb_source: "hmdb51_val_rgb_len16_split01.txt"
    preserve_temporal: true
  }
}
layer {
  name: "reshape_flow"
  type: "Reshape"
  bottom: "flow_data"
  top: "flow_vol_data"
  reshape_param {
    shape {
      dim: 2
      dim: -1
    }
    axis: 1
    num_axes: 1
  }
}
layer {
  name: "flow_conv1a"
  type: "Convolution"
  bottom: "flow_vol_data"
  top: "flow_conv1a"
  param {
    lr_mult: 1
    decay_mult: 1
  }
  param {
    lr_mult: 2
    decay_mult: 0
  }
  convolution_param {
    num_output: 64
    pad: 1
    kernel_size: 3
    weight_filler {
      type: "gaussian"
      std: 0.01
    }
    bias_filler {
      type: "constant"
      value: 0
    }
    engine: CAFFE
    axis: 1
  }
}
layer {
  name: "flow_relu1a"
  type: "ReLU"
  bottom: "flow_conv1a"
  top: "flow_conv1a"
  relu_param {
    engine: CAFFE
  }
}
layer {
  name: "flow_pool1"
  type: "Pooling3D"
  bottom: "flow_conv1a"
  top: "flow_pool1"
  pooling3d_param {
    pool: MAX
    kernel_size: 2
    stride: 2
    kernel_depth: 1
    temporal_stride: 1
  }
}
layer {
  name: "flow_pool1_reduce_dim"
  type: "Convolution"
  bottom: "flow_pool1"
  top: "flow_pool1_reduce_dim"
  param {
    lr_mult: 1
    decay_mult: 1
  }
  param {
    lr_mult: 2
    decay_mult: 0
  }
  propagate_down: false
  convolution_param {
    num_output: 1
    pad: 0
    kernel_size: 1
    stride: 1
    weight_filler {
      type: "constant"
      value: 0.015625
    }
    bias_filler {
      type: "constant"
      value: 0
    }
    engine: CAFFE
  }
}
layer {
  name: "flow_pool1_normalized"
  type: "MVN_ND"
  bottom: "flow_pool1_reduce_dim"
  top: "flow_pool1_reduce_dim"
  mvn_param {
    axis: 2
  }
}
layer {
  name: "flow_pool1_attention"
  type: "Sigmoid"
  bottom: "flow_pool1_reduce_dim"
  top: "flow_pool1_attention"
  sigmoid_param {
    engine: CAFFE
  }
}
layer {
  name: "flow_pool1_attention_tiled"
  type: "Tile"
  bottom: "flow_pool1_attention"
  top: "flow_pool1_attention_tiled"
  tile_param {
    axis: 1
    tiles: 64
  }
}
layer {
  name: "reshape_rgb"
  type: "Reshape"
  bottom: "rgb_data"
  top: "rgb_vol_data"
  reshape_param {
    shape {
      dim: 3
      dim: -1
    }
    axis: 1
    num_axes: 1
  }
}
layer {
  name: "rgb_conv1a"
  type: "Convolution"
  bottom: "rgb_vol_data"
  top: "rgb_conv1a"
  param {
    lr_mult: 1
    decay_mult: 1
  }
  param {
    lr_mult: 2
    decay_mult: 0
  }
  convolution_param {
    num_output: 64
    pad: 1
    kernel_size: 3
    weight_filler {
      type: "gaussian"
      std: 0.01
    }
    bias_filler {
      type: "constant"
      value: 0
    }
    engine: CAFFE
    axis: 1
  }
}
layer {
  name: "rgb_relu1a"
  type: "ReLU"
  bottom: "rgb_conv1a"
  top: "rgb_conv1a"
  relu_param {
    engine: CAFFE
  }
}
layer {
  name: "rgb_pool1"
  type: "Pooling3D"
  bottom: "rgb_conv1a"
  top: "rgb_pool1"
  pooling3d_param {
    pool: MAX
    kernel_size: 2
    stride: 2
    kernel_depth: 1
    temporal_stride: 1
  }
}
layer {
  name: "rgb_pool1_feature_attention"
  type: "Eltwise"
  bottom: "rgb_pool1"
  bottom: "flow_pool1_attention_tiled"
  top: "rgb_pool1_feature_attention"
  eltwise_param {
    operation: PROD
  }
}
layer {
  name: "rgb_conv2a"
  type: "Convolution"
  bottom: "rgb_pool1_feature_attention"
  top: "rgb_conv2a"
  param {
    lr_mult: 1
    decay_mult: 1
  }
  param {
    lr_mult: 2
    decay_mult: 0
  }
  convolution_param {
    num_output: 128
    pad: 1
    kernel_size: 3
    weight_filler {
      type: "gaussian"
      std: 0.01
    }
    bias_filler {
      type: "constant"
      value: 1
    }
    engine: CAFFE
    axis: 1
  }
}
layer {
  name: "rgb_relu2a"
  type: "ReLU"
  bottom: "rgb_conv2a"
  top: "rgb_conv2a"
  relu_param {
    engine: CAFFE
  }
}
layer {
  name: "rgb_pool2"
  type: "Pooling3D"
  bottom: "rgb_conv2a"
  top: "rgb_pool2"
  pooling3d_param {
    pool: MAX
    kernel_size: 2
    stride: 2
    kernel_depth: 2
    temporal_stride: 2
  }
}
layer {
  name: "rgb_conv3a"
  type: "Convolution"
  bottom: "rgb_pool2"
  top: "rgb_conv3a"
  param {
    lr_mult: 1
    decay_mult: 1
  }
  param {
    lr_mult: 2
    decay_mult: 0
  }
  convolution_param {
    num_output: 256
    pad: 1
    kernel_size: 3
    weight_filler {
      type: "gaussian"
      std: 0.01
    }
    bias_filler {
      type: "constant"
      value: 1
    }
    engine: CAFFE
    axis: 1
  }
}
layer {
  name: "rgb_relu3a"
  type: "ReLU"
  bottom: "rgb_conv3a"
  top: "rgb_conv3a"
  relu_param {
    engine: CAFFE
  }
}
layer {
  name: "rgb_conv3b"
  type: "Convolution"
  bottom: "rgb_conv3a"
  top: "rgb_conv3b"
  param {
    lr_mult: 1
    decay_mult: 1
  }
  param {
    lr_mult: 2
    decay_mult: 0
  }
  convolution_param {
    num_output: 256
    pad: 1
    kernel_size: 3
    weight_filler {
      type: "gaussian"
      std: 0.01
    }
    bias_filler {
      type: "constant"
      value: 1
    }
    engine: CAFFE
    axis: 1
  }
}
layer {
  name: "rgb_relu3b"
  type: "ReLU"
  bottom: "rgb_conv3b"
  top: "rgb_conv3b"
  relu_param {
    engine: CAFFE
  }
}
layer {
  name: "rgb_pool3"
  type: "Pooling3D"
  bottom: "rgb_conv3b"
  top: "rgb_pool3"
  pooling3d_param {
    pool: MAX
    kernel_size: 2
    stride: 2
    kernel_depth: 2
    temporal_stride: 2
  }
}
layer {
  name: "rgb_conv4a"
  type: "Convolution"
  bottom: "rgb_pool3"
  top: "rgb_conv4a"
  param {
    lr_mult: 1
    decay_mult: 1
  }
  param {
    lr_mult: 2
    decay_mult: 0
  }
  convolution_param {
    num_output: 512
    pad: 1
    kernel_size: 3
    weight_filler {
      type: "gaussian"
      std: 0.01
    }
    bias_filler {
      type: "constant"
      value: 1
    }
    engine: CAFFE
    axis: 1
  }
}
layer {
  name: "rgb_relu4a"
  type: "ReLU"
  bottom: "rgb_conv4a"
  top: "rgb_conv4a"
  relu_param {
    engine: CAFFE
  }
}
layer {
  name: "rgb_conv4b"
  type: "Convolution"
  bottom: "rgb_conv4a"
  top: "rgb_conv4b"
  param {
    lr_mult: 1
    decay_mult: 1
  }
  param {
    lr_mult: 2
    decay_mult: 0
  }
  convolution_param {
    num_output: 512
    pad: 1
    kernel_size: 3
    weight_filler {
      type: "gaussian"
      std: 0.01
    }
    bias_filler {
      type: "constant"
      value: 1
    }
    engine: CAFFE
    axis: 1
  }
}
layer {
  name: "rgb_relu4b"
  type: "ReLU"
  bottom: "rgb_conv4b"
  top: "rgb_conv4b"
  relu_param {
    engine: CAFFE
  }
}
layer {
  name: "rgb_pool4"
  type: "Pooling3D"
  bottom: "rgb_conv4b"
  top: "rgb_pool4"
  pooling3d_param {
    pool: MAX
    kernel_size: 2
    stride: 2
    kernel_depth: 2
    temporal_stride: 2
  }
}
layer {
  name: "rgb_conv5a"
  type: "Convolution"
  bottom: "rgb_pool4"
  top: "rgb_conv5a"
  param {
    lr_mult: 1
    decay_mult: 1
  }
  param {
    lr_mult: 2
    decay_mult: 0
  }
  convolution_param {
    num_output: 512
    pad: 1
    kernel_size: 3
    weight_filler {
      type: "gaussian"
      std: 0.01
    }
    bias_filler {
      type: "constant"
      value: 1
    }
    engine: CAFFE
    axis: 1
  }
}
layer {
  name: "rgb_relu5a"
  type: "ReLU"
  bottom: "rgb_conv5a"
  top: "rgb_conv5a"
  relu_param {
    engine: CAFFE
  }
}
layer {
  name: "rgb_conv5b"
  type: "Convolution"
  bottom: "rgb_conv5a"
  top: "rgb_conv5b"
  param {
    lr_mult: 1
    decay_mult: 1
  }
  param {
    lr_mult: 2
    decay_mult: 0
  }
  convolution_param {
    num_output: 512
    pad: 1
    kernel_size: 3
    weight_filler {
      type: "gaussian"
      std: 0.01
    }
    bias_filler {
      type: "constant"
      value: 1
    }
    engine: CAFFE
    axis: 1
  }
}
layer {
  name: "rgb_relu5b"
  type: "ReLU"
  bottom: "rgb_conv5b"
  top: "rgb_conv5b"
  relu_param {
    engine: CAFFE
  }
}
layer {
  name: "rgb_pool5"
  type: "Pooling3D"
  bottom: "rgb_conv5b"
  top: "rgb_pool5"
  pooling3d_param {
    pool: MAX
    kernel_size: 2
    stride: 2
    kernel_depth: 2
    temporal_stride: 2
  }
}
layer {
  name: "rgb_fc6"
  type: "InnerProduct"
  bottom: "rgb_pool5"
  top: "rgb_fc6"
  param {
    lr_mult: 1
    decay_mult: 1
  }
  param {
    lr_mult: 2
    decay_mult: 0
  }
  inner_product_param {
    num_output: 4096
    weight_filler {
      type: "gaussian"
      std: 0.005
    }
    bias_filler {
      type: "constant"
      value: 1
    }
  }
}
layer {
  name: "rgb_relu6"
  type: "ReLU"
  bottom: "rgb_fc6"
  top: "rgb_fc6"
  relu_param {
    engine: CAFFE
  }
}
layer {
  name: "rgb_drop6"
  type: "Dropout"
  bottom: "rgb_fc6"
  top: "rgb_fc6"
  dropout_param {
    dropout_ratio: 0.9
  }
}
layer {
  name: "rgb_fc7"
  type: "InnerProduct"
  bottom: "rgb_fc6"
  top: "rgb_fc7"
  param {
    lr_mult: 1
    decay_mult: 1
  }
  param {
    lr_mult: 2
    decay_mult: 0
  }
  inner_product_param {
    num_output: 4096
    weight_filler {
      type: "gaussian"
      std: 0.005
    }
    bias_filler {
      type: "constant"
      value: 1
    }
  }
}
layer {
  name: "rgb_relu7"
  type: "ReLU"
  bottom: "rgb_fc7"
  top: "rgb_fc7"
  relu_param {
    engine: CAFFE
  }
}
layer {
  name: "rgb_drop7"
  type: "Dropout"
  bottom: "rgb_fc7"
  top: "rgb_fc7"
  dropout_param {
    dropout_ratio: 0.8
  }
}
layer {
  name: "rgb_fc8"
  type: "InnerProduct"
  bottom: "rgb_fc7"
  top: "rgb_fc8"
  param {
    lr_mult: 1
    decay_mult: 1
  }
  param {
    lr_mult: 2
    decay_mult: 0
  }
  inner_product_param {
    num_output: 51
    weight_filler {
      type: "gaussian"
      std: 0.01
    }
    bias_filler {
      type: "constant"
      value: 0
    }
  }
}
layer {
  name: "accuracy"
  type: "Accuracy"
  bottom: "rgb_fc8"
  bottom: "label"
  top: "accuracy"
  include {
    phase: TEST
  }
}
layer {
  name: "loss"
  type: "SoftmaxWithLoss"
  bottom: "rgb_fc8"
  bottom: "label"
  top: "loss"
}
I0726 13:44:56.773169 13872 layer_factory.hpp:77] Creating layer twostream_data
I0726 13:44:56.773236 13872 net.cpp:91] Creating Layer twostream_data
I0726 13:44:56.773247 13872 net.cpp:399] twostream_data -> rgb_data
I0726 13:44:56.773259 13872 net.cpp:399] twostream_data -> flow_data
I0726 13:44:56.773270 13872 net.cpp:399] twostream_data -> label
I0726 13:44:56.773283 13872 twostream_snippet_data_layer.cpp:38] Extracting 1-view features in TEST phase.
I0726 13:44:56.833791 13872 twostream_snippet_data_layer.cpp:52] rgb data size: 1,48,112,112
I0726 13:44:56.833885 13872 twostream_snippet_data_layer.cpp:68] flow data size: 1,32,112,112
I0726 13:44:56.850466 13872 net.cpp:141] Setting up twostream_data
I0726 13:44:56.850502 13872 net.cpp:148] Top shape: 1 48 112 112 (602112)
I0726 13:44:56.850512 13872 net.cpp:148] Top shape: 1 32 112 112 (401408)
I0726 13:44:56.850518 13872 net.cpp:148] Top shape: 1 (1)
I0726 13:44:56.850523 13872 net.cpp:156] Memory required for data: 4014084
I0726 13:44:56.850533 13872 layer_factory.hpp:77] Creating layer label_twostream_data_2_split
I0726 13:44:56.850553 13872 net.cpp:91] Creating Layer label_twostream_data_2_split
I0726 13:44:56.850560 13872 net.cpp:425] label_twostream_data_2_split <- label
I0726 13:44:56.850574 13872 net.cpp:399] label_twostream_data_2_split -> label_twostream_data_2_split_0
I0726 13:44:56.850589 13872 net.cpp:399] label_twostream_data_2_split -> label_twostream_data_2_split_1
I0726 13:44:56.850669 13872 net.cpp:141] Setting up label_twostream_data_2_split
I0726 13:44:56.850680 13872 net.cpp:148] Top shape: 1 (1)
I0726 13:44:56.850688 13872 net.cpp:148] Top shape: 1 (1)
I0726 13:44:56.850694 13872 net.cpp:156] Memory required for data: 4014092
I0726 13:44:56.850700 13872 layer_factory.hpp:77] Creating layer reshape_flow
I0726 13:44:56.850713 13872 net.cpp:91] Creating Layer reshape_flow
I0726 13:44:56.850723 13872 net.cpp:425] reshape_flow <- flow_data
I0726 13:44:56.850733 13872 net.cpp:399] reshape_flow -> flow_vol_data
I0726 13:44:56.850775 13872 net.cpp:141] Setting up reshape_flow
I0726 13:44:56.850785 13872 net.cpp:148] Top shape: 1 2 16 112 112 (401408)
I0726 13:44:56.850791 13872 net.cpp:156] Memory required for data: 5619724
I0726 13:44:56.850797 13872 layer_factory.hpp:77] Creating layer flow_conv1a
I0726 13:44:56.850814 13872 net.cpp:91] Creating Layer flow_conv1a
I0726 13:44:56.850821 13872 net.cpp:425] flow_conv1a <- flow_vol_data
I0726 13:44:56.850831 13872 net.cpp:399] flow_conv1a -> flow_conv1a
I0726 13:44:56.852018 13872 net.cpp:141] Setting up flow_conv1a
I0726 13:44:56.852035 13872 net.cpp:148] Top shape: 1 64 16 112 112 (12845056)
I0726 13:44:56.852042 13872 net.cpp:156] Memory required for data: 56999948
I0726 13:44:56.852073 13872 layer_factory.hpp:77] Creating layer flow_relu1a
I0726 13:44:56.852087 13872 net.cpp:91] Creating Layer flow_relu1a
I0726 13:44:56.852094 13872 net.cpp:425] flow_relu1a <- flow_conv1a
I0726 13:44:56.852104 13872 net.cpp:386] flow_relu1a -> flow_conv1a (in-place)
I0726 13:44:56.852119 13872 net.cpp:141] Setting up flow_relu1a
I0726 13:44:56.852130 13872 net.cpp:148] Top shape: 1 64 16 112 112 (12845056)
I0726 13:44:56.852138 13872 net.cpp:156] Memory required for data: 108380172
I0726 13:44:56.852144 13872 layer_factory.hpp:77] Creating layer flow_pool1
I0726 13:44:56.852154 13872 net.cpp:91] Creating Layer flow_pool1
I0726 13:44:56.852172 13872 net.cpp:425] flow_pool1 <- flow_conv1a
I0726 13:44:56.852195 13872 net.cpp:399] flow_pool1 -> flow_pool1
I0726 13:44:56.852298 13872 net.cpp:141] Setting up flow_pool1
I0726 13:44:56.852309 13872 net.cpp:148] Top shape: 1 64 16 56 56 (3211264)
I0726 13:44:56.852315 13872 net.cpp:156] Memory required for data: 121225228
I0726 13:44:56.852322 13872 layer_factory.hpp:77] Creating layer flow_pool1_reduce_dim
I0726 13:44:56.852337 13872 net.cpp:91] Creating Layer flow_pool1_reduce_dim
I0726 13:44:56.852345 13872 net.cpp:425] flow_pool1_reduce_dim <- flow_pool1
I0726 13:44:56.852357 13872 net.cpp:399] flow_pool1_reduce_dim -> flow_pool1_reduce_dim
I0726 13:44:56.852725 13872 net.cpp:141] Setting up flow_pool1_reduce_dim
I0726 13:44:56.852740 13872 net.cpp:148] Top shape: 1 1 16 56 56 (50176)
I0726 13:44:56.852747 13872 net.cpp:156] Memory required for data: 121425932
I0726 13:44:56.852761 13872 layer_factory.hpp:77] Creating layer flow_pool1_normalized
I0726 13:44:56.852773 13872 net.cpp:91] Creating Layer flow_pool1_normalized
I0726 13:44:56.852782 13872 net.cpp:425] flow_pool1_normalized <- flow_pool1_reduce_dim
I0726 13:44:56.852792 13872 net.cpp:386] flow_pool1_normalized -> flow_pool1_reduce_dim (in-place)
I0726 13:44:56.852906 13872 net.cpp:141] Setting up flow_pool1_normalized
I0726 13:44:56.852917 13872 net.cpp:148] Top shape: 1 1 16 56 56 (50176)
I0726 13:44:56.852923 13872 net.cpp:156] Memory required for data: 121626636
I0726 13:44:56.852931 13872 layer_factory.hpp:77] Creating layer flow_pool1_attention
I0726 13:44:56.852942 13872 net.cpp:91] Creating Layer flow_pool1_attention
I0726 13:44:56.852951 13872 net.cpp:425] flow_pool1_attention <- flow_pool1_reduce_dim
I0726 13:44:56.852959 13872 net.cpp:399] flow_pool1_attention -> flow_pool1_attention
I0726 13:44:56.852993 13872 net.cpp:141] Setting up flow_pool1_attention
I0726 13:44:56.853003 13872 net.cpp:148] Top shape: 1 1 16 56 56 (50176)
I0726 13:44:56.853009 13872 net.cpp:156] Memory required for data: 121827340
I0726 13:44:56.853015 13872 layer_factory.hpp:77] Creating layer flow_pool1_attention_tiled
I0726 13:44:56.853027 13872 net.cpp:91] Creating Layer flow_pool1_attention_tiled
I0726 13:44:56.853034 13872 net.cpp:425] flow_pool1_attention_tiled <- flow_pool1_attention
I0726 13:44:56.853042 13872 net.cpp:399] flow_pool1_attention_tiled -> flow_pool1_attention_tiled
I0726 13:44:56.853107 13872 net.cpp:141] Setting up flow_pool1_attention_tiled
I0726 13:44:56.853119 13872 net.cpp:148] Top shape: 1 64 16 56 56 (3211264)
I0726 13:44:56.853126 13872 net.cpp:156] Memory required for data: 134672396
I0726 13:44:56.853132 13872 layer_factory.hpp:77] Creating layer reshape_rgb
I0726 13:44:56.853142 13872 net.cpp:91] Creating Layer reshape_rgb
I0726 13:44:56.853150 13872 net.cpp:425] reshape_rgb <- rgb_data
I0726 13:44:56.853160 13872 net.cpp:399] reshape_rgb -> rgb_vol_data
I0726 13:44:56.853193 13872 net.cpp:141] Setting up reshape_rgb
I0726 13:44:56.853205 13872 net.cpp:148] Top shape: 1 3 16 112 112 (602112)
I0726 13:44:56.853212 13872 net.cpp:156] Memory required for data: 137080844
I0726 13:44:56.853219 13872 layer_factory.hpp:77] Creating layer rgb_conv1a
I0726 13:44:56.853230 13872 net.cpp:91] Creating Layer rgb_conv1a
I0726 13:44:56.853236 13872 net.cpp:425] rgb_conv1a <- rgb_vol_data
I0726 13:44:56.853247 13872 net.cpp:399] rgb_conv1a -> rgb_conv1a
I0726 13:44:56.853579 13872 net.cpp:141] Setting up rgb_conv1a
I0726 13:44:56.853591 13872 net.cpp:148] Top shape: 1 64 16 112 112 (12845056)
I0726 13:44:56.853598 13872 net.cpp:156] Memory required for data: 188461068
I0726 13:44:56.853611 13872 layer_factory.hpp:77] Creating layer rgb_relu1a
I0726 13:44:56.853621 13872 net.cpp:91] Creating Layer rgb_relu1a
I0726 13:44:56.853628 13872 net.cpp:425] rgb_relu1a <- rgb_conv1a
I0726 13:44:56.853636 13872 net.cpp:386] rgb_relu1a -> rgb_conv1a (in-place)
I0726 13:44:56.853648 13872 net.cpp:141] Setting up rgb_relu1a
I0726 13:44:56.853657 13872 net.cpp:148] Top shape: 1 64 16 112 112 (12845056)
I0726 13:44:56.853663 13872 net.cpp:156] Memory required for data: 239841292
I0726 13:44:56.853677 13872 layer_factory.hpp:77] Creating layer rgb_pool1
I0726 13:44:56.853694 13872 net.cpp:91] Creating Layer rgb_pool1
I0726 13:44:56.853701 13872 net.cpp:425] rgb_pool1 <- rgb_conv1a
I0726 13:44:56.853710 13872 net.cpp:399] rgb_pool1 -> rgb_pool1
I0726 13:44:56.853744 13872 net.cpp:141] Setting up rgb_pool1
I0726 13:44:56.853754 13872 net.cpp:148] Top shape: 1 64 16 56 56 (3211264)
I0726 13:44:56.853760 13872 net.cpp:156] Memory required for data: 252686348
I0726 13:44:56.853765 13872 layer_factory.hpp:77] Creating layer rgb_pool1_feature_attention
I0726 13:44:56.853776 13872 net.cpp:91] Creating Layer rgb_pool1_feature_attention
I0726 13:44:56.853785 13872 net.cpp:425] rgb_pool1_feature_attention <- rgb_pool1
I0726 13:44:56.853792 13872 net.cpp:425] rgb_pool1_feature_attention <- flow_pool1_attention_tiled
I0726 13:44:56.853801 13872 net.cpp:399] rgb_pool1_feature_attention -> rgb_pool1_feature_attention
I0726 13:44:56.853835 13872 net.cpp:141] Setting up rgb_pool1_feature_attention
I0726 13:44:56.853845 13872 net.cpp:148] Top shape: 1 64 16 56 56 (3211264)
I0726 13:44:56.853852 13872 net.cpp:156] Memory required for data: 265531404
I0726 13:44:56.853857 13872 layer_factory.hpp:77] Creating layer rgb_conv2a
I0726 13:44:56.853870 13872 net.cpp:91] Creating Layer rgb_conv2a
I0726 13:44:56.853878 13872 net.cpp:425] rgb_conv2a <- rgb_pool1_feature_attention
I0726 13:44:56.853888 13872 net.cpp:399] rgb_conv2a -> rgb_conv2a
I0726 13:44:56.856786 13872 net.cpp:141] Setting up rgb_conv2a
I0726 13:44:56.856804 13872 net.cpp:148] Top shape: 1 128 16 56 56 (6422528)
I0726 13:44:56.856812 13872 net.cpp:156] Memory required for data: 291221516
I0726 13:44:56.856823 13872 layer_factory.hpp:77] Creating layer rgb_relu2a
I0726 13:44:56.856838 13872 net.cpp:91] Creating Layer rgb_relu2a
I0726 13:44:56.856848 13872 net.cpp:425] rgb_relu2a <- rgb_conv2a
I0726 13:44:56.856858 13872 net.cpp:386] rgb_relu2a -> rgb_conv2a (in-place)
I0726 13:44:56.856869 13872 net.cpp:141] Setting up rgb_relu2a
I0726 13:44:56.856878 13872 net.cpp:148] Top shape: 1 128 16 56 56 (6422528)
I0726 13:44:56.856884 13872 net.cpp:156] Memory required for data: 316911628
I0726 13:44:56.856890 13872 layer_factory.hpp:77] Creating layer rgb_pool2
I0726 13:44:56.856899 13872 net.cpp:91] Creating Layer rgb_pool2
I0726 13:44:56.856905 13872 net.cpp:425] rgb_pool2 <- rgb_conv2a
I0726 13:44:56.856914 13872 net.cpp:399] rgb_pool2 -> rgb_pool2
I0726 13:44:56.856950 13872 net.cpp:141] Setting up rgb_pool2
I0726 13:44:56.856961 13872 net.cpp:148] Top shape: 1 128 8 28 28 (802816)
I0726 13:44:56.856967 13872 net.cpp:156] Memory required for data: 320122892
I0726 13:44:56.856973 13872 layer_factory.hpp:77] Creating layer rgb_conv3a
I0726 13:44:56.856987 13872 net.cpp:91] Creating Layer rgb_conv3a
I0726 13:44:56.856995 13872 net.cpp:425] rgb_conv3a <- rgb_pool2
I0726 13:44:56.857005 13872 net.cpp:399] rgb_conv3a -> rgb_conv3a
I0726 13:44:56.865483 13872 net.cpp:141] Setting up rgb_conv3a
I0726 13:44:56.865504 13872 net.cpp:148] Top shape: 1 256 8 28 28 (1605632)
I0726 13:44:56.865511 13872 net.cpp:156] Memory required for data: 326545420
I0726 13:44:56.865526 13872 layer_factory.hpp:77] Creating layer rgb_relu3a
I0726 13:44:56.865537 13872 net.cpp:91] Creating Layer rgb_relu3a
I0726 13:44:56.865546 13872 net.cpp:425] rgb_relu3a <- rgb_conv3a
I0726 13:44:56.865556 13872 net.cpp:386] rgb_relu3a -> rgb_conv3a (in-place)
I0726 13:44:56.865567 13872 net.cpp:141] Setting up rgb_relu3a
I0726 13:44:56.865576 13872 net.cpp:148] Top shape: 1 256 8 28 28 (1605632)
I0726 13:44:56.865582 13872 net.cpp:156] Memory required for data: 332967948
I0726 13:44:56.865588 13872 layer_factory.hpp:77] Creating layer rgb_conv3b
I0726 13:44:56.865600 13872 net.cpp:91] Creating Layer rgb_conv3b
I0726 13:44:56.865607 13872 net.cpp:425] rgb_conv3b <- rgb_conv3a
I0726 13:44:56.865618 13872 net.cpp:399] rgb_conv3b -> rgb_conv3b
I0726 13:44:56.883925 13872 net.cpp:141] Setting up rgb_conv3b
I0726 13:44:56.883975 13872 net.cpp:148] Top shape: 1 256 8 28 28 (1605632)
I0726 13:44:56.883994 13872 net.cpp:156] Memory required for data: 339390476
I0726 13:44:56.884022 13872 layer_factory.hpp:77] Creating layer rgb_relu3b
I0726 13:44:56.884039 13872 net.cpp:91] Creating Layer rgb_relu3b
I0726 13:44:56.884049 13872 net.cpp:425] rgb_relu3b <- rgb_conv3b
I0726 13:44:56.884060 13872 net.cpp:386] rgb_relu3b -> rgb_conv3b (in-place)
I0726 13:44:56.884076 13872 net.cpp:141] Setting up rgb_relu3b
I0726 13:44:56.884084 13872 net.cpp:148] Top shape: 1 256 8 28 28 (1605632)
I0726 13:44:56.884090 13872 net.cpp:156] Memory required for data: 345813004
I0726 13:44:56.884096 13872 layer_factory.hpp:77] Creating layer rgb_pool3
I0726 13:44:56.884106 13872 net.cpp:91] Creating Layer rgb_pool3
I0726 13:44:56.884114 13872 net.cpp:425] rgb_pool3 <- rgb_conv3b
I0726 13:44:56.884122 13872 net.cpp:399] rgb_pool3 -> rgb_pool3
I0726 13:44:56.884167 13872 net.cpp:141] Setting up rgb_pool3
I0726 13:44:56.884184 13872 net.cpp:148] Top shape: 1 256 4 14 14 (200704)
I0726 13:44:56.884191 13872 net.cpp:156] Memory required for data: 346615820
I0726 13:44:56.884197 13872 layer_factory.hpp:77] Creating layer rgb_conv4a
I0726 13:44:56.884212 13872 net.cpp:91] Creating Layer rgb_conv4a
I0726 13:44:56.884222 13872 net.cpp:425] rgb_conv4a <- rgb_pool3
I0726 13:44:56.884232 13872 net.cpp:399] rgb_conv4a -> rgb_conv4a
I0726 13:44:56.914731 13872 net.cpp:141] Setting up rgb_conv4a
I0726 13:44:56.914767 13872 net.cpp:148] Top shape: 1 512 4 14 14 (401408)
I0726 13:44:56.914772 13872 net.cpp:156] Memory required for data: 348221452
I0726 13:44:56.914782 13872 layer_factory.hpp:77] Creating layer rgb_relu4a
I0726 13:44:56.914791 13872 net.cpp:91] Creating Layer rgb_relu4a
I0726 13:44:56.914796 13872 net.cpp:425] rgb_relu4a <- rgb_conv4a
I0726 13:44:56.914804 13872 net.cpp:386] rgb_relu4a -> rgb_conv4a (in-place)
I0726 13:44:56.914813 13872 net.cpp:141] Setting up rgb_relu4a
I0726 13:44:56.914818 13872 net.cpp:148] Top shape: 1 512 4 14 14 (401408)
I0726 13:44:56.914820 13872 net.cpp:156] Memory required for data: 349827084
I0726 13:44:56.914824 13872 layer_factory.hpp:77] Creating layer rgb_conv4b
I0726 13:44:56.914834 13872 net.cpp:91] Creating Layer rgb_conv4b
I0726 13:44:56.914836 13872 net.cpp:425] rgb_conv4b <- rgb_conv4a
I0726 13:44:56.914841 13872 net.cpp:399] rgb_conv4b -> rgb_conv4b
I0726 13:44:56.971384 13872 net.cpp:141] Setting up rgb_conv4b
I0726 13:44:56.971418 13872 net.cpp:148] Top shape: 1 512 4 14 14 (401408)
I0726 13:44:56.971422 13872 net.cpp:156] Memory required for data: 351432716
I0726 13:44:56.971431 13872 layer_factory.hpp:77] Creating layer rgb_relu4b
I0726 13:44:56.971441 13872 net.cpp:91] Creating Layer rgb_relu4b
I0726 13:44:56.971444 13872 net.cpp:425] rgb_relu4b <- rgb_conv4b
I0726 13:44:56.971451 13872 net.cpp:386] rgb_relu4b -> rgb_conv4b (in-place)
I0726 13:44:56.971459 13872 net.cpp:141] Setting up rgb_relu4b
I0726 13:44:56.971464 13872 net.cpp:148] Top shape: 1 512 4 14 14 (401408)
I0726 13:44:56.971467 13872 net.cpp:156] Memory required for data: 353038348
I0726 13:44:56.971470 13872 layer_factory.hpp:77] Creating layer rgb_pool4
I0726 13:44:56.971475 13872 net.cpp:91] Creating Layer rgb_pool4
I0726 13:44:56.971479 13872 net.cpp:425] rgb_pool4 <- rgb_conv4b
I0726 13:44:56.971483 13872 net.cpp:399] rgb_pool4 -> rgb_pool4
I0726 13:44:56.971508 13872 net.cpp:141] Setting up rgb_pool4
I0726 13:44:56.971514 13872 net.cpp:148] Top shape: 1 512 2 7 7 (50176)
I0726 13:44:56.971518 13872 net.cpp:156] Memory required for data: 353239052
I0726 13:44:56.971521 13872 layer_factory.hpp:77] Creating layer rgb_conv5a
I0726 13:44:56.971530 13872 net.cpp:91] Creating Layer rgb_conv5a
I0726 13:44:56.971534 13872 net.cpp:425] rgb_conv5a <- rgb_pool4
I0726 13:44:56.971539 13872 net.cpp:399] rgb_conv5a -> rgb_conv5a
I0726 13:44:57.025934 13872 net.cpp:141] Setting up rgb_conv5a
I0726 13:44:57.025964 13872 net.cpp:148] Top shape: 1 512 2 7 7 (50176)
I0726 13:44:57.025969 13872 net.cpp:156] Memory required for data: 353439756
I0726 13:44:57.025982 13872 layer_factory.hpp:77] Creating layer rgb_relu5a
I0726 13:44:57.025992 13872 net.cpp:91] Creating Layer rgb_relu5a
I0726 13:44:57.026005 13872 net.cpp:425] rgb_relu5a <- rgb_conv5a
I0726 13:44:57.026018 13872 net.cpp:386] rgb_relu5a -> rgb_conv5a (in-place)
I0726 13:44:57.026027 13872 net.cpp:141] Setting up rgb_relu5a
I0726 13:44:57.026031 13872 net.cpp:148] Top shape: 1 512 2 7 7 (50176)
I0726 13:44:57.026033 13872 net.cpp:156] Memory required for data: 353640460
I0726 13:44:57.026036 13872 layer_factory.hpp:77] Creating layer rgb_conv5b
I0726 13:44:57.026046 13872 net.cpp:91] Creating Layer rgb_conv5b
I0726 13:44:57.026048 13872 net.cpp:425] rgb_conv5b <- rgb_conv5a
I0726 13:44:57.026052 13872 net.cpp:399] rgb_conv5b -> rgb_conv5b
I0726 13:44:57.080466 13872 net.cpp:141] Setting up rgb_conv5b
I0726 13:44:57.080499 13872 net.cpp:148] Top shape: 1 512 2 7 7 (50176)
I0726 13:44:57.080503 13872 net.cpp:156] Memory required for data: 353841164
I0726 13:44:57.080510 13872 layer_factory.hpp:77] Creating layer rgb_relu5b
I0726 13:44:57.080520 13872 net.cpp:91] Creating Layer rgb_relu5b
I0726 13:44:57.080524 13872 net.cpp:425] rgb_relu5b <- rgb_conv5b
I0726 13:44:57.080531 13872 net.cpp:386] rgb_relu5b -> rgb_conv5b (in-place)
I0726 13:44:57.080538 13872 net.cpp:141] Setting up rgb_relu5b
I0726 13:44:57.080543 13872 net.cpp:148] Top shape: 1 512 2 7 7 (50176)
I0726 13:44:57.080546 13872 net.cpp:156] Memory required for data: 354041868
I0726 13:44:57.080549 13872 layer_factory.hpp:77] Creating layer rgb_pool5
I0726 13:44:57.080559 13872 net.cpp:91] Creating Layer rgb_pool5
I0726 13:44:57.080561 13872 net.cpp:425] rgb_pool5 <- rgb_conv5b
I0726 13:44:57.080567 13872 net.cpp:399] rgb_pool5 -> rgb_pool5
I0726 13:44:57.080593 13872 net.cpp:141] Setting up rgb_pool5
I0726 13:44:57.080600 13872 net.cpp:148] Top shape: 1 512 1 4 4 (8192)
I0726 13:44:57.080602 13872 net.cpp:156] Memory required for data: 354074636
I0726 13:44:57.080606 13872 layer_factory.hpp:77] Creating layer rgb_fc6
I0726 13:44:57.080612 13872 net.cpp:91] Creating Layer rgb_fc6
I0726 13:44:57.080615 13872 net.cpp:425] rgb_fc6 <- rgb_pool5
I0726 13:44:57.080621 13872 net.cpp:399] rgb_fc6 -> rgb_fc6
I0726 13:44:57.335372 13872 net.cpp:141] Setting up rgb_fc6
I0726 13:44:57.335410 13872 net.cpp:148] Top shape: 1 4096 (4096)
I0726 13:44:57.335414 13872 net.cpp:156] Memory required for data: 354091020
I0726 13:44:57.335424 13872 layer_factory.hpp:77] Creating layer rgb_relu6
I0726 13:44:57.335433 13872 net.cpp:91] Creating Layer rgb_relu6
I0726 13:44:57.335438 13872 net.cpp:425] rgb_relu6 <- rgb_fc6
I0726 13:44:57.335444 13872 net.cpp:386] rgb_relu6 -> rgb_fc6 (in-place)
I0726 13:44:57.335453 13872 net.cpp:141] Setting up rgb_relu6
I0726 13:44:57.335456 13872 net.cpp:148] Top shape: 1 4096 (4096)
I0726 13:44:57.335458 13872 net.cpp:156] Memory required for data: 354107404
I0726 13:44:57.335461 13872 layer_factory.hpp:77] Creating layer rgb_drop6
I0726 13:44:57.335467 13872 net.cpp:91] Creating Layer rgb_drop6
I0726 13:44:57.335472 13872 net.cpp:425] rgb_drop6 <- rgb_fc6
I0726 13:44:57.335476 13872 net.cpp:386] rgb_drop6 -> rgb_fc6 (in-place)
I0726 13:44:57.335497 13872 net.cpp:141] Setting up rgb_drop6
I0726 13:44:57.335503 13872 net.cpp:148] Top shape: 1 4096 (4096)
I0726 13:44:57.335506 13872 net.cpp:156] Memory required for data: 354123788
I0726 13:44:57.335510 13872 layer_factory.hpp:77] Creating layer rgb_fc7
I0726 13:44:57.335515 13872 net.cpp:91] Creating Layer rgb_fc7
I0726 13:44:57.335520 13872 net.cpp:425] rgb_fc7 <- rgb_fc6
I0726 13:44:57.335525 13872 net.cpp:399] rgb_fc7 -> rgb_fc7
I0726 13:44:57.463614 13872 net.cpp:141] Setting up rgb_fc7
I0726 13:44:57.463649 13872 net.cpp:148] Top shape: 1 4096 (4096)
I0726 13:44:57.463654 13872 net.cpp:156] Memory required for data: 354140172
I0726 13:44:57.463662 13872 layer_factory.hpp:77] Creating layer rgb_relu7
I0726 13:44:57.463671 13872 net.cpp:91] Creating Layer rgb_relu7
I0726 13:44:57.463675 13872 net.cpp:425] rgb_relu7 <- rgb_fc7
I0726 13:44:57.463681 13872 net.cpp:386] rgb_relu7 -> rgb_fc7 (in-place)
I0726 13:44:57.463690 13872 net.cpp:141] Setting up rgb_relu7
I0726 13:44:57.463693 13872 net.cpp:148] Top shape: 1 4096 (4096)
I0726 13:44:57.463711 13872 net.cpp:156] Memory required for data: 354156556
I0726 13:44:57.463713 13872 layer_factory.hpp:77] Creating layer rgb_drop7
I0726 13:44:57.463719 13872 net.cpp:91] Creating Layer rgb_drop7
I0726 13:44:57.463722 13872 net.cpp:425] rgb_drop7 <- rgb_fc7
I0726 13:44:57.463726 13872 net.cpp:386] rgb_drop7 -> rgb_fc7 (in-place)
I0726 13:44:57.463747 13872 net.cpp:141] Setting up rgb_drop7
I0726 13:44:57.463754 13872 net.cpp:148] Top shape: 1 4096 (4096)
I0726 13:44:57.463757 13872 net.cpp:156] Memory required for data: 354172940
I0726 13:44:57.463759 13872 layer_factory.hpp:77] Creating layer rgb_fc8
I0726 13:44:57.463766 13872 net.cpp:91] Creating Layer rgb_fc8
I0726 13:44:57.463770 13872 net.cpp:425] rgb_fc8 <- rgb_fc7
I0726 13:44:57.463774 13872 net.cpp:399] rgb_fc8 -> rgb_fc8
I0726 13:44:57.465273 13872 net.cpp:141] Setting up rgb_fc8
I0726 13:44:57.465283 13872 net.cpp:148] Top shape: 1 51 (51)
I0726 13:44:57.465287 13872 net.cpp:156] Memory required for data: 354173144
I0726 13:44:57.465292 13872 layer_factory.hpp:77] Creating layer rgb_fc8_rgb_fc8_0_split
I0726 13:44:57.465297 13872 net.cpp:91] Creating Layer rgb_fc8_rgb_fc8_0_split
I0726 13:44:57.465301 13872 net.cpp:425] rgb_fc8_rgb_fc8_0_split <- rgb_fc8
I0726 13:44:57.465306 13872 net.cpp:399] rgb_fc8_rgb_fc8_0_split -> rgb_fc8_rgb_fc8_0_split_0
I0726 13:44:57.465312 13872 net.cpp:399] rgb_fc8_rgb_fc8_0_split -> rgb_fc8_rgb_fc8_0_split_1
I0726 13:44:57.465342 13872 net.cpp:141] Setting up rgb_fc8_rgb_fc8_0_split
I0726 13:44:57.465348 13872 net.cpp:148] Top shape: 1 51 (51)
I0726 13:44:57.465351 13872 net.cpp:148] Top shape: 1 51 (51)
I0726 13:44:57.465354 13872 net.cpp:156] Memory required for data: 354173552
I0726 13:44:57.465358 13872 layer_factory.hpp:77] Creating layer accuracy
I0726 13:44:57.465363 13872 net.cpp:91] Creating Layer accuracy
I0726 13:44:57.465366 13872 net.cpp:425] accuracy <- rgb_fc8_rgb_fc8_0_split_0
I0726 13:44:57.465370 13872 net.cpp:425] accuracy <- label_twostream_data_2_split_0
I0726 13:44:57.465375 13872 net.cpp:399] accuracy -> accuracy
…
