…
  top: "label"
  include {
    phase: TRAIN
  }
  transform_param {
    mirror: true
    crop_size: 112
    mean_value: 128
    fix_crop: true
    multi_scale: true
    scale_ratios: 1
    scale_ratios: 0.875
    scale_ratios: 0.75
    scale_ratios: 0.66
    max_distort: 1
    is_flow: false
    new_height: 128
    new_width: 171
  }
  flow_data_param {
    source: "/home/tranlaman/Public/data/new-caffe-database/ucf101_rgb_overlapping_segment16_train_test_split1/train_rgb_lmdb/"
    batch_size: 35
    new_length: 16
    modality: RGB
    backend: LMDB
  }
}
layer {
  name: "reshape"
  type: "Reshape"
  bottom: "data"
  top: "vol_data"
  reshape_param {
    shape {
      dim: 3
      dim: -1
    }
    axis: 1
    num_axes: 1
  }
}
layer {
  name: "rgb_conv1a"
  type: "Convolution"
  bottom: "vol_data"
  top: "rgb_conv1a"
  param {
    lr_mult: 1
    decay_mult: 1
  }
  param {
    lr_mult: 2
    decay_mult: 0
  }
  convolution_param {
    num_output: 64
    pad: 1
    kernel_size: 3
    weight_filler {
      type: "gaussian"
      std: 0.01
    }
    bias_filler {
      type: "constant"
      value: 0
    }
    engine: CAFFE
    axis: 1
  }
}
layer {
  name: "rgb_relu1a"
  type: "ReLU"
  bottom: "rgb_conv1a"
  top: "rgb_conv1a"
  relu_param {
    engine: CAFFE
  }
}
layer {
  name: "rgb_pool1"
  type: "Pooling3D"
  bottom: "rgb_conv1a"
  top: "rgb_pool1"
  pooling3d_param {
    pool: MAX
    kernel_size: 2
    stride: 2
    kernel_depth: 1
    temporal_stride: 1
  }
}
layer {
  name: "rgb_conv2a"
  type: "Convolution"
  bottom: "rgb_pool1"
  top: "rgb_conv2a"
  param {
    lr_mult: 1
    decay_mult: 1
  }
  param {
    lr_mult: 2
    decay_mult: 0
  }
  convolution_param {
    num_output: 128
    pad: 1
    kernel_size: 3
    weight_filler {
      type: "gaussian"
      std: 0.01
    }
    bias_filler {
      type: "constant"
      value: 1
    }
    engine: CAFFE
    axis: 1
  }
}
layer {
  name: "rgb_relu2a"
  type: "ReLU"
  bottom: "rgb_conv2a"
  top: "rgb_conv2a"
  relu_param {
    engine: CAFFE
  }
}
layer {
  name: "rgb_pool2"
  type: "Pooling3D"
  bottom: "rgb_conv2a"
  top: "rgb_pool2"
  pooling3d_param {
    pool: MAX
    kernel_size: 2
    stride: 2
    kernel_depth: 2
    temporal_stride: 2
  }
}
layer {
  name: "rgb_conv3a"
  type: "Convolution"
  bottom: "rgb_pool2"
  top: "rgb_conv3a"
  param {
    lr_mult: 1
    decay_mult: 1
  }
  param {
    lr_mult: 2
    decay_mult: 0
  }
  convolution_param {
    num_output: 256
    pad: 1
    kernel_size: 3
    weight_filler {
      type: "gaussian"
      std: 0.01
    }
    bias_filler {
      type: "constant"
      value: 1
    }
    engine: CAFFE
    axis: 1
  }
}
layer {
  name: "rgb_relu3a"
  type: "ReLU"
  bottom: "rgb_conv3a"
  top: "rgb_conv3a"
  relu_param {
    engine: CAFFE
  }
}
layer {
  name: "rgb_conv3b"
  type: "Convolution"
  bottom: "rgb_conv3a"
  top: "rgb_conv3b"
  param {
    lr_mult: 1
    decay_mult: 1
  }
  param {
    lr_mult: 2
    decay_mult: 0
  }
  convolution_param {
    num_output: 256
    pad: 1
    kernel_size: 3
    weight_filler {
      type: "gaussian"
      std: 0.01
    }
    bias_filler {
      type: "constant"
      value: 1
    }
    engine: CAFFE
    axis: 1
  }
}
layer {
  name: "rgb_relu3b"
  type: "ReLU"
  bottom: "rgb_conv3b"
  top: "rgb_conv3b"
  relu_param {
    engine: CAFFE
  }
}
layer {
  name: "rgb_pool3"
  type: "Pooling3D"
  bottom: "rgb_conv3b"
  top: "rgb_pool3"
  pooling3d_param {
    pool: MAX
    kernel_size: 2
    stride: 2
    kernel_depth: 2
    temporal_stride: 2
  }
}
layer {
  name: "rgb_conv4a"
  type: "Convolution"
  bottom: "rgb_pool3"
  top: "rgb_conv4a"
  param {
    lr_mult: 1
    decay_mult: 1
  }
  param {
    lr_mult: 2
    decay_mult: 0
  }
  convolution_param {
    num_output: 512
    pad: 1
    kernel_size: 3
    weight_filler {
      type: "gaussian"
      std: 0.01
    }
    bias_filler {
      type: "constant"
      value: 1
    }
    engine: CAFFE
    axis: 1
  }
}
layer {
  name: "rgb_relu4a"
  type: "ReLU"
  bottom: "rgb_conv4a"
  top: "rgb_conv4a"
  relu_param {
    engine: CAFFE
  }
}
layer {
  name: "rgb_conv4b"
  type: "Convolution"
  bottom: "rgb_conv4a"
  top: "rgb_conv4b"
  param {
    lr_mult: 1
    decay_mult: 1
  }
  param {
    lr_mult: 2
    decay_mult: 0
  }
  convolution_param {
    num_output: 512
    pad: 1
    kernel_size: 3
    weight_filler {
      type: "gaussian"
      std: 0.01
    }
    bias_filler {
      type: "constant"
      value: 1
    }
    engine: CAFFE
    axis: 1
  }
}
layer {
  name: "rgb_relu4b"
  type: "ReLU"
  bottom: "rgb_conv4b"
  top: "rgb_conv4b"
  relu_param {
    engine: CAFFE
  }
}
layer {
  name: "rgb_pool4"
  type: "Pooling3D"
  bottom: "rgb_conv4b"
  top: "rgb_pool4"
  pooling3d_param {
    pool: MAX
    kernel_size: 2
    stride: 2
    kernel_depth: 2
    temporal_stride: 2
  }
}
layer {
  name: "rgb_conv5a"
  type: "Convolution"
  bottom: "rgb_pool4"
  top: "rgb_conv5a"
  param {
    lr_mult: 1
    decay_mult: 1
  }
  param {
    lr_mult: 2
    decay_mult: 0
  }
  convolution_param {
    num_output: 512
    pad: 1
    kernel_size: 3
    weight_filler {
      type: "gaussian"
      std: 0.01
    }
    bias_filler {
      type: "constant"
      value: 1
    }
    engine: CAFFE
    axis: 1
  }
}
layer {
  name: "rgb_relu5a"
  type: "ReLU"
  bottom: "rgb_conv5a"
  top: "rgb_conv5a"
  relu_param {
    engine: CAFFE
  }
}
layer {
  name: "rgb_conv5b"
  type: "Convolution"
  bottom: "rgb_conv5a"
  top: "rgb_conv5b"
  param {
    lr_mult: 1
    decay_mult: 1
  }
  param {
    lr_mult: 2
    decay_mult: 0
  }
  convolution_param {
    num_output: 512
    pad: 1
    kernel_size: 3
    weight_filler {
      type: "gaussian"
      std: 0.01
    }
    bias_filler {
      type: "constant"
      value: 1
    }
    engine: CAFFE
    axis: 1
  }
}
layer {
  name: "rgb_relu5b"
  type: "ReLU"
  bottom: "rgb_conv5b"
  top: "rgb_conv5b"
  relu_param {
    engine: CAFFE
  }
}
layer {
  name: "rgb_pool5"
  type: "Pooling3D"
  bottom: "rgb_conv5b"
  top: "rgb_pool5"
  pooling3d_param {
    pool: MAX
    kernel_size: 2
    stride: 2
    kernel_depth: 2
    temporal_stride: 2
  }
}
layer {
  name: "rgb_fc6"
  type: "InnerProduct"
  bottom: "rgb_pool5"
  top: "rgb_fc6"
  param {
    lr_mult: 1
    decay_mult: 1
  }
  param {
    lr_mult: 2
    decay_mult: 0
  }
  inner_product_param {
    num_output: 4096
    weight_filler {
      type: "gaussian"
      std: 0.005
    }
    bias_filler {
      type: "constant"
      value: 1
    }
  }
}
layer {
  name: "rgb_relu6"
  type: "ReLU"
  bottom: "rgb_fc6"
  top: "rgb_fc6"
  relu_param {
    engine: CAFFE
  }
}
layer {
  name: "rgb_drop6"
  type: "Dropout"
  bottom: "rgb_fc6"
  top: "rgb_fc6"
  dropout_param {
    dropout_ratio: 0.9
  }
}
layer {
  name: "rgb_fc7"
  type: "InnerProduct"
  bottom: "rgb_fc6"
  top: "rgb_fc7"
  param {
    lr_mult: 1
    decay_mult: 1
  }
  param {
    lr_mult: 2
    decay_mult: 0
  }
  inner_product_param {
    num_output: 4096
    weight_filler {
      type: "gaussian"
      std: 0.005
    }
    bias_filler {
      type: "constant"
      value: 1
    }
  }
}
layer {
  name: "rgb_relu7"
  type: "ReLU"
  bottom: "rgb_fc7"
  top: "rgb_fc7"
  relu_param {
    engine: CAFFE
  }
}
layer {
  name: "rgb_drop7"
  type: "Dropout"
  bottom: "rgb_fc7"
  top: "rgb_fc7"
  dropout_param {
    dropout_ratio: 0.8
  }
}
layer {
  name: "rgb_fc8"
  type: "InnerProduct"
  bottom: "rgb_fc7"
  top: "rgb_fc8"
  param {
    lr_mult: 1
    decay_mult: 1
  }
  param {
    lr_mult: 2
    decay_mult: 0
  }
  inner_product_param {
    num_output: 101
    weight_filler {
      type: "gaussian"
      std: 0.01
    }
    bias_filler {
      type: "constant"
      value: 0
    }
  }
}
layer {
  name: "loss"
  type: "SoftmaxWithLoss"
  bottom: "rgb_fc8"
  bottom: "label"
  top: "loss"
}
I1125 23:17:32.132227   759 layer_factory.hpp:77] Creating layer data
I1125 23:17:32.133157   759 net.cpp:91] Creating Layer data
I1125 23:17:32.133213   759 net.cpp:399] data -> data
I1125 23:17:32.133273   759 net.cpp:399] data -> label
I1125 23:17:32.172519   770 db_lmdb.cpp:38] Opened lmdb /home/tranlaman/Public/data/new-caffe-database/ucf101_rgb_overlapping_segment16_train_test_split1/train_rgb_lmdb/
I1125 23:17:32.245987   759 flow_data_layer.cpp:52] output data size: 35,48,112,112
I1125 23:17:32.521435   759 net.cpp:141] Setting up data
I1125 23:17:32.521466   759 net.cpp:148] Top shape: 35 48 112 112 (21073920)
I1125 23:17:32.521473   759 net.cpp:148] Top shape: 35 (35)
I1125 23:17:32.521476   759 net.cpp:156] Memory required for data: 84295820
I1125 23:17:32.521486   759 layer_factory.hpp:77] Creating layer reshape
I1125 23:17:32.521500   759 net.cpp:91] Creating Layer reshape
I1125 23:17:32.521507   759 net.cpp:425] reshape <- data
I1125 23:17:32.521517   759 net.cpp:399] reshape -> vol_data
I1125 23:17:32.521600   759 net.cpp:141] Setting up reshape
I1125 23:17:32.521608   759 net.cpp:148] Top shape: 35 3 16 112 112 (21073920)
I1125 23:17:32.521611   759 net.cpp:156] Memory required for data: 168591500
I1125 23:17:32.521615   759 layer_factory.hpp:77] Creating layer rgb_conv1a
I1125 23:17:32.521632   759 net.cpp:91] Creating Layer rgb_conv1a
I1125 23:17:32.521636   759 net.cpp:425] rgb_conv1a <- vol_data
I1125 23:17:32.521643   759 net.cpp:399] rgb_conv1a -> rgb_conv1a
I1125 23:17:32.536561   759 net.cpp:141] Setting up rgb_conv1a
I1125 23:17:32.536581   759 net.cpp:148] Top shape: 35 64 16 112 112 (449576960)
I1125 23:17:32.536584   759 net.cpp:156] Memory required for data: 1966899340
I1125 23:17:32.536598   759 layer_factory.hpp:77] Creating layer rgb_relu1a
I1125 23:17:32.536605   759 net.cpp:91] Creating Layer rgb_relu1a
I1125 23:17:32.536609   759 net.cpp:425] rgb_relu1a <- rgb_conv1a
I1125 23:17:32.536614   759 net.cpp:386] rgb_relu1a -> rgb_conv1a (in-place)
I1125 23:17:32.536623   759 net.cpp:141] Setting up rgb_relu1a
I1125 23:17:32.536628   759 net.cpp:148] Top shape: 35 64 16 112 112 (449576960)
I1125 23:17:32.536629   759 net.cpp:156] Memory required for data: 3765207180
I1125 23:17:32.536633   759 layer_factory.hpp:77] Creating layer rgb_pool1
I1125 23:17:32.536640   759 net.cpp:91] Creating Layer rgb_pool1
I1125 23:17:32.536644   759 net.cpp:425] rgb_pool1 <- rgb_conv1a
I1125 23:17:32.536648   759 net.cpp:399] rgb_pool1 -> rgb_pool1
I1125 23:17:32.536675   759 net.cpp:141] Setting up rgb_pool1
I1125 23:17:32.536684   759 net.cpp:148] Top shape: 35 64 16 56 56 (112394240)
I1125 23:17:32.536687   759 net.cpp:156] Memory required for data: 4214784140
I1125 23:17:32.536690   759 layer_factory.hpp:77] Creating layer rgb_conv2a
I1125 23:17:32.536700   759 net.cpp:91] Creating Layer rgb_conv2a
I1125 23:17:32.536703   759 net.cpp:425] rgb_conv2a <- rgb_pool1
I1125 23:17:32.536710   759 net.cpp:399] rgb_conv2a -> rgb_conv2a
I1125 23:17:32.539201   759 net.cpp:141] Setting up rgb_conv2a
I1125 23:17:32.539213   759 net.cpp:148] Top shape: 35 128 16 56 56 (224788480)
I1125 23:17:32.539217   759 net.cpp:156] Memory required for data: 5113938060
I1125 23:17:32.539225   759 layer_factory.hpp:77] Creating layer rgb_relu2a
I1125 23:17:32.539235   759 net.cpp:91] Creating Layer rgb_relu2a
I1125 23:17:32.539247   759 net.cpp:425] rgb_relu2a <- rgb_conv2a
I1125 23:17:32.539253   759 net.cpp:386] rgb_relu2a -> rgb_conv2a (in-place)
I1125 23:17:32.539258   759 net.cpp:141] Setting up rgb_relu2a
I1125 23:17:32.539263   759 net.cpp:148] Top shape: 35 128 16 56 56 (224788480)
I1125 23:17:32.539265   759 net.cpp:156] Memory required for data: 6013091980
I1125 23:17:32.539269   759 layer_factory.hpp:77] Creating layer rgb_pool2
I1125 23:17:32.539273   759 net.cpp:91] Creating Layer rgb_pool2
I1125 23:17:32.539278   759 net.cpp:425] rgb_pool2 <- rgb_conv2a
I1125 23:17:32.539281   759 net.cpp:399] rgb_pool2 -> rgb_pool2
I1125 23:17:32.539305   759 net.cpp:141] Setting up rgb_pool2
I1125 23:17:32.539312   759 net.cpp:148] Top shape: 35 128 8 28 28 (28098560)
I1125 23:17:32.539315   759 net.cpp:156] Memory required for data: 6125486220
I1125 23:17:32.539319   759 layer_factory.hpp:77] Creating layer rgb_conv3a
I1125 23:17:32.539329   759 net.cpp:91] Creating Layer rgb_conv3a
I1125 23:17:32.539332   759 net.cpp:425] rgb_conv3a <- rgb_pool2
I1125 23:17:32.539338   759 net.cpp:399] rgb_conv3a -> rgb_conv3a
I1125 23:17:32.546540   759 net.cpp:141] Setting up rgb_conv3a
I1125 23:17:32.546555   759 net.cpp:148] Top shape: 35 256 8 28 28 (56197120)
I1125 23:17:32.546558   759 net.cpp:156] Memory required for data: 6350274700
I1125 23:17:32.546566   759 layer_factory.hpp:77] Creating layer rgb_relu3a
I1125 23:17:32.546572   759 net.cpp:91] Creating Layer rgb_relu3a
I1125 23:17:32.546576   759 net.cpp:425] rgb_relu3a <- rgb_conv3a
I1125 23:17:32.546581   759 net.cpp:386] rgb_relu3a -> rgb_conv3a (in-place)
I1125 23:17:32.546586   759 net.cpp:141] Setting up rgb_relu3a
I1125 23:17:32.546591   759 net.cpp:148] Top shape: 35 256 8 28 28 (56197120)
I1125 23:17:32.546593   759 net.cpp:156] Memory required for data: 6575063180
I1125 23:17:32.546597   759 layer_factory.hpp:77] Creating layer rgb_conv3b
I1125 23:17:32.546603   759 net.cpp:91] Creating Layer rgb_conv3b
I1125 23:17:32.546607   759 net.cpp:425] rgb_conv3b <- rgb_conv3a
I1125 23:17:32.546612   759 net.cpp:399] rgb_conv3b -> rgb_conv3b
I1125 23:17:32.560675   759 net.cpp:141] Setting up rgb_conv3b
I1125 23:17:32.560698   759 net.cpp:148] Top shape: 35 256 8 28 28 (56197120)
I1125 23:17:32.560700   759 net.cpp:156] Memory required for data: 6799851660
I1125 23:17:32.560708   759 layer_factory.hpp:77] Creating layer rgb_relu3b
I1125 23:17:32.560714   759 net.cpp:91] Creating Layer rgb_relu3b
I1125 23:17:32.560717   759 net.cpp:425] rgb_relu3b <- rgb_conv3b
I1125 23:17:32.560724   759 net.cpp:386] rgb_relu3b -> rgb_conv3b (in-place)
I1125 23:17:32.560730   759 net.cpp:141] Setting up rgb_relu3b
I1125 23:17:32.560734   759 net.cpp:148] Top shape: 35 256 8 28 28 (56197120)
I1125 23:17:32.560737   759 net.cpp:156] Memory required for data: 7024640140
I1125 23:17:32.560739   759 layer_factory.hpp:77] Creating layer rgb_pool3
I1125 23:17:32.560745   759 net.cpp:91] Creating Layer rgb_pool3
I1125 23:17:32.560748   759 net.cpp:425] rgb_pool3 <- rgb_conv3b
I1125 23:17:32.560752   759 net.cpp:399] rgb_pool3 -> rgb_pool3
I1125 23:17:32.560771   759 net.cpp:141] Setting up rgb_pool3
I1125 23:17:32.560777   759 net.cpp:148] Top shape: 35 256 4 14 14 (7024640)
I1125 23:17:32.560781   759 net.cpp:156] Memory required for data: 7052738700
I1125 23:17:32.560784   759 layer_factory.hpp:77] Creating layer rgb_conv4a
I1125 23:17:32.560793   759 net.cpp:91] Creating Layer rgb_conv4a
I1125 23:17:32.560797   759 net.cpp:425] rgb_conv4a <- rgb_pool3
I1125 23:17:32.560802   759 net.cpp:399] rgb_conv4a -> rgb_conv4a
I1125 23:17:32.589380   759 net.cpp:141] Setting up rgb_conv4a
I1125 23:17:32.589414   759 net.cpp:148] Top shape: 35 512 4 14 14 (14049280)
I1125 23:17:32.589418   759 net.cpp:156] Memory required for data: 7108935820
I1125 23:17:32.589432   759 layer_factory.hpp:77] Creating layer rgb_relu4a
I1125 23:17:32.589440   759 net.cpp:91] Creating Layer rgb_relu4a
I1125 23:17:32.589444   759 net.cpp:425] rgb_relu4a <- rgb_conv4a
I1125 23:17:32.589460   759 net.cpp:386] rgb_relu4a -> rgb_conv4a (in-place)
I1125 23:17:32.589478   759 net.cpp:141] Setting up rgb_relu4a
I1125 23:17:32.589483   759 net.cpp:148] Top shape: 35 512 4 14 14 (14049280)
I1125 23:17:32.589485   759 net.cpp:156] Memory required for data: 7165132940
I1125 23:17:32.589489   759 layer_factory.hpp:77] Creating layer rgb_conv4b
I1125 23:17:32.589498   759 net.cpp:91] Creating Layer rgb_conv4b
I1125 23:17:32.589501   759 net.cpp:425] rgb_conv4b <- rgb_conv4a
I1125 23:17:32.589507   759 net.cpp:399] rgb_conv4b -> rgb_conv4b
I1125 23:17:32.645963   759 net.cpp:141] Setting up rgb_conv4b
I1125 23:17:32.646000   759 net.cpp:148] Top shape: 35 512 4 14 14 (14049280)
I1125 23:17:32.646004   759 net.cpp:156] Memory required for data: 7221330060
I1125 23:17:32.646013   759 layer_factory.hpp:77] Creating layer rgb_relu4b
I1125 23:17:32.646029   759 net.cpp:91] Creating Layer rgb_relu4b
I1125 23:17:32.646034   759 net.cpp:425] rgb_relu4b <- rgb_conv4b
I1125 23:17:32.646041   759 net.cpp:386] rgb_relu4b -> rgb_conv4b (in-place)
I1125 23:17:32.646050   759 net.cpp:141] Setting up rgb_relu4b
I1125 23:17:32.646055   759 net.cpp:148] Top shape: 35 512 4 14 14 (14049280)
I1125 23:17:32.646059   759 net.cpp:156] Memory required for data: 7277527180
I1125 23:17:32.646061   759 layer_factory.hpp:77] Creating layer rgb_pool4
I1125 23:17:32.646070   759 net.cpp:91] Creating Layer rgb_pool4
I1125 23:17:32.646073   759 net.cpp:425] rgb_pool4 <- rgb_conv4b
I1125 23:17:32.646078   759 net.cpp:399] rgb_pool4 -> rgb_pool4
I1125 23:17:32.646098   759 net.cpp:141] Setting up rgb_pool4
I1125 23:17:32.646103   759 net.cpp:148] Top shape: 35 512 2 7 7 (1756160)
I1125 23:17:32.646107   759 net.cpp:156] Memory required for data: 7284551820
I1125 23:17:32.646111   759 layer_factory.hpp:77] Creating layer rgb_conv5a
I1125 23:17:32.646122   759 net.cpp:91] Creating Layer rgb_conv5a
I1125 23:17:32.646126   759 net.cpp:425] rgb_conv5a <- rgb_pool4
I1125 23:17:32.646132   759 net.cpp:399] rgb_conv5a -> rgb_conv5a
I1125 23:17:32.702477   759 net.cpp:141] Setting up rgb_conv5a
I1125 23:17:32.702517   759 net.cpp:148] Top shape: 35 512 2 7 7 (1756160)
I1125 23:17:32.702520   759 net.cpp:156] Memory required for data: 7291576460
I1125 23:17:32.702528   759 layer_factory.hpp:77] Creating layer rgb_relu5a
I1125 23:17:32.702538   759 net.cpp:91] Creating Layer rgb_relu5a
I1125 23:17:32.702543   759 net.cpp:425] rgb_relu5a <- rgb_conv5a
I1125 23:17:32.702550   759 net.cpp:386] rgb_relu5a -> rgb_conv5a (in-place)
I1125 23:17:32.702559   759 net.cpp:141] Setting up rgb_relu5a
I1125 23:17:32.702564   759 net.cpp:148] Top shape: 35 512 2 7 7 (1756160)
I1125 23:17:32.702566   759 net.cpp:156] Memory required for data: 7298601100
I1125 23:17:32.702569   759 layer_factory.hpp:77] Creating layer rgb_conv5b
I1125 23:17:32.702579   759 net.cpp:91] Creating Layer rgb_conv5b
I1125 23:17:32.702582   759 net.cpp:425] rgb_conv5b <- rgb_conv5a
I1125 23:17:32.702587   759 net.cpp:399] rgb_conv5b -> rgb_conv5b
I1125 23:17:32.759173   759 net.cpp:141] Setting up rgb_conv5b
I1125 23:17:32.759212   759 net.cpp:148] Top shape: 35 512 2 7 7 (1756160)
I1125 23:17:32.759217   759 net.cpp:156] Memory required for data: 7305625740
I1125 23:17:32.759225   759 layer_factory.hpp:77] Creating layer rgb_relu5b
I1125 23:17:32.759234   759 net.cpp:91] Creating Layer rgb_relu5b
I1125 23:17:32.759239   759 net.cpp:425] rgb_relu5b <- rgb_conv5b
I1125 23:17:32.759245   759 net.cpp:386] rgb_relu5b -> rgb_conv5b (in-place)
I1125 23:17:32.759256   759 net.cpp:141] Setting up rgb_relu5b
I1125 23:17:32.759264   759 net.cpp:148] Top shape: 35 512 2 7 7 (1756160)
I1125 23:17:32.759269   759 net.cpp:156] Memory required for data: 7312650380
I1125 23:17:32.759274   759 layer_factory.hpp:77] Creating layer rgb_pool5
I1125 23:17:32.759281   759 net.cpp:91] Creating Layer rgb_pool5
I1125 23:17:32.759287   759 net.cpp:425] rgb_pool5 <- rgb_conv5b
I1125 23:17:32.759297   759 net.cpp:399] rgb_pool5 -> rgb_pool5
I1125 23:17:32.759330   759 net.cpp:141] Setting up rgb_pool5
I1125 23:17:32.759343   759 net.cpp:148] Top shape: 35 512 1 4 4 (286720)
I1125 23:17:32.759354   759 net.cpp:156] Memory required for data: 7313797260
I1125 23:17:32.759358   759 layer_factory.hpp:77] Creating layer rgb_fc6
I1125 23:17:32.759369   759 net.cpp:91] Creating Layer rgb_fc6
I1125 23:17:32.759374   759 net.cpp:425] rgb_fc6 <- rgb_pool5
I1125 23:17:32.759380   759 net.cpp:399] rgb_fc6 -> rgb_fc6
I1125 23:17:33.017745   759 net.cpp:141] Setting up rgb_fc6
I1125 23:17:33.017783   759 net.cpp:148] Top shape: 35 4096 (143360)
I1125 23:17:33.017788   759 net.cpp:156] Memory required for data: 7314370700
I1125 23:17:33.017803   759 layer_factory.hpp:77] Creating layer rgb_relu6
I1125 23:17:33.017815   759 net.cpp:91] Creating Layer rgb_relu6
I1125 23:17:33.017822   759 net.cpp:425] rgb_relu6 <- rgb_fc6
I1125 23:17:33.017829   759 net.cpp:386] rgb_relu6 -> rgb_fc6 (in-place)
I1125 23:17:33.017838   759 net.cpp:141] Setting up rgb_relu6
I1125 23:17:33.017843   759 net.cpp:148] Top shape: 35 4096 (143360)
I1125 23:17:33.017845   759 net.cpp:156] Memory required for data: 7314944140
I1125 23:17:33.017848   759 layer_factory.hpp:77] Creating layer rgb_drop6
I1125 23:17:33.017854   759 net.cpp:91] Creating Layer rgb_drop6
I1125 23:17:33.017858   759 net.cpp:425] rgb_drop6 <- rgb_fc6
I1125 23:17:33.017861   759 net.cpp:386] rgb_drop6 -> rgb_fc6 (in-place)
I1125 23:17:33.017889   759 net.cpp:141] Setting up rgb_drop6
I1125 23:17:33.017895   759 net.cpp:148] Top shape: 35 4096 (143360)
I1125 23:17:33.017899   759 net.cpp:156] Memory required for data: 7315517580
I1125 23:17:33.017901   759 layer_factory.hpp:77] Creating layer rgb_fc7
I1125 23:17:33.017910   759 net.cpp:91] Creating Layer rgb_fc7
I1125 23:17:33.017912   759 net.cpp:425] rgb_fc7 <- rgb_fc6
I1125 23:17:33.017918   759 net.cpp:399] rgb_fc7 -> rgb_fc7
I1125 23:17:33.146904   759 net.cpp:141] Setting up rgb_fc7
I1125 23:17:33.146944   759 net.cpp:148] Top shape: 35 4096 (143360)
I1125 23:17:33.146947   759 net.cpp:156] Memory required for data: 7316091020
I1125 23:17:33.146958   759 layer_factory.hpp:77] Creating layer rgb_relu7
I1125 23:17:33.146968   759 net.cpp:91] Creating Layer rgb_relu7
I1125 23:17:33.146973   759 net.cpp:425] rgb_relu7 <- rgb_fc7
I1125 23:17:33.146981   759 net.cpp:386] rgb_relu7 -> rgb_fc7 (in-place)
I1125 23:17:33.146991   759 net.cpp:141] Setting up rgb_relu7
I1125 23:17:33.146996   759 net.cpp:148] Top shape: 35 4096 (143360)
I1125 23:17:33.146998   759 net.cpp:156] Memory required for data: 7316664460
I1125 23:17:33.147001   759 layer_factory.hpp:77] Creating layer rgb_drop7
I1125 23:17:33.147007   759 net.cpp:91] Creating Layer rgb_drop7
I1125 23:17:33.147011   759 net.cpp:425] rgb_drop7 <- rgb_fc7
I1125 23:17:33.147014   759 net.cpp:386] rgb_drop7 -> rgb_fc7 (in-place)
I1125 23:17:33.147037   759 net.cpp:141] Setting up rgb_drop7
I1125 23:17:33.147043   759 net.cpp:148] Top shape: 35 4096 (143360)
I1125 23:17:33.147047   759 net.cpp:156] Memory required for data: 7317237900
I1125 23:17:33.147049   759 layer_factory.hpp:77] Creating layer rgb_fc8
I1125 23:17:33.147058   759 net.cpp:91] Creating Layer rgb_fc8
I1125 23:17:33.147060   759 net.cpp:425] rgb_fc8 <- rgb_fc7
I1125 23:17:33.147065   759 net.cpp:399] rgb_fc8 -> rgb_fc8
I1125 23:17:33.150511   759 net.cpp:141] Setting up rgb_fc8
I1125 23:17:33.150527   759 net.cpp:148] Top shape: 35 101 (3535)
I1125 23:17:33.150530   759 net.cpp:156] Memory required for data: 7317252040
I1125 23:17:33.150537   759 layer_factory.hpp:77] Creating layer loss
I1125 23:17:33.150550   759 net.cpp:91] Creating Layer loss
I1125 23:17:33.150554   759 net.cpp:425] loss <- rgb_fc8
I1125 23:17:33.150559   759 net.cpp:425] loss <- label
I1125 23:17:33.150568   759 net.cpp:399] loss -> loss
I1125 23:17:33.150578   759 layer_factory.hpp:77] Creating layer loss
…
I1125 23:17:34.652333   759 net.cpp:49] Initializing net from parameters: 
name: "C3D_net"
state {
  phase: TEST
}
layer {
  name: "data"
  type: "FlowData"
  top: "data"
  top: "label"
  include {
    phase: TEST
  }
  transform_param {
    mirror: false
    crop_size: 112
    mean_value: 128
    is_flow: false
    new_height: 128
    new_width: 171
  }
  flow_data_param {
    source: "/home/tranlaman/Public/data/new-caffe-database/ucf101_rgb_overlapping_segment16_train_test_split1/val_rgb_lmdb/"
    batch_size: 1
    new_length: 16
    modality: RGB
    backend: LMDB
  }
}
layer {
  name: "reshape"
  type: "Reshape"
  bottom: "data"
  top: "vol_data"
  reshape_param {
    shape {
      dim: 3
      dim: -1
    }
    axis: 1
    num_axes: 1
  }
}
layer {
  name: "rgb_conv1a"
  type: "Convolution"
  bottom: "vol_data"
  top: "rgb_conv1a"
  param {
    lr_mult: 1
    decay_mult: 1
  }
  param {
    lr_mult: 2
    decay_mult: 0
  }
  convolution_param {
    num_output: 64
    pad: 1
    kernel_size: 3
    weight_filler {
      type: "gaussian"
      std: 0.01
    }
    bias_filler {
      type: "constant"
      value: 0
    }
    engine: CAFFE
    axis: 1
  }
}
layer {
  name: "rgb_relu1a"
  type: "ReLU"
  bottom: "rgb_conv1a"
  top: "rgb_conv1a"
  relu_param {
    engine: CAFFE
  }
}
layer {
  name: "rgb_pool1"
  type: "Pooling3D"
  bottom: "rgb_conv1a"
  top: "rgb_pool1"
  pooling3d_param {
    pool: MAX
    kernel_size: 2
    stride: 2
    kernel_depth: 1
    temporal_stride: 1
  }
}
layer {
  name: "rgb_conv2a"
  type: "Convolution"
  bottom: "rgb_pool1"
  top: "rgb_conv2a"
  param {
    lr_mult: 1
    decay_mult: 1
  }
  param {
    lr_mult: 2
    decay_mult: 0
  }
  convolution_param {
    num_output: 128
    pad: 1
    kernel_size: 3
    weight_filler {
      type: "gaussian"
      std: 0.01
    }
    bias_filler {
      type: "constant"
      value: 1
    }
    engine: CAFFE
    axis: 1
  }
}
layer {
  name: "rgb_relu2a"
  type: "ReLU"
  bottom: "rgb_conv2a"
  top: "rgb_conv2a"
  relu_param {
    engine: CAFFE
  }
}
layer {
  name: "rgb_pool2"
  type: "Pooling3D"
  bottom: "rgb_conv2a"
  top: "rgb_pool2"
  pooling3d_param {
    pool: MAX
    kernel_size: 2
    stride: 2
    kernel_depth: 2
    temporal_stride: 2
  }
}
layer {
  name: "rgb_conv3a"
  type: "Convolution"
  bottom: "rgb_pool2"
  top: "rgb_conv3a"
  param {
    lr_mult: 1
    decay_mult: 1
  }
  param {
    lr_mult: 2
    decay_mult: 0
  }
  convolution_param {
    num_output: 256
    pad: 1
    kernel_size: 3
    weight_filler {
      type: "gaussian"
      std: 0.01
    }
    bias_filler {
      type: "constant"
      value: 1
    }
    engine: CAFFE
    axis: 1
  }
}
layer {
  name: "rgb_relu3a"
  type: "ReLU"
  bottom: "rgb_conv3a"
  top: "rgb_conv3a"
  relu_param {
    engine: CAFFE
  }
}
layer {
  name: "rgb_conv3b"
  type: "Convolution"
  bottom: "rgb_conv3a"
  top: "rgb_conv3b"
  param {
    lr_mult: 1
    decay_mult: 1
  }
  param {
    lr_mult: 2
    decay_mult: 0
  }
  convolution_param {
    num_output: 256
    pad: 1
    kernel_size: 3
    weight_filler {
      type: "gaussian"
      std: 0.01
    }
    bias_filler {
      type: "constant"
      value: 1
    }
    engine: CAFFE
    axis: 1
  }
}
layer {
  name: "rgb_relu3b"
  type: "ReLU"
  bottom: "rgb_conv3b"
  top: "rgb_conv3b"
  relu_param {
    engine: CAFFE
  }
}
layer {
  name: "rgb_pool3"
  type: "Pooling3D"
  bottom: "rgb_conv3b"
  top: "rgb_pool3"
  pooling3d_param {
    pool: MAX
    kernel_size: 2
    stride: 2
    kernel_depth: 2
    temporal_stride: 2
  }
}
layer {
  name: "rgb_conv4a"
  type: "Convolution"
  bottom: "rgb_pool3"
  top: "rgb_conv4a"
  param {
    lr_mult: 1
    decay_mult: 1
  }
  param {
    lr_mult: 2
    decay_mult: 0
  }
  convolution_param {
    num_output: 512
    pad: 1
    kernel_size: 3
    weight_filler {
      type: "gaussian"
      std: 0.01
    }
    bias_filler {
      type: "constant"
      value: 1
    }
    engine: CAFFE
    axis: 1
  }
}
layer {
  name: "rgb_relu4a"
  type: "ReLU"
  bottom: "rgb_conv4a"
  top: "rgb_conv4a"
  relu_param {
    engine: CAFFE
  }
}
layer {
  name: "rgb_conv4b"
  type: "Convolution"
  bottom: "rgb_conv4a"
  top: "rgb_conv4b"
  param {
    lr_mult: 1
    decay_mult: 1
  }
  param {
    lr_mult: 2
    decay_mult: 0
  }
  convolution_param {
    num_output: 512
    pad: 1
    kernel_size: 3
    weight_filler {
      type: "gaussian"
      std: 0.01
    }
    bias_filler {
      type: "constant"
      value: 1
    }
    engine: CAFFE
    axis: 1
  }
}
layer {
  name: "rgb_relu4b"
  type: "ReLU"
  bottom: "rgb_conv4b"
  top: "rgb_conv4b"
  relu_param {
    engine: CAFFE
  }
}
layer {
  name: "rgb_pool4"
  type: "Pooling3D"
  bottom: "rgb_conv4b"
  top: "rgb_pool4"
  pooling3d_param {
    pool: MAX
    kernel_size: 2
    stride: 2
    kernel_depth: 2
    temporal_stride: 2
  }
}
layer {
  name: "rgb_conv5a"
  type: "Convolution"
  bottom: "rgb_pool4"
  top: "rgb_conv5a"
  param {
    lr_mult: 1
    decay_mult: 1
  }
  param {
    lr_mult: 2
    decay_mult: 0
  }
  convolution_param {
    num_output: 512
    pad: 1
    kernel_size: 3
    weight_filler {
      type: "gaussian"
      std: 0.01
    }
    bias_filler {
      type: "constant"
      value: 1
    }
    engine: CAFFE
    axis: 1
  }
}
layer {
  name: "rgb_relu5a"
  type: "ReLU"
  bottom: "rgb_conv5a"
  top: "rgb_conv5a"
  relu_param {
    engine: CAFFE
  }
}
layer {
  name: "rgb_conv5b"
  type: "Convolution"
  bottom: "rgb_conv5a"
  top: "rgb_conv5b"
  param {
    lr_mult: 1
    decay_mult: 1
  }
  param {
    lr_mult: 2
    decay_mult: 0
  }
  convolution_param {
    num_output: 512
    pad: 1
    kernel_size: 3
    weight_filler {
      type: "gaussian"
      std: 0.01
    }
    bias_filler {
      type: "constant"
      value: 1
    }
    engine: CAFFE
    axis: 1
  }
}
layer {
  name: "rgb_relu5b"
  type: "ReLU"
  bottom: "rgb_conv5b"
  top: "rgb_conv5b"
  relu_param {
    engine: CAFFE
  }
}
layer {
  name: "rgb_pool5"
  type: "Pooling3D"
  bottom: "rgb_conv5b"
  top: "rgb_pool5"
  pooling3d_param {
    pool: MAX
    kernel_size: 2
    stride: 2
    kernel_depth: 2
    temporal_stride: 2
  }
}
layer {
  name: "rgb_fc6"
  type: "InnerProduct"
  bottom: "rgb_pool5"
  top: "rgb_fc6"
  param {
    lr_mult: 1
    decay_mult: 1
  }
  param {
    lr_mult: 2
    decay_mult: 0
  }
  inner_product_param {
    num_output: 4096
    weight_filler {
      type: "gaussian"
      std: 0.005
    }
    bias_filler {
      type: "constant"
      value: 1
    }
  }
}
layer {
  name: "rgb_relu6"
  type: "ReLU"
  bottom: "rgb_fc6"
  top: "rgb_fc6"
  relu_param {
    engine: CAFFE
  }
}
layer {
  name: "rgb_drop6"
  type: "Dropout"
  bottom: "rgb_fc6"
  top: "rgb_fc6"
  dropout_param {
    dropout_ratio: 0.9
  }
}
layer {
  name: "rgb_fc7"
  type: "InnerProduct"
  bottom: "rgb_fc6"
  top: "rgb_fc7"
  param {
    lr_mult: 1
    decay_mult: 1
  }
  param {
    lr_mult: 2
    decay_mult: 0
  }
  inner_product_param {
    num_output: 4096
    weight_filler {
      type: "gaussian"
      std: 0.005
    }
    bias_filler {
      type: "constant"
      value: 1
    }
  }
}
layer {
  name: "rgb_relu7"
  type: "ReLU"
  bottom: "rgb_fc7"
  top: "rgb_fc7"
  relu_param {
    engine: CAFFE
  }
}
layer {
  name: "rgb_drop7"
  type: "Dropout"
  bottom: "rgb_fc7"
  top: "rgb_fc7"
  dropout_param {
    dropout_ratio: 0.8
  }
}
layer {
  name: "rgb_fc8"
  type: "InnerProduct"
  bottom: "rgb_fc7"
  top: "rgb_fc8"
  param {
    lr_mult: 1
    decay_mult: 1
  }
  param {
    lr_mult: 2
    decay_mult: 0
  }
  inner_product_param {
    num_output: 101
    weight_filler {
      type: "gaussian"
      std: 0.01
    }
    bias_filler {
      type: "constant"
      value: 0
    }
  }
}
layer {
  name: "accuracy"
  type: "Accuracy"
  bottom: "rgb_fc8"
  bottom: "label"
  top: "accuracy"
  include {
    phase: TEST
  }
}
layer {
  name: "loss"
  type: "SoftmaxWithLoss"
  bottom: "rgb_fc8"
  bottom: "label"
  top: "loss"
}
I1125 23:17:34.652568   759 layer_factory.hpp:77] Creating layer data
I1125 23:17:34.652683   759 net.cpp:91] Creating Layer data
I1125 23:17:34.652706   759 net.cpp:399] data -> data
I1125 23:17:34.652724   759 net.cpp:399] data -> label
I1125 23:17:34.694238   775 db_lmdb.cpp:38] Opened lmdb /home/tranlaman/Public/data/new-caffe-database/ucf101_rgb_overlapping_segment16_train_test_split1/val_rgb_lmdb/
I1125 23:17:34.716892   759 flow_data_layer.cpp:40] Extracting 1-view features in TEST phase.
I1125 23:17:34.717172   759 flow_data_layer.cpp:52] output data size: 1,48,112,112
I1125 23:17:34.736412   759 net.cpp:141] Setting up data
I1125 23:17:34.736472   759 net.cpp:148] Top shape: 1 48 112 112 (602112)
I1125 23:17:34.736487   759 net.cpp:148] Top shape: 1 (1)
I1125 23:17:34.736495   759 net.cpp:156] Memory required for data: 2408452
I1125 23:17:34.736507   759 layer_factory.hpp:77] Creating layer label_data_1_split
I1125 23:17:34.736531   759 net.cpp:91] Creating Layer label_data_1_split
I1125 23:17:34.736542   759 net.cpp:425] label_data_1_split <- label
I1125 23:17:34.736558   759 net.cpp:399] label_data_1_split -> label_data_1_split_0
I1125 23:17:34.736578   759 net.cpp:399] label_data_1_split -> label_data_1_split_1
I1125 23:17:34.736758   759 net.cpp:141] Setting up label_data_1_split
I1125 23:17:34.736780   759 net.cpp:148] Top shape: 1 (1)
I1125 23:17:34.736791   759 net.cpp:148] Top shape: 1 (1)
I1125 23:17:34.736812   759 net.cpp:156] Memory required for data: 2408460
I1125 23:17:34.736841   759 layer_factory.hpp:77] Creating layer reshape
I1125 23:17:34.736863   759 net.cpp:91] Creating Layer reshape
I1125 23:17:34.736873   759 net.cpp:425] reshape <- data
I1125 23:17:34.736886   759 net.cpp:399] reshape -> vol_data
I1125 23:17:34.736953   759 net.cpp:141] Setting up reshape
I1125 23:17:34.736974   759 net.cpp:148] Top shape: 1 3 16 112 112 (602112)
I1125 23:17:34.736982   759 net.cpp:156] Memory required for data: 4816908
I1125 23:17:34.736990   759 layer_factory.hpp:77] Creating layer rgb_conv1a
I1125 23:17:34.737015   759 net.cpp:91] Creating Layer rgb_conv1a
I1125 23:17:34.737027   759 net.cpp:425] rgb_conv1a <- vol_data
I1125 23:17:34.737041   759 net.cpp:399] rgb_conv1a -> rgb_conv1a
I1125 23:17:34.738656   759 net.cpp:141] Setting up rgb_conv1a
I1125 23:17:34.738688   759 net.cpp:148] Top shape: 1 64 16 112 112 (12845056)
I1125 23:17:34.738699   759 net.cpp:156] Memory required for data: 56197132
I1125 23:17:34.738723   759 layer_factory.hpp:77] Creating layer rgb_relu1a
I1125 23:17:34.738742   759 net.cpp:91] Creating Layer rgb_relu1a
I1125 23:17:34.738754   759 net.cpp:425] rgb_relu1a <- rgb_conv1a
I1125 23:17:34.738766   759 net.cpp:386] rgb_relu1a -> rgb_conv1a (in-place)
I1125 23:17:34.738783   759 net.cpp:141] Setting up rgb_relu1a
I1125 23:17:34.738795   759 net.cpp:148] Top shape: 1 64 16 112 112 (12845056)
I1125 23:17:34.738802   759 net.cpp:156] Memory required for data: 107577356
I1125 23:17:34.738812   759 layer_factory.hpp:77] Creating layer rgb_pool1
I1125 23:17:34.738826   759 net.cpp:91] Creating Layer rgb_pool1
I1125 23:17:34.738836   759 net.cpp:425] rgb_pool1 <- rgb_conv1a
I1125 23:17:34.738847   759 net.cpp:399] rgb_pool1 -> rgb_pool1
I1125 23:17:34.738950   759 net.cpp:141] Setting up rgb_pool1
I1125 23:17:34.738970   759 net.cpp:148] Top shape: 1 64 16 56 56 (3211264)
I1125 23:17:34.738978   759 net.cpp:156] Memory required for data: 120422412
I1125 23:17:34.738986   759 layer_factory.hpp:77] Creating layer rgb_conv2a
I1125 23:17:34.739007   759 net.cpp:91] Creating Layer rgb_conv2a
I1125 23:17:34.739018   759 net.cpp:425] rgb_conv2a <- rgb_pool1
I1125 23:17:34.739032   759 net.cpp:399] rgb_conv2a -> rgb_conv2a
I1125 23:17:34.744603   759 net.cpp:141] Setting up rgb_conv2a
I1125 23:17:34.744637   759 net.cpp:148] Top shape: 1 128 16 56 56 (6422528)
I1125 23:17:34.744647   759 net.cpp:156] Memory required for data: 146112524
I1125 23:17:34.744663   759 layer_factory.hpp:77] Creating layer rgb_relu2a
I1125 23:17:34.744680   759 net.cpp:91] Creating Layer rgb_relu2a
I1125 23:17:34.744690   759 net.cpp:425] rgb_relu2a <- rgb_conv2a
I1125 23:17:34.744701   759 net.cpp:386] rgb_relu2a -> rgb_conv2a (in-place)
I1125 23:17:34.744715   759 net.cpp:141] Setting up rgb_relu2a
I1125 23:17:34.744724   759 net.cpp:148] Top shape: 1 128 16 56 56 (6422528)
I1125 23:17:34.744734   759 net.cpp:156] Memory required for data: 171802636
I1125 23:17:34.744740   759 layer_factory.hpp:77] Creating layer rgb_pool2
I1125 23:17:34.744756   759 net.cpp:91] Creating Layer rgb_pool2
I1125 23:17:34.744771   759 net.cpp:425] rgb_pool2 <- rgb_conv2a
I1125 23:17:34.744783   759 net.cpp:399] rgb_pool2 -> rgb_pool2
I1125 23:17:34.744843   759 net.cpp:141] Setting up rgb_pool2
I1125 23:17:34.744860   759 net.cpp:148] Top shape: 1 128 8 28 28 (802816)
I1125 23:17:34.744868   759 net.cpp:156] Memory required for data: 175013900
I1125 23:17:34.744876   759 layer_factory.hpp:77] Creating layer rgb_conv3a
I1125 23:17:34.744895   759 net.cpp:91] Creating Layer rgb_conv3a
I1125 23:17:34.744909   759 net.cpp:425] rgb_conv3a <- rgb_pool2
I1125 23:17:34.744920   759 net.cpp:399] rgb_conv3a -> rgb_conv3a
I1125 23:17:34.762542   759 net.cpp:141] Setting up rgb_conv3a
I1125 23:17:34.762579   759 net.cpp:148] Top shape: 1 256 8 28 28 (1605632)
I1125 23:17:34.762588   759 net.cpp:156] Memory required for data: 181436428
I1125 23:17:34.762608   759 layer_factory.hpp:77] Creating layer rgb_relu3a
I1125 23:17:34.762635   759 net.cpp:91] Creating Layer rgb_relu3a
I1125 23:17:34.762660   759 net.cpp:425] rgb_relu3a <- rgb_conv3a
I1125 23:17:34.762671   759 net.cpp:386] rgb_relu3a -> rgb_conv3a (in-place)
I1125 23:17:34.762686   759 net.cpp:141] Setting up rgb_relu3a
I1125 23:17:34.762696   759 net.cpp:148] Top shape: 1 256 8 28 28 (1605632)
I1125 23:17:34.762703   759 net.cpp:156] Memory required for data: 187858956
I1125 23:17:34.762711   759 layer_factory.hpp:77] Creating layer rgb_conv3b
I1125 23:17:34.762730   759 net.cpp:91] Creating Layer rgb_conv3b
I1125 23:17:34.762739   759 net.cpp:425] rgb_conv3b <- rgb_conv3a
I1125 23:17:34.762750   759 net.cpp:399] rgb_conv3b -> rgb_conv3b
I1125 23:17:34.793298   759 net.cpp:141] Setting up rgb_conv3b
I1125 23:17:34.793341   759 net.cpp:148] Top shape: 1 256 8 28 28 (1605632)
I1125 23:17:34.793349   759 net.cpp:156] Memory required for data: 194281484
I1125 23:17:34.793362   759 layer_factory.hpp:77] Creating layer rgb_relu3b
I1125 23:17:34.793375   759 net.cpp:91] Creating Layer rgb_relu3b
I1125 23:17:34.793383   759 net.cpp:425] rgb_relu3b <- rgb_conv3b
I1125 23:17:34.793395   759 net.cpp:386] rgb_relu3b -> rgb_conv3b (in-place)
I1125 23:17:34.793407   759 net.cpp:141] Setting up rgb_relu3b
I1125 23:17:34.793416   759 net.cpp:148] Top shape: 1 256 8 28 28 (1605632)
I1125 23:17:34.793421   759 net.cpp:156] Memory required for data: 200704012
I1125 23:17:34.793427   759 layer_factory.hpp:77] Creating layer rgb_pool3
I1125 23:17:34.793437   759 net.cpp:91] Creating Layer rgb_pool3
I1125 23:17:34.793443   759 net.cpp:425] rgb_pool3 <- rgb_conv3b
I1125 23:17:34.793452   759 net.cpp:399] rgb_pool3 -> rgb_pool3
I1125 23:17:34.793498   759 net.cpp:141] Setting up rgb_pool3
I1125 23:17:34.793509   759 net.cpp:148] Top shape: 1 256 4 14 14 (200704)
I1125 23:17:34.793515   759 net.cpp:156] Memory required for data: 201506828
I1125 23:17:34.793521   759 layer_factory.hpp:77] Creating layer rgb_conv4a
I1125 23:17:34.793537   759 net.cpp:91] Creating Layer rgb_conv4a
I1125 23:17:34.793545   759 net.cpp:425] rgb_conv4a <- rgb_pool3
I1125 23:17:34.793555   759 net.cpp:399] rgb_conv4a -> rgb_conv4a
I1125 23:17:34.843700   759 net.cpp:141] Setting up rgb_conv4a
I1125 23:17:34.843750   759 net.cpp:148] Top shape: 1 512 4 14 14 (401408)
I1125 23:17:34.843757   759 net.cpp:156] Memory required for data: 203112460
I1125 23:17:34.843778   759 layer_factory.hpp:77] Creating layer rgb_relu4a
I1125 23:17:34.843792   759 net.cpp:91] Creating Layer rgb_relu4a
I1125 23:17:34.843801   759 net.cpp:425] rgb_relu4a <- rgb_conv4a
I1125 23:17:34.843811   759 net.cpp:386] rgb_relu4a -> rgb_conv4a (in-place)
I1125 23:17:34.843825   759 net.cpp:141] Setting up rgb_relu4a
I1125 23:17:34.843832   759 net.cpp:148] Top shape: 1 512 4 14 14 (401408)
I1125 23:17:34.843837   759 net.cpp:156] Memory required for data: 204718092
I1125 23:17:34.843842   759 layer_factory.hpp:77] Creating layer rgb_conv4b
I1125 23:17:34.843859   759 net.cpp:91] Creating Layer rgb_conv4b
I1125 23:17:34.843868   759 net.cpp:425] rgb_conv4b <- rgb_conv4a
I1125 23:17:34.843878   759 net.cpp:399] rgb_conv4b -> rgb_conv4b
I1125 23:17:34.924479   759 net.cpp:141] Setting up rgb_conv4b
I1125 23:17:34.924522   759 net.cpp:148] Top shape: 1 512 4 14 14 (401408)
I1125 23:17:34.924527   759 net.cpp:156] Memory required for data: 206323724
I1125 23:17:34.924537   759 layer_factory.hpp:77] Creating layer rgb_relu4b
I1125 23:17:34.924549   759 net.cpp:91] Creating Layer rgb_relu4b
I1125 23:17:34.924556   759 net.cpp:425] rgb_relu4b <- rgb_conv4b
I1125 23:17:34.924564   759 net.cpp:386] rgb_relu4b -> rgb_conv4b (in-place)
I1125 23:17:34.924576   759 net.cpp:141] Setting up rgb_relu4b
I1125 23:17:34.924581   759 net.cpp:148] Top shape: 1 512 4 14 14 (401408)
I1125 23:17:34.924584   759 net.cpp:156] Memory required for data: 207929356
I1125 23:17:34.924587   759 layer_factory.hpp:77] Creating layer rgb_pool4
I1125 23:17:34.924594   759 net.cpp:91] Creating Layer rgb_pool4
I1125 23:17:34.924598   759 net.cpp:425] rgb_pool4 <- rgb_conv4b
I1125 23:17:34.924603   759 net.cpp:399] rgb_pool4 -> rgb_pool4
I1125 23:17:34.924646   759 net.cpp:141] Setting up rgb_pool4
I1125 23:17:34.924664   759 net.cpp:148] Top shape: 1 512 2 7 7 (50176)
I1125 23:17:34.924669   759 net.cpp:156] Memory required for data: 208130060
I1125 23:17:34.924672   759 layer_factory.hpp:77] Creating layer rgb_conv5a
I1125 23:17:34.924685   759 net.cpp:91] Creating Layer rgb_conv5a
I1125 23:17:34.924708   759 net.cpp:425] rgb_conv5a <- rgb_pool4
I1125 23:17:34.924716   759 net.cpp:399] rgb_conv5a -> rgb_conv5a
I1125 23:17:34.989596   759 net.cpp:141] Setting up rgb_conv5a
I1125 23:17:34.989640   759 net.cpp:148] Top shape: 1 512 2 7 7 (50176)
I1125 23:17:34.989646   759 net.cpp:156] Memory required for data: 208330764
I1125 23:17:34.989655   759 layer_factory.hpp:77] Creating layer rgb_relu5a
I1125 23:17:34.989666   759 net.cpp:91] Creating Layer rgb_relu5a
I1125 23:17:34.989671   759 net.cpp:425] rgb_relu5a <- rgb_conv5a
I1125 23:17:34.989678   759 net.cpp:386] rgb_relu5a -> rgb_conv5a (in-place)
I1125 23:17:34.989688   759 net.cpp:141] Setting up rgb_relu5a
I1125 23:17:34.989692   759 net.cpp:148] Top shape: 1 512 2 7 7 (50176)
I1125 23:17:34.989696   759 net.cpp:156] Memory required for data: 208531468
I1125 23:17:34.989699   759 layer_factory.hpp:77] Creating layer rgb_conv5b
I1125 23:17:34.989709   759 net.cpp:91] Creating Layer rgb_conv5b
I1125 23:17:34.989713   759 net.cpp:425] rgb_conv5b <- rgb_conv5a
I1125 23:17:34.989719   759 net.cpp:399] rgb_conv5b -> rgb_conv5b
I1125 23:17:35.046824   759 net.cpp:141] Setting up rgb_conv5b
I1125 23:17:35.046860   759 net.cpp:148] Top shape: 1 512 2 7 7 (50176)
I1125 23:17:35.046864   759 net.cpp:156] Memory required for data: 208732172
I1125 23:17:35.046872   759 layer_factory.hpp:77] Creating layer rgb_relu5b
I1125 23:17:35.046883   759 net.cpp:91] Creating Layer rgb_relu5b
I1125 23:17:35.046887   759 net.cpp:425] rgb_relu5b <- rgb_conv5b
I1125 23:17:35.046895   759 net.cpp:386] rgb_relu5b -> rgb_conv5b (in-place)
I1125 23:17:35.046902   759 net.cpp:141] Setting up rgb_relu5b
I1125 23:17:35.046907   759 net.cpp:148] Top shape: 1 512 2 7 7 (50176)
I1125 23:17:35.046911   759 net.cpp:156] Memory required for data: 208932876
I1125 23:17:35.046913   759 layer_factory.hpp:77] Creating layer rgb_pool5
I1125 23:17:35.046918   759 net.cpp:91] Creating Layer rgb_pool5
I1125 23:17:35.046922   759 net.cpp:425] rgb_pool5 <- rgb_conv5b
I1125 23:17:35.046927   759 net.cpp:399] rgb_pool5 -> rgb_pool5
I1125 23:17:35.046957   759 net.cpp:141] Setting up rgb_pool5
I1125 23:17:35.046963   759 net.cpp:148] Top shape: 1 512 1 4 4 (8192)
I1125 23:17:35.046967   759 net.cpp:156] Memory required for data: 208965644
I1125 23:17:35.046969   759 layer_factory.hpp:77] Creating layer rgb_fc6
I1125 23:17:35.046980   759 net.cpp:91] Creating Layer rgb_fc6
I1125 23:17:35.046984   759 net.cpp:425] rgb_fc6 <- rgb_pool5
I1125 23:17:35.046990   759 net.cpp:399] rgb_fc6 -> rgb_fc6
I1125 23:17:35.304452   759 net.cpp:141] Setting up rgb_fc6
I1125 23:17:35.304491   759 net.cpp:148] Top shape: 1 4096 (4096)
I1125 23:17:35.304496   759 net.cpp:156] Memory required for data: 208982028
I1125 23:17:35.304512   759 layer_factory.hpp:77] Creating layer rgb_relu6
I1125 23:17:35.304523   759 net.cpp:91] Creating Layer rgb_relu6
I1125 23:17:35.304528   759 net.cpp:425] rgb_relu6 <- rgb_fc6
I1125 23:17:35.304535   759 net.cpp:386] rgb_relu6 -> rgb_fc6 (in-place)
I1125 23:17:35.304544   759 net.cpp:141] Setting up rgb_relu6
I1125 23:17:35.304548   759 net.cpp:148] Top shape: 1 4096 (4096)
I1125 23:17:35.304551   759 net.cpp:156] Memory required for data: 208998412
I1125 23:17:35.304553   759 layer_factory.hpp:77] Creating layer rgb_drop6
I1125 23:17:35.304560   759 net.cpp:91] Creating Layer rgb_drop6
I1125 23:17:35.304563   759 net.cpp:425] rgb_drop6 <- rgb_fc6
I1125 23:17:35.304566   759 net.cpp:386] rgb_drop6 -> rgb_fc6 (in-place)
I1125 23:17:35.304592   759 net.cpp:141] Setting up rgb_drop6
I1125 23:17:35.304599   759 net.cpp:148] Top shape: 1 4096 (4096)
I1125 23:17:35.304600   759 net.cpp:156] Memory required for data: 209014796
I1125 23:17:35.304610   759 layer_factory.hpp:77] Creating layer rgb_fc7
I1125 23:17:35.304626   759 net.cpp:91] Creating Layer rgb_fc7
I1125 23:17:35.304630   759 net.cpp:425] rgb_fc7 <- rgb_fc6
I1125 23:17:35.304636   759 net.cpp:399] rgb_fc7 -> rgb_fc7
I1125 23:17:35.433769   759 net.cpp:141] Setting up rgb_fc7
I1125 23:17:35.433806   759 net.cpp:148] Top shape: 1 4096 (4096)
I1125 23:17:35.433811   759 net.cpp:156] Memory required for data: 209031180
I1125 23:17:35.433820   759 layer_factory.hpp:77] Creating layer rgb_relu7
I1125 23:17:35.433832   759 net.cpp:91] Creating Layer rgb_relu7
I1125 23:17:35.433837   759 net.cpp:425] rgb_relu7 <- rgb_fc7
I1125 23:17:35.433845   759 net.cpp:386] rgb_relu7 -> rgb_fc7 (in-place)
I1125 23:17:35.433854   759 net.cpp:141] Setting up rgb_relu7
I1125 23:17:35.433859   759 net.cpp:148] Top shape: 1 4096 (4096)
I1125 23:17:35.433861   759 net.cpp:156] Memory required for data: 209047564
I1125 23:17:35.433866   759 layer_factory.hpp:77] Creating layer rgb_drop7
I1125 23:17:35.433872   759 net.cpp:91] Creating Layer rgb_drop7
I1125 23:17:35.433876   759 net.cpp:425] rgb_drop7 <- rgb_fc7
I1125 23:17:35.433879   759 net.cpp:386] rgb_drop7 -> rgb_fc7 (in-place)
I1125 23:17:35.433902   759 net.cpp:141] Setting up rgb_drop7
I1125 23:17:35.433907   759 net.cpp:148] Top shape: 1 4096 (4096)
I1125 23:17:35.433910   759 net.cpp:156] Memory required for data: 209063948
I1125 23:17:35.433912   759 layer_factory.hpp:77] Creating layer rgb_fc8
I1125 23:17:35.433923   759 net.cpp:91] Creating Layer rgb_fc8
I1125 23:17:35.433925   759 net.cpp:425] rgb_fc8 <- rgb_fc7
I1125 23:17:35.433930   759 net.cpp:399] rgb_fc8 -> rgb_fc8
I1125 23:17:35.437417   759 net.cpp:141] Setting up rgb_fc8
I1125 23:17:35.437433   759 net.cpp:148] Top shape: 1 101 (101)
I1125 23:17:35.437435   759 net.cpp:156] Memory required for data: 209064352
I1125 23:17:35.437440   759 layer_factory.hpp:77] Creating layer rgb_fc8_rgb_fc8_0_split
I1125 23:17:35.437448   759 net.cpp:91] Creating Layer rgb_fc8_rgb_fc8_0_split
I1125 23:17:35.437453   759 net.cpp:425] rgb_fc8_rgb_fc8_0_split <- rgb_fc8
I1125 23:17:35.437458   759 net.cpp:399] rgb_fc8_rgb_fc8_0_split -> rgb_fc8_rgb_fc8_0_split_0
I1125 23:17:35.437463   759 net.cpp:399] rgb_fc8_rgb_fc8_0_split -> rgb_fc8_rgb_fc8_0_split_1
I1125 23:17:35.437500   759 net.cpp:141] Setting up rgb_fc8_rgb_fc8_0_split
I1125 23:17:35.437506   759 net.cpp:148] Top shape: 1 101 (101)
I1125 23:17:35.437510   759 net.cpp:148] Top shape: 1 101 (101)
I1125 23:17:35.437512   759 net.cpp:156] Memory required for data: 209065160
I1125 23:17:35.437515   759 layer_factory.hpp:77] Creating layer accuracy
I1125 23:17:35.437526   759 net.cpp:91] Creating Layer accuracy
I1125 23:17:35.437530   759 net.cpp:425] accuracy <- rgb_fc8_rgb_fc8_0_split_0
I1125 23:17:35.437535   759 net.cpp:425] accuracy <- label_data_1_split_0
I1125 23:17:35.437538   759 net.cpp:399] accuracy -> accuracy
…
