…
  top: "label"
  include {
    phase: TRAIN
  }
  transform_param {
    mirror: true
    crop_size: 112
    mean_value: 128
    fix_crop: true
    multi_scale: true
    scale_ratios: 1
    scale_ratios: 0.875
    scale_ratios: 0.75
    scale_ratios: 0.66
    max_distort: 1
    is_flow: true
    new_height: 128
    new_width: 171
  }
  flow_data_param {
    source: "/media/tranlaman/data/new-caffe-database/hmdb51_comp_tvl1_overlapping_len16_train_test_split1/train_flow_lmdb/"
    batch_size: 20
    new_length: 16
    modality: FLOW
    backend: LMDB
  }
}
layer {
  name: "reshape"
  type: "Reshape"
  bottom: "data"
  top: "vol_data"
  reshape_param {
    shape {
      dim: 2
      dim: -1
    }
    axis: 1
    num_axes: 1
  }
}
layer {
  name: "flow_conv1a"
  type: "Convolution"
  bottom: "vol_data"
  top: "flow_conv1a"
  param {
    lr_mult: 1
    decay_mult: 1
  }
  param {
    lr_mult: 2
    decay_mult: 0
  }
  convolution_param {
    num_output: 64
    pad: 1
    kernel_size: 3
    weight_filler {
      type: "gaussian"
      std: 0.01
    }
    bias_filler {
      type: "constant"
      value: 0
    }
    engine: CAFFE
    axis: 1
  }
}
layer {
  name: "flow_relu1a"
  type: "ReLU"
  bottom: "flow_conv1a"
  top: "flow_conv1a"
  relu_param {
    engine: CAFFE
  }
}
layer {
  name: "flow_pool1"
  type: "Pooling3D"
  bottom: "flow_conv1a"
  top: "flow_pool1"
  pooling3d_param {
    pool: MAX
    kernel_size: 2
    stride: 2
    kernel_depth: 1
    temporal_stride: 1
  }
}
layer {
  name: "flow_conv2a"
  type: "Convolution"
  bottom: "flow_pool1"
  top: "flow_conv2a"
  param {
    lr_mult: 1
    decay_mult: 1
  }
  param {
    lr_mult: 2
    decay_mult: 0
  }
  convolution_param {
    num_output: 128
    pad: 1
    kernel_size: 3
    weight_filler {
      type: "gaussian"
      std: 0.01
    }
    bias_filler {
      type: "constant"
      value: 1
    }
    engine: CAFFE
    axis: 1
  }
}
layer {
  name: "flow_relu2a"
  type: "ReLU"
  bottom: "flow_conv2a"
  top: "flow_conv2a"
  relu_param {
    engine: CAFFE
  }
}
layer {
  name: "flow_pool2"
  type: "Pooling3D"
  bottom: "flow_conv2a"
  top: "flow_pool2"
  pooling3d_param {
    pool: MAX
    kernel_size: 2
    stride: 2
    kernel_depth: 2
    temporal_stride: 2
  }
}
layer {
  name: "flow_conv3a"
  type: "Convolution"
  bottom: "flow_pool2"
  top: "flow_conv3a"
  param {
    lr_mult: 1
    decay_mult: 1
  }
  param {
    lr_mult: 2
    decay_mult: 0
  }
  convolution_param {
    num_output: 256
    pad: 1
    kernel_size: 3
    weight_filler {
      type: "gaussian"
      std: 0.01
    }
    bias_filler {
      type: "constant"
      value: 1
    }
    engine: CAFFE
    axis: 1
  }
}
layer {
  name: "flow_relu3a"
  type: "ReLU"
  bottom: "flow_conv3a"
  top: "flow_conv3a"
  relu_param {
    engine: CAFFE
  }
}
layer {
  name: "flow_conv3b"
  type: "Convolution"
  bottom: "flow_conv3a"
  top: "flow_conv3b"
  param {
    lr_mult: 1
    decay_mult: 1
  }
  param {
    lr_mult: 2
    decay_mult: 0
  }
  convolution_param {
    num_output: 256
    pad: 1
    kernel_size: 3
    weight_filler {
      type: "gaussian"
      std: 0.01
    }
    bias_filler {
      type: "constant"
      value: 1
    }
    engine: CAFFE
    axis: 1
  }
}
layer {
  name: "flow_relu3b"
  type: "ReLU"
  bottom: "flow_conv3b"
  top: "flow_conv3b"
  relu_param {
    engine: CAFFE
  }
}
layer {
  name: "flow_pool3"
  type: "Pooling3D"
  bottom: "flow_conv3b"
  top: "flow_pool3"
  pooling3d_param {
    pool: MAX
    kernel_size: 2
    stride: 2
    kernel_depth: 2
    temporal_stride: 2
  }
}
layer {
  name: "flow_conv4a"
  type: "Convolution"
  bottom: "flow_pool3"
  top: "flow_conv4a"
  param {
    lr_mult: 1
    decay_mult: 1
  }
  param {
    lr_mult: 2
    decay_mult: 0
  }
  convolution_param {
    num_output: 512
    pad: 1
    kernel_size: 3
    weight_filler {
      type: "gaussian"
      std: 0.01
    }
    bias_filler {
      type: "constant"
      value: 1
    }
    engine: CAFFE
    axis: 1
  }
}
layer {
  name: "flow_relu4a"
  type: "ReLU"
  bottom: "flow_conv4a"
  top: "flow_conv4a"
  relu_param {
    engine: CAFFE
  }
}
layer {
  name: "flow_conv4b"
  type: "Convolution"
  bottom: "flow_conv4a"
  top: "flow_conv4b"
  param {
    lr_mult: 1
    decay_mult: 1
  }
  param {
    lr_mult: 2
    decay_mult: 0
  }
  convolution_param {
    num_output: 512
    pad: 1
    kernel_size: 3
    weight_filler {
      type: "gaussian"
      std: 0.01
    }
    bias_filler {
      type: "constant"
      value: 1
    }
    engine: CAFFE
    axis: 1
  }
}
layer {
  name: "flow_relu4b"
  type: "ReLU"
  bottom: "flow_conv4b"
  top: "flow_conv4b"
  relu_param {
    engine: CAFFE
  }
}
layer {
  name: "flow_pool4"
  type: "Pooling3D"
  bottom: "flow_conv4b"
  top: "flow_pool4"
  pooling3d_param {
    pool: MAX
    kernel_size: 2
    stride: 2
    kernel_depth: 2
    temporal_stride: 2
  }
}
layer {
  name: "flow_conv5a"
  type: "Convolution"
  bottom: "flow_pool4"
  top: "flow_conv5a"
  param {
    lr_mult: 1
    decay_mult: 1
  }
  param {
    lr_mult: 2
    decay_mult: 0
  }
  convolution_param {
    num_output: 512
    pad: 1
    kernel_size: 3
    weight_filler {
      type: "gaussian"
      std: 0.01
    }
    bias_filler {
      type: "constant"
      value: 1
    }
    engine: CAFFE
    axis: 1
  }
}
layer {
  name: "flow_relu5a"
  type: "ReLU"
  bottom: "flow_conv5a"
  top: "flow_conv5a"
  relu_param {
    engine: CAFFE
  }
}
layer {
  name: "flow_conv5b"
  type: "Convolution"
  bottom: "flow_conv5a"
  top: "flow_conv5b"
  param {
    lr_mult: 1
    decay_mult: 1
  }
  param {
    lr_mult: 2
    decay_mult: 0
  }
  convolution_param {
    num_output: 512
    pad: 1
    kernel_size: 3
    weight_filler {
      type: "gaussian"
      std: 0.01
    }
    bias_filler {
      type: "constant"
      value: 1
    }
    engine: CAFFE
    axis: 1
  }
}
layer {
  name: "flow_relu5b"
  type: "ReLU"
  bottom: "flow_conv5b"
  top: "flow_conv5b"
  relu_param {
    engine: CAFFE
  }
}
layer {
  name: "flow_pool5"
  type: "Pooling3D"
  bottom: "flow_conv5b"
  top: "flow_pool5"
  pooling3d_param {
    pool: MAX
    kernel_size: 2
    stride: 2
    kernel_depth: 2
    temporal_stride: 2
  }
}
layer {
  name: "flow_fc6"
  type: "InnerProduct"
  bottom: "flow_pool5"
  top: "flow_fc6"
  param {
    lr_mult: 1
    decay_mult: 1
  }
  param {
    lr_mult: 2
    decay_mult: 0
  }
  inner_product_param {
    num_output: 4096
    weight_filler {
      type: "gaussian"
      std: 0.005
    }
    bias_filler {
      type: "constant"
      value: 1
    }
  }
}
layer {
  name: "flow_relu6"
  type: "ReLU"
  bottom: "flow_fc6"
  top: "flow_fc6"
  relu_param {
    engine: CAFFE
  }
}
layer {
  name: "flow_drop6"
  type: "Dropout"
  bottom: "flow_fc6"
  top: "flow_fc6"
  dropout_param {
    dropout_ratio: 0.9
  }
}
layer {
  name: "flow_fc7"
  type: "InnerProduct"
  bottom: "flow_fc6"
  top: "flow_fc7"
  param {
    lr_mult: 1
    decay_mult: 1
  }
  param {
    lr_mult: 2
    decay_mult: 0
  }
  inner_product_param {
    num_output: 4096
    weight_filler {
      type: "gaussian"
      std: 0.005
    }
    bias_filler {
      type: "constant"
      value: 1
    }
  }
}
layer {
  name: "flow_relu7"
  type: "ReLU"
  bottom: "flow_fc7"
  top: "flow_fc7"
  relu_param {
    engine: CAFFE
  }
}
layer {
  name: "flow_drop7"
  type: "Dropout"
  bottom: "flow_fc7"
  top: "flow_fc7"
  dropout_param {
    dropout_ratio: 0.8
  }
}
layer {
  name: "flow_fc8"
  type: "InnerProduct"
  bottom: "flow_fc7"
  top: "flow_fc8"
  param {
    lr_mult: 1
    decay_mult: 1
  }
  param {
    lr_mult: 2
    decay_mult: 0
  }
  inner_product_param {
    num_output: 51
    weight_filler {
      type: "gaussian"
      std: 0.01
    }
    bias_filler {
      type: "constant"
      value: 0
    }
  }
}
layer {
  name: "loss"
  type: "SoftmaxWithLoss"
  bottom: "flow_fc8"
  bottom: "label"
  top: "loss"
}
I0117 16:27:17.054747  3425 layer_factory.hpp:77] Creating layer data
I0117 16:27:17.055606  3425 net.cpp:91] Creating Layer data
I0117 16:27:17.055640  3425 net.cpp:399] data -> data
I0117 16:27:17.055685  3425 net.cpp:399] data -> label
I0117 16:27:17.082075  3441 db_lmdb.cpp:38] Opened lmdb /media/tranlaman/data/new-caffe-database/hmdb51_comp_tvl1_overlapping_len16_train_test_split1/train_flow_lmdb/
I0117 16:27:17.171833  3425 flow_data_layer.cpp:52] output data size: 20,32,112,112
I0117 16:27:17.316330  3425 net.cpp:141] Setting up data
I0117 16:27:17.316390  3425 net.cpp:148] Top shape: 20 32 112 112 (8028160)
I0117 16:27:17.316406  3425 net.cpp:148] Top shape: 20 (20)
I0117 16:27:17.316413  3425 net.cpp:156] Memory required for data: 32112720
I0117 16:27:17.316433  3425 layer_factory.hpp:77] Creating layer reshape
I0117 16:27:17.316465  3425 net.cpp:91] Creating Layer reshape
I0117 16:27:17.316480  3425 net.cpp:425] reshape <- data
I0117 16:27:17.316507  3425 net.cpp:399] reshape -> vol_data
I0117 16:27:17.316587  3425 net.cpp:141] Setting up reshape
I0117 16:27:17.316612  3425 net.cpp:148] Top shape: 20 2 16 112 112 (8028160)
I0117 16:27:17.316622  3425 net.cpp:156] Memory required for data: 64225360
I0117 16:27:17.316632  3425 layer_factory.hpp:77] Creating layer flow_conv1a
I0117 16:27:17.316663  3425 net.cpp:91] Creating Layer flow_conv1a
I0117 16:27:17.316675  3425 net.cpp:425] flow_conv1a <- vol_data
I0117 16:27:17.316690  3425 net.cpp:399] flow_conv1a -> flow_conv1a
I0117 16:27:17.327464  3425 net.cpp:141] Setting up flow_conv1a
I0117 16:27:17.327499  3425 net.cpp:148] Top shape: 20 64 16 112 112 (256901120)
I0117 16:27:17.327509  3425 net.cpp:156] Memory required for data: 1091829840
I0117 16:27:17.327538  3425 layer_factory.hpp:77] Creating layer flow_relu1a
I0117 16:27:17.327558  3425 net.cpp:91] Creating Layer flow_relu1a
I0117 16:27:17.327567  3425 net.cpp:425] flow_relu1a <- flow_conv1a
I0117 16:27:17.327579  3425 net.cpp:386] flow_relu1a -> flow_conv1a (in-place)
I0117 16:27:17.327605  3425 net.cpp:141] Setting up flow_relu1a
I0117 16:27:17.327621  3425 net.cpp:148] Top shape: 20 64 16 112 112 (256901120)
I0117 16:27:17.327630  3425 net.cpp:156] Memory required for data: 2119434320
I0117 16:27:17.327637  3425 layer_factory.hpp:77] Creating layer flow_pool1
I0117 16:27:17.327654  3425 net.cpp:91] Creating Layer flow_pool1
I0117 16:27:17.327663  3425 net.cpp:425] flow_pool1 <- flow_conv1a
I0117 16:27:17.327675  3425 net.cpp:399] flow_pool1 -> flow_pool1
I0117 16:27:17.327735  3425 net.cpp:141] Setting up flow_pool1
I0117 16:27:17.327752  3425 net.cpp:148] Top shape: 20 64 16 56 56 (64225280)
I0117 16:27:17.327759  3425 net.cpp:156] Memory required for data: 2376335440
I0117 16:27:17.327767  3425 layer_factory.hpp:77] Creating layer flow_conv2a
I0117 16:27:17.327786  3425 net.cpp:91] Creating Layer flow_conv2a
I0117 16:27:17.327798  3425 net.cpp:425] flow_conv2a <- flow_pool1
I0117 16:27:17.327814  3425 net.cpp:399] flow_conv2a -> flow_conv2a
I0117 16:27:17.333281  3425 net.cpp:141] Setting up flow_conv2a
I0117 16:27:17.333313  3425 net.cpp:148] Top shape: 20 128 16 56 56 (128450560)
I0117 16:27:17.333333  3425 net.cpp:156] Memory required for data: 2890137680
I0117 16:27:17.333364  3425 layer_factory.hpp:77] Creating layer flow_relu2a
I0117 16:27:17.333380  3425 net.cpp:91] Creating Layer flow_relu2a
I0117 16:27:17.333390  3425 net.cpp:425] flow_relu2a <- flow_conv2a
I0117 16:27:17.333403  3425 net.cpp:386] flow_relu2a -> flow_conv2a (in-place)
I0117 16:27:17.333417  3425 net.cpp:141] Setting up flow_relu2a
I0117 16:27:17.333427  3425 net.cpp:148] Top shape: 20 128 16 56 56 (128450560)
I0117 16:27:17.333434  3425 net.cpp:156] Memory required for data: 3403939920
I0117 16:27:17.333442  3425 layer_factory.hpp:77] Creating layer flow_pool2
I0117 16:27:17.333456  3425 net.cpp:91] Creating Layer flow_pool2
I0117 16:27:17.333464  3425 net.cpp:425] flow_pool2 <- flow_conv2a
I0117 16:27:17.333474  3425 net.cpp:399] flow_pool2 -> flow_pool2
I0117 16:27:17.333520  3425 net.cpp:141] Setting up flow_pool2
I0117 16:27:17.333535  3425 net.cpp:148] Top shape: 20 128 8 28 28 (16056320)
I0117 16:27:17.333544  3425 net.cpp:156] Memory required for data: 3468165200
I0117 16:27:17.333551  3425 layer_factory.hpp:77] Creating layer flow_conv3a
I0117 16:27:17.333575  3425 net.cpp:91] Creating Layer flow_conv3a
I0117 16:27:17.333586  3425 net.cpp:425] flow_conv3a <- flow_pool2
I0117 16:27:17.333598  3425 net.cpp:399] flow_conv3a -> flow_conv3a
I0117 16:27:17.351625  3425 net.cpp:141] Setting up flow_conv3a
I0117 16:27:17.351662  3425 net.cpp:148] Top shape: 20 256 8 28 28 (32112640)
I0117 16:27:17.351671  3425 net.cpp:156] Memory required for data: 3596615760
I0117 16:27:17.351692  3425 layer_factory.hpp:77] Creating layer flow_relu3a
I0117 16:27:17.351706  3425 net.cpp:91] Creating Layer flow_relu3a
I0117 16:27:17.351716  3425 net.cpp:425] flow_relu3a <- flow_conv3a
I0117 16:27:17.351727  3425 net.cpp:386] flow_relu3a -> flow_conv3a (in-place)
I0117 16:27:17.351740  3425 net.cpp:141] Setting up flow_relu3a
I0117 16:27:17.351750  3425 net.cpp:148] Top shape: 20 256 8 28 28 (32112640)
I0117 16:27:17.351758  3425 net.cpp:156] Memory required for data: 3725066320
I0117 16:27:17.351765  3425 layer_factory.hpp:77] Creating layer flow_conv3b
I0117 16:27:17.351783  3425 net.cpp:91] Creating Layer flow_conv3b
I0117 16:27:17.351790  3425 net.cpp:425] flow_conv3b <- flow_conv3a
I0117 16:27:17.351805  3425 net.cpp:399] flow_conv3b -> flow_conv3b
I0117 16:27:17.380622  3425 net.cpp:141] Setting up flow_conv3b
I0117 16:27:17.380659  3425 net.cpp:148] Top shape: 20 256 8 28 28 (32112640)
I0117 16:27:17.380667  3425 net.cpp:156] Memory required for data: 3853516880
I0117 16:27:17.380681  3425 layer_factory.hpp:77] Creating layer flow_relu3b
I0117 16:27:17.380697  3425 net.cpp:91] Creating Layer flow_relu3b
I0117 16:27:17.380705  3425 net.cpp:425] flow_relu3b <- flow_conv3b
I0117 16:27:17.380715  3425 net.cpp:386] flow_relu3b -> flow_conv3b (in-place)
I0117 16:27:17.380728  3425 net.cpp:141] Setting up flow_relu3b
I0117 16:27:17.380736  3425 net.cpp:148] Top shape: 20 256 8 28 28 (32112640)
I0117 16:27:17.380743  3425 net.cpp:156] Memory required for data: 3981967440
I0117 16:27:17.380748  3425 layer_factory.hpp:77] Creating layer flow_pool3
I0117 16:27:17.380759  3425 net.cpp:91] Creating Layer flow_pool3
I0117 16:27:17.380766  3425 net.cpp:425] flow_pool3 <- flow_conv3b
I0117 16:27:17.380776  3425 net.cpp:399] flow_pool3 -> flow_pool3
I0117 16:27:17.380815  3425 net.cpp:141] Setting up flow_pool3
I0117 16:27:17.380828  3425 net.cpp:148] Top shape: 20 256 4 14 14 (4014080)
I0117 16:27:17.380834  3425 net.cpp:156] Memory required for data: 3998023760
I0117 16:27:17.380841  3425 layer_factory.hpp:77] Creating layer flow_conv4a
I0117 16:27:17.380856  3425 net.cpp:91] Creating Layer flow_conv4a
I0117 16:27:17.380866  3425 net.cpp:425] flow_conv4a <- flow_pool3
I0117 16:27:17.380875  3425 net.cpp:399] flow_conv4a -> flow_conv4a
I0117 16:27:17.430259  3425 net.cpp:141] Setting up flow_conv4a
I0117 16:27:17.430305  3425 net.cpp:148] Top shape: 20 512 4 14 14 (8028160)
I0117 16:27:17.430313  3425 net.cpp:156] Memory required for data: 4030136400
I0117 16:27:17.430341  3425 layer_factory.hpp:77] Creating layer flow_relu4a
I0117 16:27:17.430371  3425 net.cpp:91] Creating Layer flow_relu4a
I0117 16:27:17.430379  3425 net.cpp:425] flow_relu4a <- flow_conv4a
I0117 16:27:17.430390  3425 net.cpp:386] flow_relu4a -> flow_conv4a (in-place)
I0117 16:27:17.430403  3425 net.cpp:141] Setting up flow_relu4a
I0117 16:27:17.430410  3425 net.cpp:148] Top shape: 20 512 4 14 14 (8028160)
I0117 16:27:17.430418  3425 net.cpp:156] Memory required for data: 4062249040
I0117 16:27:17.430423  3425 layer_factory.hpp:77] Creating layer flow_conv4b
I0117 16:27:17.430438  3425 net.cpp:91] Creating Layer flow_conv4b
I0117 16:27:17.430444  3425 net.cpp:425] flow_conv4b <- flow_conv4a
I0117 16:27:17.430455  3425 net.cpp:399] flow_conv4b -> flow_conv4b
I0117 16:27:17.508965  3425 net.cpp:141] Setting up flow_conv4b
I0117 16:27:17.509012  3425 net.cpp:148] Top shape: 20 512 4 14 14 (8028160)
I0117 16:27:17.509018  3425 net.cpp:156] Memory required for data: 4094361680
I0117 16:27:17.509028  3425 layer_factory.hpp:77] Creating layer flow_relu4b
I0117 16:27:17.509047  3425 net.cpp:91] Creating Layer flow_relu4b
I0117 16:27:17.509053  3425 net.cpp:425] flow_relu4b <- flow_conv4b
I0117 16:27:17.509062  3425 net.cpp:386] flow_relu4b -> flow_conv4b (in-place)
I0117 16:27:17.509071  3425 net.cpp:141] Setting up flow_relu4b
I0117 16:27:17.509079  3425 net.cpp:148] Top shape: 20 512 4 14 14 (8028160)
I0117 16:27:17.509084  3425 net.cpp:156] Memory required for data: 4126474320
I0117 16:27:17.509088  3425 layer_factory.hpp:77] Creating layer flow_pool4
I0117 16:27:17.509095  3425 net.cpp:91] Creating Layer flow_pool4
I0117 16:27:17.509100  3425 net.cpp:425] flow_pool4 <- flow_conv4b
I0117 16:27:17.509106  3425 net.cpp:399] flow_pool4 -> flow_pool4
I0117 16:27:17.509137  3425 net.cpp:141] Setting up flow_pool4
I0117 16:27:17.509146  3425 net.cpp:148] Top shape: 20 512 2 7 7 (1003520)
I0117 16:27:17.509151  3425 net.cpp:156] Memory required for data: 4130488400
I0117 16:27:17.509155  3425 layer_factory.hpp:77] Creating layer flow_conv5a
I0117 16:27:17.509168  3425 net.cpp:91] Creating Layer flow_conv5a
I0117 16:27:17.509174  3425 net.cpp:425] flow_conv5a <- flow_pool4
I0117 16:27:17.509182  3425 net.cpp:399] flow_conv5a -> flow_conv5a
I0117 16:27:17.572746  3425 net.cpp:141] Setting up flow_conv5a
I0117 16:27:17.572779  3425 net.cpp:148] Top shape: 20 512 2 7 7 (1003520)
I0117 16:27:17.572784  3425 net.cpp:156] Memory required for data: 4134502480
I0117 16:27:17.572794  3425 layer_factory.hpp:77] Creating layer flow_relu5a
I0117 16:27:17.572805  3425 net.cpp:91] Creating Layer flow_relu5a
I0117 16:27:17.572810  3425 net.cpp:425] flow_relu5a <- flow_conv5a
I0117 16:27:17.572818  3425 net.cpp:386] flow_relu5a -> flow_conv5a (in-place)
I0117 16:27:17.572829  3425 net.cpp:141] Setting up flow_relu5a
I0117 16:27:17.572832  3425 net.cpp:148] Top shape: 20 512 2 7 7 (1003520)
I0117 16:27:17.572835  3425 net.cpp:156] Memory required for data: 4138516560
I0117 16:27:17.572839  3425 layer_factory.hpp:77] Creating layer flow_conv5b
I0117 16:27:17.572849  3425 net.cpp:91] Creating Layer flow_conv5b
I0117 16:27:17.572852  3425 net.cpp:425] flow_conv5b <- flow_conv5a
I0117 16:27:17.572857  3425 net.cpp:399] flow_conv5b -> flow_conv5b
I0117 16:27:17.629094  3425 net.cpp:141] Setting up flow_conv5b
I0117 16:27:17.629134  3425 net.cpp:148] Top shape: 20 512 2 7 7 (1003520)
I0117 16:27:17.629139  3425 net.cpp:156] Memory required for data: 4142530640
I0117 16:27:17.629148  3425 layer_factory.hpp:77] Creating layer flow_relu5b
I0117 16:27:17.629159  3425 net.cpp:91] Creating Layer flow_relu5b
I0117 16:27:17.629165  3425 net.cpp:425] flow_relu5b <- flow_conv5b
I0117 16:27:17.629173  3425 net.cpp:386] flow_relu5b -> flow_conv5b (in-place)
I0117 16:27:17.629184  3425 net.cpp:141] Setting up flow_relu5b
I0117 16:27:17.629189  3425 net.cpp:148] Top shape: 20 512 2 7 7 (1003520)
I0117 16:27:17.629194  3425 net.cpp:156] Memory required for data: 4146544720
I0117 16:27:17.629196  3425 layer_factory.hpp:77] Creating layer flow_pool5
I0117 16:27:17.629211  3425 net.cpp:91] Creating Layer flow_pool5
I0117 16:27:17.629225  3425 net.cpp:425] flow_pool5 <- flow_conv5b
I0117 16:27:17.629230  3425 net.cpp:399] flow_pool5 -> flow_pool5
I0117 16:27:17.629258  3425 net.cpp:141] Setting up flow_pool5
I0117 16:27:17.629266  3425 net.cpp:148] Top shape: 20 512 1 4 4 (163840)
I0117 16:27:17.629269  3425 net.cpp:156] Memory required for data: 4147200080
I0117 16:27:17.629273  3425 layer_factory.hpp:77] Creating layer flow_fc6
I0117 16:27:17.629282  3425 net.cpp:91] Creating Layer flow_fc6
I0117 16:27:17.629287  3425 net.cpp:425] flow_fc6 <- flow_pool5
I0117 16:27:17.629292  3425 net.cpp:399] flow_fc6 -> flow_fc6
I0117 16:27:17.887974  3425 net.cpp:141] Setting up flow_fc6
I0117 16:27:17.888016  3425 net.cpp:148] Top shape: 20 4096 (81920)
I0117 16:27:17.888021  3425 net.cpp:156] Memory required for data: 4147527760
I0117 16:27:17.888036  3425 layer_factory.hpp:77] Creating layer flow_relu6
I0117 16:27:17.888048  3425 net.cpp:91] Creating Layer flow_relu6
I0117 16:27:17.888053  3425 net.cpp:425] flow_relu6 <- flow_fc6
I0117 16:27:17.888061  3425 net.cpp:386] flow_relu6 -> flow_fc6 (in-place)
I0117 16:27:17.888079  3425 net.cpp:141] Setting up flow_relu6
I0117 16:27:17.888083  3425 net.cpp:148] Top shape: 20 4096 (81920)
I0117 16:27:17.888087  3425 net.cpp:156] Memory required for data: 4147855440
I0117 16:27:17.888089  3425 layer_factory.hpp:77] Creating layer flow_drop6
I0117 16:27:17.888097  3425 net.cpp:91] Creating Layer flow_drop6
I0117 16:27:17.888100  3425 net.cpp:425] flow_drop6 <- flow_fc6
I0117 16:27:17.888105  3425 net.cpp:386] flow_drop6 -> flow_fc6 (in-place)
I0117 16:27:17.888133  3425 net.cpp:141] Setting up flow_drop6
I0117 16:27:17.888139  3425 net.cpp:148] Top shape: 20 4096 (81920)
I0117 16:27:17.888144  3425 net.cpp:156] Memory required for data: 4148183120
I0117 16:27:17.888146  3425 layer_factory.hpp:77] Creating layer flow_fc7
I0117 16:27:17.888156  3425 net.cpp:91] Creating Layer flow_fc7
I0117 16:27:17.888160  3425 net.cpp:425] flow_fc7 <- flow_fc6
I0117 16:27:17.888166  3425 net.cpp:399] flow_fc7 -> flow_fc7
I0117 16:27:18.018156  3425 net.cpp:141] Setting up flow_fc7
I0117 16:27:18.018195  3425 net.cpp:148] Top shape: 20 4096 (81920)
I0117 16:27:18.018199  3425 net.cpp:156] Memory required for data: 4148510800
I0117 16:27:18.018209  3425 layer_factory.hpp:77] Creating layer flow_relu7
I0117 16:27:18.018220  3425 net.cpp:91] Creating Layer flow_relu7
I0117 16:27:18.018225  3425 net.cpp:425] flow_relu7 <- flow_fc7
I0117 16:27:18.018232  3425 net.cpp:386] flow_relu7 -> flow_fc7 (in-place)
I0117 16:27:18.018241  3425 net.cpp:141] Setting up flow_relu7
I0117 16:27:18.018245  3425 net.cpp:148] Top shape: 20 4096 (81920)
I0117 16:27:18.018249  3425 net.cpp:156] Memory required for data: 4148838480
I0117 16:27:18.018251  3425 layer_factory.hpp:77] Creating layer flow_drop7
I0117 16:27:18.018259  3425 net.cpp:91] Creating Layer flow_drop7
I0117 16:27:18.018261  3425 net.cpp:425] flow_drop7 <- flow_fc7
I0117 16:27:18.018265  3425 net.cpp:386] flow_drop7 -> flow_fc7 (in-place)
I0117 16:27:18.018288  3425 net.cpp:141] Setting up flow_drop7
I0117 16:27:18.018295  3425 net.cpp:148] Top shape: 20 4096 (81920)
I0117 16:27:18.018297  3425 net.cpp:156] Memory required for data: 4149166160
I0117 16:27:18.018301  3425 layer_factory.hpp:77] Creating layer flow_fc8
I0117 16:27:18.018308  3425 net.cpp:91] Creating Layer flow_fc8
I0117 16:27:18.018312  3425 net.cpp:425] flow_fc8 <- flow_fc7
I0117 16:27:18.018317  3425 net.cpp:399] flow_fc8 -> flow_fc8
I0117 16:27:18.020615  3425 net.cpp:141] Setting up flow_fc8
I0117 16:27:18.020630  3425 net.cpp:148] Top shape: 20 51 (1020)
I0117 16:27:18.020634  3425 net.cpp:156] Memory required for data: 4149170240
I0117 16:27:18.020640  3425 layer_factory.hpp:77] Creating layer loss
I0117 16:27:18.020648  3425 net.cpp:91] Creating Layer loss
I0117 16:27:18.020650  3425 net.cpp:425] loss <- flow_fc8
I0117 16:27:18.020655  3425 net.cpp:425] loss <- label
I0117 16:27:18.020663  3425 net.cpp:399] loss -> loss
I0117 16:27:18.020673  3425 layer_factory.hpp:77] Creating layer loss
…
I0117 16:27:20.130465  3425 net.cpp:49] Initializing net from parameters: 
name: "C3D_net"
state {
  phase: TEST
}
layer {
  name: "data"
  type: "FlowData"
  top: "data"
  top: "label"
  include {
    phase: TEST
  }
  transform_param {
    mirror: false
    crop_size: 112
    mean_value: 128
    fix_crop: false
    multi_scale: false
    is_flow: true
    new_height: 128
    new_width: 171
  }
  flow_data_param {
    source: "/media/tranlaman/data/new-caffe-database/hmdb51_comp_tvl1_overlapping_len16_train_test_split1/val_flow_lmdb/"
    batch_size: 1
    new_length: 16
    modality: FLOW
    backend: LMDB
  }
}
layer {
  name: "reshape"
  type: "Reshape"
  bottom: "data"
  top: "vol_data"
  reshape_param {
    shape {
      dim: 2
      dim: -1
    }
    axis: 1
    num_axes: 1
  }
}
layer {
  name: "flow_conv1a"
  type: "Convolution"
  bottom: "vol_data"
  top: "flow_conv1a"
  param {
    lr_mult: 1
    decay_mult: 1
  }
  param {
    lr_mult: 2
    decay_mult: 0
  }
  convolution_param {
    num_output: 64
    pad: 1
    kernel_size: 3
    weight_filler {
      type: "gaussian"
      std: 0.01
    }
    bias_filler {
      type: "constant"
      value: 0
    }
    engine: CAFFE
    axis: 1
  }
}
layer {
  name: "flow_relu1a"
  type: "ReLU"
  bottom: "flow_conv1a"
  top: "flow_conv1a"
  relu_param {
    engine: CAFFE
  }
}
layer {
  name: "flow_pool1"
  type: "Pooling3D"
  bottom: "flow_conv1a"
  top: "flow_pool1"
  pooling3d_param {
    pool: MAX
    kernel_size: 2
    stride: 2
    kernel_depth: 1
    temporal_stride: 1
  }
}
layer {
  name: "flow_conv2a"
  type: "Convolution"
  bottom: "flow_pool1"
  top: "flow_conv2a"
  param {
    lr_mult: 1
    decay_mult: 1
  }
  param {
    lr_mult: 2
    decay_mult: 0
  }
  convolution_param {
    num_output: 128
    pad: 1
    kernel_size: 3
    weight_filler {
      type: "gaussian"
      std: 0.01
    }
    bias_filler {
      type: "constant"
      value: 1
    }
    engine: CAFFE
    axis: 1
  }
}
layer {
  name: "flow_relu2a"
  type: "ReLU"
  bottom: "flow_conv2a"
  top: "flow_conv2a"
  relu_param {
    engine: CAFFE
  }
}
layer {
  name: "flow_pool2"
  type: "Pooling3D"
  bottom: "flow_conv2a"
  top: "flow_pool2"
  pooling3d_param {
    pool: MAX
    kernel_size: 2
    stride: 2
    kernel_depth: 2
    temporal_stride: 2
  }
}
layer {
  name: "flow_conv3a"
  type: "Convolution"
  bottom: "flow_pool2"
  top: "flow_conv3a"
  param {
    lr_mult: 1
    decay_mult: 1
  }
  param {
    lr_mult: 2
    decay_mult: 0
  }
  convolution_param {
    num_output: 256
    pad: 1
    kernel_size: 3
    weight_filler {
      type: "gaussian"
      std: 0.01
    }
    bias_filler {
      type: "constant"
      value: 1
    }
    engine: CAFFE
    axis: 1
  }
}
layer {
  name: "flow_relu3a"
  type: "ReLU"
  bottom: "flow_conv3a"
  top: "flow_conv3a"
  relu_param {
    engine: CAFFE
  }
}
layer {
  name: "flow_conv3b"
  type: "Convolution"
  bottom: "flow_conv3a"
  top: "flow_conv3b"
  param {
    lr_mult: 1
    decay_mult: 1
  }
  param {
    lr_mult: 2
    decay_mult: 0
  }
  convolution_param {
    num_output: 256
    pad: 1
    kernel_size: 3
    weight_filler {
      type: "gaussian"
      std: 0.01
    }
    bias_filler {
      type: "constant"
      value: 1
    }
    engine: CAFFE
    axis: 1
  }
}
layer {
  name: "flow_relu3b"
  type: "ReLU"
  bottom: "flow_conv3b"
  top: "flow_conv3b"
  relu_param {
    engine: CAFFE
  }
}
layer {
  name: "flow_pool3"
  type: "Pooling3D"
  bottom: "flow_conv3b"
  top: "flow_pool3"
  pooling3d_param {
    pool: MAX
    kernel_size: 2
    stride: 2
    kernel_depth: 2
    temporal_stride: 2
  }
}
layer {
  name: "flow_conv4a"
  type: "Convolution"
  bottom: "flow_pool3"
  top: "flow_conv4a"
  param {
    lr_mult: 1
    decay_mult: 1
  }
  param {
    lr_mult: 2
    decay_mult: 0
  }
  convolution_param {
    num_output: 512
    pad: 1
    kernel_size: 3
    weight_filler {
      type: "gaussian"
      std: 0.01
    }
    bias_filler {
      type: "constant"
      value: 1
    }
    engine: CAFFE
    axis: 1
  }
}
layer {
  name: "flow_relu4a"
  type: "ReLU"
  bottom: "flow_conv4a"
  top: "flow_conv4a"
  relu_param {
    engine: CAFFE
  }
}
layer {
  name: "flow_conv4b"
  type: "Convolution"
  bottom: "flow_conv4a"
  top: "flow_conv4b"
  param {
    lr_mult: 1
    decay_mult: 1
  }
  param {
    lr_mult: 2
    decay_mult: 0
  }
  convolution_param {
    num_output: 512
    pad: 1
    kernel_size: 3
    weight_filler {
      type: "gaussian"
      std: 0.01
    }
    bias_filler {
      type: "constant"
      value: 1
    }
    engine: CAFFE
    axis: 1
  }
}
layer {
  name: "flow_relu4b"
  type: "ReLU"
  bottom: "flow_conv4b"
  top: "flow_conv4b"
  relu_param {
    engine: CAFFE
  }
}
layer {
  name: "flow_pool4"
  type: "Pooling3D"
  bottom: "flow_conv4b"
  top: "flow_pool4"
  pooling3d_param {
    pool: MAX
    kernel_size: 2
    stride: 2
    kernel_depth: 2
    temporal_stride: 2
  }
}
layer {
  name: "flow_conv5a"
  type: "Convolution"
  bottom: "flow_pool4"
  top: "flow_conv5a"
  param {
    lr_mult: 1
    decay_mult: 1
  }
  param {
    lr_mult: 2
    decay_mult: 0
  }
  convolution_param {
    num_output: 512
    pad: 1
    kernel_size: 3
    weight_filler {
      type: "gaussian"
      std: 0.01
    }
    bias_filler {
      type: "constant"
      value: 1
    }
    engine: CAFFE
    axis: 1
  }
}
layer {
  name: "flow_relu5a"
  type: "ReLU"
  bottom: "flow_conv5a"
  top: "flow_conv5a"
  relu_param {
    engine: CAFFE
  }
}
layer {
  name: "flow_conv5b"
  type: "Convolution"
  bottom: "flow_conv5a"
  top: "flow_conv5b"
  param {
    lr_mult: 1
    decay_mult: 1
  }
  param {
    lr_mult: 2
    decay_mult: 0
  }
  convolution_param {
    num_output: 512
    pad: 1
    kernel_size: 3
    weight_filler {
      type: "gaussian"
      std: 0.01
    }
    bias_filler {
      type: "constant"
      value: 1
    }
    engine: CAFFE
    axis: 1
  }
}
layer {
  name: "flow_relu5b"
  type: "ReLU"
  bottom: "flow_conv5b"
  top: "flow_conv5b"
  relu_param {
    engine: CAFFE
  }
}
layer {
  name: "flow_pool5"
  type: "Pooling3D"
  bottom: "flow_conv5b"
  top: "flow_pool5"
  pooling3d_param {
    pool: MAX
    kernel_size: 2
    stride: 2
    kernel_depth: 2
    temporal_stride: 2
  }
}
layer {
  name: "flow_fc6"
  type: "InnerProduct"
  bottom: "flow_pool5"
  top: "flow_fc6"
  param {
    lr_mult: 1
    decay_mult: 1
  }
  param {
    lr_mult: 2
    decay_mult: 0
  }
  inner_product_param {
    num_output: 4096
    weight_filler {
      type: "gaussian"
      std: 0.005
    }
    bias_filler {
      type: "constant"
      value: 1
    }
  }
}
layer {
  name: "flow_relu6"
  type: "ReLU"
  bottom: "flow_fc6"
  top: "flow_fc6"
  relu_param {
    engine: CAFFE
  }
}
layer {
  name: "flow_drop6"
  type: "Dropout"
  bottom: "flow_fc6"
  top: "flow_fc6"
  dropout_param {
    dropout_ratio: 0.9
  }
}
layer {
  name: "flow_fc7"
  type: "InnerProduct"
  bottom: "flow_fc6"
  top: "flow_fc7"
  param {
    lr_mult: 1
    decay_mult: 1
  }
  param {
    lr_mult: 2
    decay_mult: 0
  }
  inner_product_param {
    num_output: 4096
    weight_filler {
      type: "gaussian"
      std: 0.005
    }
    bias_filler {
      type: "constant"
      value: 1
    }
  }
}
layer {
  name: "flow_relu7"
  type: "ReLU"
  bottom: "flow_fc7"
  top: "flow_fc7"
  relu_param {
    engine: CAFFE
  }
}
layer {
  name: "flow_drop7"
  type: "Dropout"
  bottom: "flow_fc7"
  top: "flow_fc7"
  dropout_param {
    dropout_ratio: 0.8
  }
}
layer {
  name: "flow_fc8"
  type: "InnerProduct"
  bottom: "flow_fc7"
  top: "flow_fc8"
  param {
    lr_mult: 1
    decay_mult: 1
  }
  param {
    lr_mult: 2
    decay_mult: 0
  }
  inner_product_param {
    num_output: 51
    weight_filler {
      type: "gaussian"
      std: 0.01
    }
    bias_filler {
      type: "constant"
      value: 0
    }
  }
}
layer {
  name: "accuracy"
  type: "Accuracy"
  bottom: "flow_fc8"
  bottom: "label"
  top: "accuracy"
  include {
    phase: TEST
  }
}
layer {
  name: "loss"
  type: "SoftmaxWithLoss"
  bottom: "flow_fc8"
  bottom: "label"
  top: "loss"
}
I0117 16:27:20.130584  3425 layer_factory.hpp:77] Creating layer data
I0117 16:27:20.130650  3425 net.cpp:91] Creating Layer data
I0117 16:27:20.130662  3425 net.cpp:399] data -> data
I0117 16:27:20.130672  3425 net.cpp:399] data -> label
I0117 16:27:20.166146  3448 db_lmdb.cpp:38] Opened lmdb /media/tranlaman/data/new-caffe-database/hmdb51_comp_tvl1_overlapping_len16_train_test_split1/val_flow_lmdb/
I0117 16:27:20.204095  3425 flow_data_layer.cpp:40] Extracting 1-view features in TEST phase.
I0117 16:27:20.204396  3425 flow_data_layer.cpp:52] output data size: 1,32,112,112
I0117 16:27:20.224822  3425 net.cpp:141] Setting up data
I0117 16:27:20.224884  3425 net.cpp:148] Top shape: 1 32 112 112 (401408)
I0117 16:27:20.224898  3425 net.cpp:148] Top shape: 1 (1)
I0117 16:27:20.224906  3425 net.cpp:156] Memory required for data: 1605636
I0117 16:27:20.224920  3425 layer_factory.hpp:77] Creating layer label_data_1_split
I0117 16:27:20.224944  3425 net.cpp:91] Creating Layer label_data_1_split
I0117 16:27:20.224968  3425 net.cpp:425] label_data_1_split <- label
I0117 16:27:20.225002  3425 net.cpp:399] label_data_1_split -> label_data_1_split_0
I0117 16:27:20.225023  3425 net.cpp:399] label_data_1_split -> label_data_1_split_1
I0117 16:27:20.225157  3425 net.cpp:141] Setting up label_data_1_split
I0117 16:27:20.225175  3425 net.cpp:148] Top shape: 1 (1)
I0117 16:27:20.225185  3425 net.cpp:148] Top shape: 1 (1)
I0117 16:27:20.225193  3425 net.cpp:156] Memory required for data: 1605644
I0117 16:27:20.225201  3425 layer_factory.hpp:77] Creating layer reshape
I0117 16:27:20.225220  3425 net.cpp:91] Creating Layer reshape
I0117 16:27:20.225229  3425 net.cpp:425] reshape <- data
I0117 16:27:20.225241  3425 net.cpp:399] reshape -> vol_data
I0117 16:27:20.225304  3425 net.cpp:141] Setting up reshape
I0117 16:27:20.225319  3425 net.cpp:148] Top shape: 1 2 16 112 112 (401408)
I0117 16:27:20.225327  3425 net.cpp:156] Memory required for data: 3211276
I0117 16:27:20.225335  3425 layer_factory.hpp:77] Creating layer flow_conv1a
I0117 16:27:20.225368  3425 net.cpp:91] Creating Layer flow_conv1a
I0117 16:27:20.225384  3425 net.cpp:425] flow_conv1a <- vol_data
I0117 16:27:20.225424  3425 net.cpp:399] flow_conv1a -> flow_conv1a
I0117 16:27:20.226317  3425 net.cpp:141] Setting up flow_conv1a
I0117 16:27:20.226344  3425 net.cpp:148] Top shape: 1 64 16 112 112 (12845056)
I0117 16:27:20.226356  3425 net.cpp:156] Memory required for data: 54591500
I0117 16:27:20.226379  3425 layer_factory.hpp:77] Creating layer flow_relu1a
I0117 16:27:20.226397  3425 net.cpp:91] Creating Layer flow_relu1a
I0117 16:27:20.226407  3425 net.cpp:425] flow_relu1a <- flow_conv1a
I0117 16:27:20.226419  3425 net.cpp:386] flow_relu1a -> flow_conv1a (in-place)
I0117 16:27:20.226433  3425 net.cpp:141] Setting up flow_relu1a
I0117 16:27:20.226444  3425 net.cpp:148] Top shape: 1 64 16 112 112 (12845056)
I0117 16:27:20.226451  3425 net.cpp:156] Memory required for data: 105971724
I0117 16:27:20.226460  3425 layer_factory.hpp:77] Creating layer flow_pool1
I0117 16:27:20.226474  3425 net.cpp:91] Creating Layer flow_pool1
I0117 16:27:20.226487  3425 net.cpp:425] flow_pool1 <- flow_conv1a
I0117 16:27:20.226497  3425 net.cpp:399] flow_pool1 -> flow_pool1
I0117 16:27:20.226554  3425 net.cpp:141] Setting up flow_pool1
I0117 16:27:20.226567  3425 net.cpp:148] Top shape: 1 64 16 56 56 (3211264)
I0117 16:27:20.226575  3425 net.cpp:156] Memory required for data: 118816780
I0117 16:27:20.226583  3425 layer_factory.hpp:77] Creating layer flow_conv2a
I0117 16:27:20.226603  3425 net.cpp:91] Creating Layer flow_conv2a
I0117 16:27:20.226613  3425 net.cpp:425] flow_conv2a <- flow_pool1
I0117 16:27:20.226624  3425 net.cpp:399] flow_conv2a -> flow_conv2a
I0117 16:27:20.232954  3425 net.cpp:141] Setting up flow_conv2a
I0117 16:27:20.232992  3425 net.cpp:148] Top shape: 1 128 16 56 56 (6422528)
I0117 16:27:20.233001  3425 net.cpp:156] Memory required for data: 144506892
I0117 16:27:20.233021  3425 layer_factory.hpp:77] Creating layer flow_relu2a
I0117 16:27:20.233036  3425 net.cpp:91] Creating Layer flow_relu2a
I0117 16:27:20.233047  3425 net.cpp:425] flow_relu2a <- flow_conv2a
I0117 16:27:20.233058  3425 net.cpp:386] flow_relu2a -> flow_conv2a (in-place)
I0117 16:27:20.233072  3425 net.cpp:141] Setting up flow_relu2a
I0117 16:27:20.233083  3425 net.cpp:148] Top shape: 1 128 16 56 56 (6422528)
I0117 16:27:20.233090  3425 net.cpp:156] Memory required for data: 170197004
I0117 16:27:20.233098  3425 layer_factory.hpp:77] Creating layer flow_pool2
I0117 16:27:20.233111  3425 net.cpp:91] Creating Layer flow_pool2
I0117 16:27:20.233120  3425 net.cpp:425] flow_pool2 <- flow_conv2a
I0117 16:27:20.233132  3425 net.cpp:399] flow_pool2 -> flow_pool2
I0117 16:27:20.233187  3425 net.cpp:141] Setting up flow_pool2
I0117 16:27:20.233201  3425 net.cpp:148] Top shape: 1 128 8 28 28 (802816)
I0117 16:27:20.233207  3425 net.cpp:156] Memory required for data: 173408268
I0117 16:27:20.233217  3425 layer_factory.hpp:77] Creating layer flow_conv3a
I0117 16:27:20.233234  3425 net.cpp:91] Creating Layer flow_conv3a
I0117 16:27:20.233254  3425 net.cpp:425] flow_conv3a <- flow_pool2
I0117 16:27:20.233280  3425 net.cpp:399] flow_conv3a -> flow_conv3a
I0117 16:27:20.250748  3425 net.cpp:141] Setting up flow_conv3a
I0117 16:27:20.250799  3425 net.cpp:148] Top shape: 1 256 8 28 28 (1605632)
I0117 16:27:20.250808  3425 net.cpp:156] Memory required for data: 179830796
I0117 16:27:20.250830  3425 layer_factory.hpp:77] Creating layer flow_relu3a
I0117 16:27:20.250849  3425 net.cpp:91] Creating Layer flow_relu3a
I0117 16:27:20.250859  3425 net.cpp:425] flow_relu3a <- flow_conv3a
I0117 16:27:20.250870  3425 net.cpp:386] flow_relu3a -> flow_conv3a (in-place)
I0117 16:27:20.250885  3425 net.cpp:141] Setting up flow_relu3a
I0117 16:27:20.250896  3425 net.cpp:148] Top shape: 1 256 8 28 28 (1605632)
I0117 16:27:20.250902  3425 net.cpp:156] Memory required for data: 186253324
I0117 16:27:20.250910  3425 layer_factory.hpp:77] Creating layer flow_conv3b
I0117 16:27:20.250926  3425 net.cpp:91] Creating Layer flow_conv3b
I0117 16:27:20.250934  3425 net.cpp:425] flow_conv3b <- flow_conv3a
I0117 16:27:20.250946  3425 net.cpp:399] flow_conv3b -> flow_conv3b
I0117 16:27:20.281075  3425 net.cpp:141] Setting up flow_conv3b
I0117 16:27:20.281126  3425 net.cpp:148] Top shape: 1 256 8 28 28 (1605632)
I0117 16:27:20.281136  3425 net.cpp:156] Memory required for data: 192675852
I0117 16:27:20.281149  3425 layer_factory.hpp:77] Creating layer flow_relu3b
I0117 16:27:20.281164  3425 net.cpp:91] Creating Layer flow_relu3b
I0117 16:27:20.281172  3425 net.cpp:425] flow_relu3b <- flow_conv3b
I0117 16:27:20.281184  3425 net.cpp:386] flow_relu3b -> flow_conv3b (in-place)
I0117 16:27:20.281199  3425 net.cpp:141] Setting up flow_relu3b
I0117 16:27:20.281208  3425 net.cpp:148] Top shape: 1 256 8 28 28 (1605632)
I0117 16:27:20.281213  3425 net.cpp:156] Memory required for data: 199098380
I0117 16:27:20.281219  3425 layer_factory.hpp:77] Creating layer flow_pool3
I0117 16:27:20.281229  3425 net.cpp:91] Creating Layer flow_pool3
I0117 16:27:20.281236  3425 net.cpp:425] flow_pool3 <- flow_conv3b
I0117 16:27:20.281244  3425 net.cpp:399] flow_pool3 -> flow_pool3
I0117 16:27:20.281291  3425 net.cpp:141] Setting up flow_pool3
I0117 16:27:20.281301  3425 net.cpp:148] Top shape: 1 256 4 14 14 (200704)
I0117 16:27:20.281307  3425 net.cpp:156] Memory required for data: 199901196
I0117 16:27:20.281313  3425 layer_factory.hpp:77] Creating layer flow_conv4a
I0117 16:27:20.281329  3425 net.cpp:91] Creating Layer flow_conv4a
I0117 16:27:20.281337  3425 net.cpp:425] flow_conv4a <- flow_pool3
I0117 16:27:20.281345  3425 net.cpp:399] flow_conv4a -> flow_conv4a
I0117 16:27:20.331213  3425 net.cpp:141] Setting up flow_conv4a
I0117 16:27:20.331266  3425 net.cpp:148] Top shape: 1 512 4 14 14 (401408)
I0117 16:27:20.331274  3425 net.cpp:156] Memory required for data: 201506828
I0117 16:27:20.331291  3425 layer_factory.hpp:77] Creating layer flow_relu4a
I0117 16:27:20.331306  3425 net.cpp:91] Creating Layer flow_relu4a
I0117 16:27:20.331315  3425 net.cpp:425] flow_relu4a <- flow_conv4a
I0117 16:27:20.331324  3425 net.cpp:386] flow_relu4a -> flow_conv4a (in-place)
I0117 16:27:20.331336  3425 net.cpp:141] Setting up flow_relu4a
I0117 16:27:20.331343  3425 net.cpp:148] Top shape: 1 512 4 14 14 (401408)
I0117 16:27:20.331349  3425 net.cpp:156] Memory required for data: 203112460
I0117 16:27:20.331354  3425 layer_factory.hpp:77] Creating layer flow_conv4b
I0117 16:27:20.331372  3425 net.cpp:91] Creating Layer flow_conv4b
I0117 16:27:20.331377  3425 net.cpp:425] flow_conv4b <- flow_conv4a
I0117 16:27:20.331387  3425 net.cpp:399] flow_conv4b -> flow_conv4b
I0117 16:27:20.410455  3425 net.cpp:141] Setting up flow_conv4b
I0117 16:27:20.410501  3425 net.cpp:148] Top shape: 1 512 4 14 14 (401408)
I0117 16:27:20.410506  3425 net.cpp:156] Memory required for data: 204718092
I0117 16:27:20.410516  3425 layer_factory.hpp:77] Creating layer flow_relu4b
I0117 16:27:20.410529  3425 net.cpp:91] Creating Layer flow_relu4b
I0117 16:27:20.410534  3425 net.cpp:425] flow_relu4b <- flow_conv4b
I0117 16:27:20.410553  3425 net.cpp:386] flow_relu4b -> flow_conv4b (in-place)
I0117 16:27:20.410574  3425 net.cpp:141] Setting up flow_relu4b
I0117 16:27:20.410579  3425 net.cpp:148] Top shape: 1 512 4 14 14 (401408)
I0117 16:27:20.410583  3425 net.cpp:156] Memory required for data: 206323724
I0117 16:27:20.410586  3425 layer_factory.hpp:77] Creating layer flow_pool4
I0117 16:27:20.410594  3425 net.cpp:91] Creating Layer flow_pool4
I0117 16:27:20.410598  3425 net.cpp:425] flow_pool4 <- flow_conv4b
I0117 16:27:20.410604  3425 net.cpp:399] flow_pool4 -> flow_pool4
I0117 16:27:20.410634  3425 net.cpp:141] Setting up flow_pool4
I0117 16:27:20.410641  3425 net.cpp:148] Top shape: 1 512 2 7 7 (50176)
I0117 16:27:20.410645  3425 net.cpp:156] Memory required for data: 206524428
I0117 16:27:20.410650  3425 layer_factory.hpp:77] Creating layer flow_conv5a
I0117 16:27:20.410660  3425 net.cpp:91] Creating Layer flow_conv5a
I0117 16:27:20.410665  3425 net.cpp:425] flow_conv5a <- flow_pool4
I0117 16:27:20.410670  3425 net.cpp:399] flow_conv5a -> flow_conv5a
I0117 16:27:20.475183  3425 net.cpp:141] Setting up flow_conv5a
I0117 16:27:20.475224  3425 net.cpp:148] Top shape: 1 512 2 7 7 (50176)
I0117 16:27:20.475229  3425 net.cpp:156] Memory required for data: 206725132
I0117 16:27:20.475237  3425 layer_factory.hpp:77] Creating layer flow_relu5a
I0117 16:27:20.475248  3425 net.cpp:91] Creating Layer flow_relu5a
I0117 16:27:20.475253  3425 net.cpp:425] flow_relu5a <- flow_conv5a
I0117 16:27:20.475261  3425 net.cpp:386] flow_relu5a -> flow_conv5a (in-place)
I0117 16:27:20.475270  3425 net.cpp:141] Setting up flow_relu5a
I0117 16:27:20.475275  3425 net.cpp:148] Top shape: 1 512 2 7 7 (50176)
I0117 16:27:20.475277  3425 net.cpp:156] Memory required for data: 206925836
I0117 16:27:20.475281  3425 layer_factory.hpp:77] Creating layer flow_conv5b
I0117 16:27:20.475291  3425 net.cpp:91] Creating Layer flow_conv5b
I0117 16:27:20.475294  3425 net.cpp:425] flow_conv5b <- flow_conv5a
I0117 16:27:20.475299  3425 net.cpp:399] flow_conv5b -> flow_conv5b
I0117 16:27:20.532061  3425 net.cpp:141] Setting up flow_conv5b
I0117 16:27:20.532101  3425 net.cpp:148] Top shape: 1 512 2 7 7 (50176)
I0117 16:27:20.532105  3425 net.cpp:156] Memory required for data: 207126540
I0117 16:27:20.532114  3425 layer_factory.hpp:77] Creating layer flow_relu5b
I0117 16:27:20.532124  3425 net.cpp:91] Creating Layer flow_relu5b
I0117 16:27:20.532130  3425 net.cpp:425] flow_relu5b <- flow_conv5b
I0117 16:27:20.532135  3425 net.cpp:386] flow_relu5b -> flow_conv5b (in-place)
I0117 16:27:20.532145  3425 net.cpp:141] Setting up flow_relu5b
I0117 16:27:20.532148  3425 net.cpp:148] Top shape: 1 512 2 7 7 (50176)
I0117 16:27:20.532151  3425 net.cpp:156] Memory required for data: 207327244
I0117 16:27:20.532155  3425 layer_factory.hpp:77] Creating layer flow_pool5
I0117 16:27:20.532160  3425 net.cpp:91] Creating Layer flow_pool5
I0117 16:27:20.532165  3425 net.cpp:425] flow_pool5 <- flow_conv5b
I0117 16:27:20.532168  3425 net.cpp:399] flow_pool5 -> flow_pool5
I0117 16:27:20.532196  3425 net.cpp:141] Setting up flow_pool5
I0117 16:27:20.532202  3425 net.cpp:148] Top shape: 1 512 1 4 4 (8192)
I0117 16:27:20.532207  3425 net.cpp:156] Memory required for data: 207360012
I0117 16:27:20.532209  3425 layer_factory.hpp:77] Creating layer flow_fc6
I0117 16:27:20.532217  3425 net.cpp:91] Creating Layer flow_fc6
I0117 16:27:20.532219  3425 net.cpp:425] flow_fc6 <- flow_pool5
I0117 16:27:20.532224  3425 net.cpp:399] flow_fc6 -> flow_fc6
I0117 16:27:20.794113  3425 net.cpp:141] Setting up flow_fc6
I0117 16:27:20.794152  3425 net.cpp:148] Top shape: 1 4096 (4096)
I0117 16:27:20.794155  3425 net.cpp:156] Memory required for data: 207376396
I0117 16:27:20.794170  3425 layer_factory.hpp:77] Creating layer flow_relu6
I0117 16:27:20.794180  3425 net.cpp:91] Creating Layer flow_relu6
I0117 16:27:20.794185  3425 net.cpp:425] flow_relu6 <- flow_fc6
I0117 16:27:20.794193  3425 net.cpp:386] flow_relu6 -> flow_fc6 (in-place)
I0117 16:27:20.794201  3425 net.cpp:141] Setting up flow_relu6
I0117 16:27:20.794205  3425 net.cpp:148] Top shape: 1 4096 (4096)
I0117 16:27:20.794224  3425 net.cpp:156] Memory required for data: 207392780
I0117 16:27:20.794226  3425 layer_factory.hpp:77] Creating layer flow_drop6
I0117 16:27:20.794234  3425 net.cpp:91] Creating Layer flow_drop6
I0117 16:27:20.794237  3425 net.cpp:425] flow_drop6 <- flow_fc6
I0117 16:27:20.794241  3425 net.cpp:386] flow_drop6 -> flow_fc6 (in-place)
I0117 16:27:20.794263  3425 net.cpp:141] Setting up flow_drop6
I0117 16:27:20.794270  3425 net.cpp:148] Top shape: 1 4096 (4096)
I0117 16:27:20.794272  3425 net.cpp:156] Memory required for data: 207409164
I0117 16:27:20.794275  3425 layer_factory.hpp:77] Creating layer flow_fc7
I0117 16:27:20.794281  3425 net.cpp:91] Creating Layer flow_fc7
I0117 16:27:20.794286  3425 net.cpp:425] flow_fc7 <- flow_fc6
I0117 16:27:20.794291  3425 net.cpp:399] flow_fc7 -> flow_fc7
I0117 16:27:20.925474  3425 net.cpp:141] Setting up flow_fc7
I0117 16:27:20.925513  3425 net.cpp:148] Top shape: 1 4096 (4096)
I0117 16:27:20.925518  3425 net.cpp:156] Memory required for data: 207425548
I0117 16:27:20.925529  3425 layer_factory.hpp:77] Creating layer flow_relu7
I0117 16:27:20.925539  3425 net.cpp:91] Creating Layer flow_relu7
I0117 16:27:20.925544  3425 net.cpp:425] flow_relu7 <- flow_fc7
I0117 16:27:20.925550  3425 net.cpp:386] flow_relu7 -> flow_fc7 (in-place)
I0117 16:27:20.925560  3425 net.cpp:141] Setting up flow_relu7
I0117 16:27:20.925564  3425 net.cpp:148] Top shape: 1 4096 (4096)
I0117 16:27:20.925566  3425 net.cpp:156] Memory required for data: 207441932
I0117 16:27:20.925570  3425 layer_factory.hpp:77] Creating layer flow_drop7
I0117 16:27:20.925576  3425 net.cpp:91] Creating Layer flow_drop7
I0117 16:27:20.925580  3425 net.cpp:425] flow_drop7 <- flow_fc7
I0117 16:27:20.925582  3425 net.cpp:386] flow_drop7 -> flow_fc7 (in-place)
I0117 16:27:20.925604  3425 net.cpp:141] Setting up flow_drop7
I0117 16:27:20.925609  3425 net.cpp:148] Top shape: 1 4096 (4096)
I0117 16:27:20.925612  3425 net.cpp:156] Memory required for data: 207458316
I0117 16:27:20.925616  3425 layer_factory.hpp:77] Creating layer flow_fc8
I0117 16:27:20.925622  3425 net.cpp:91] Creating Layer flow_fc8
I0117 16:27:20.925626  3425 net.cpp:425] flow_fc8 <- flow_fc7
I0117 16:27:20.925631  3425 net.cpp:399] flow_fc8 -> flow_fc8
I0117 16:27:20.927145  3425 net.cpp:141] Setting up flow_fc8
I0117 16:27:20.927153  3425 net.cpp:148] Top shape: 1 51 (51)
I0117 16:27:20.927156  3425 net.cpp:156] Memory required for data: 207458520
I0117 16:27:20.927161  3425 layer_factory.hpp:77] Creating layer flow_fc8_flow_fc8_0_split
I0117 16:27:20.927167  3425 net.cpp:91] Creating Layer flow_fc8_flow_fc8_0_split
I0117 16:27:20.927171  3425 net.cpp:425] flow_fc8_flow_fc8_0_split <- flow_fc8
I0117 16:27:20.927175  3425 net.cpp:399] flow_fc8_flow_fc8_0_split -> flow_fc8_flow_fc8_0_split_0
I0117 16:27:20.927181  3425 net.cpp:399] flow_fc8_flow_fc8_0_split -> flow_fc8_flow_fc8_0_split_1
I0117 16:27:20.927211  3425 net.cpp:141] Setting up flow_fc8_flow_fc8_0_split
I0117 16:27:20.927217  3425 net.cpp:148] Top shape: 1 51 (51)
I0117 16:27:20.927220  3425 net.cpp:148] Top shape: 1 51 (51)
I0117 16:27:20.927222  3425 net.cpp:156] Memory required for data: 207458928
I0117 16:27:20.927225  3425 layer_factory.hpp:77] Creating layer accuracy
I0117 16:27:20.927235  3425 net.cpp:91] Creating Layer accuracy
I0117 16:27:20.927239  3425 net.cpp:425] accuracy <- flow_fc8_flow_fc8_0_split_0
I0117 16:27:20.927244  3425 net.cpp:425] accuracy <- label_data_1_split_0
I0117 16:27:20.927248  3425 net.cpp:399] accuracy -> accuracy
…
